results/MoveToGoal/MoveToGoal.onnx (onnx, 75062 bytes, 7 tensors)

network_body._body_endoder.seq_layers.0.weight f4 [128, 6]
000000 29 f5 9b 3e d1 93 16 3e 86 a1 db be c3 33 12 bf
       0.3046048 0.14704825 -0.4289667 -0.5711023
000010 65 87 41 bf e3 75 25 3f 24 78 93 bd a4 50 d8 3e
       -0.7559722 0.64633006 -0.072006494 0.42249024
000020 d4 f3 5e be c6 a3 40 bd 66 70 08 bf 3b f8 ae 3e
       -0.217727 -0.047031187 -0.53296506 0.3417376
000030 1a 7e c2 be 39 dd 46 3d 51 75 12 3e 9a 58 71 bf
       -0.37986833 0.048550818 0.14302565 -0.9427582
000040 2b f1 a3 3d c9 ea d7 bd b6 e7 84 be cc 4e 93 3e
       0.080049835 -0.105428286 -0.2595803 0.28771055
000050 7f e9 00 3f fb 8e 0a bf 63 a6 f8 3e 51 6f 93 be
       0.50356287 -0.5412442 0.48564443 -0.28795865
000060 01 d2 0a bd 50 a6 17 3f de b5 ff 3e 7c 68 54 be
       -0.03389168 0.5923815 0.4994344 -0.20742983
000070 86 56 3d bf 27 af 08 3f cd f9 81 be 76 c4 61 be
       -0.7396015 0.5339226 -0.25385895 -0.220476
000080 a9 62 10 3f b2 eb 98 3e c1 30 2b bf 8b 06 34 3c
       0.56400543 0.2986732 -0.6687127 0.010987888
000090 4d 4d e1 3c ff 2a 0e 3f e8 9c 07 bf 79 e7 bd 3e
       0.02750268 0.55534357 -0.52973795 0.37090662
0000a0 c0 35 37 be d4 74 b4 3e eb d6 2e 3f c2 ad f4 3d
       -0.17891598 0.35245383 0.6829669 0.11947204
0000b0 dc 78 c9 3e c7 bf c5 3e c5 48 30 3d 68 f2 84 be
       0.3935002 0.38622877 0.04303815 -0.2596619
0000c0 d1 9c f9 3d 5e 61 25 be 42 c9 a5 3e 1a c5 dd 3e
       0.121881135 -0.16150424 0.3238011 0.4331444
0000d0 f0 9d e8 3e 71 ea 41 bb 6d 39 9b be 5f d7 f3 3d
       0.45432997 -0.00295892 -0.3031725 0.11906313
0000e0 91 09 dc 3e f8 17 ef be 06 e1 2c be ae 5c 3e be
       0.4297605 -0.46697974 -0.16882715 -0.18590042
0000f0 38 27 88 be 9c bc 30 bf 61 8b 16 3e ac aa 93 3d
       -0.26592422 -0.69037795 0.14701606 0.072102875
000100 3a e4 70 3f f6 32 38 3f de 79 59 3e 98 da d1 3e
       0.94098246 0.7195276 0.21237895 0.40987086
000110 9e c6 1e bf bd 3e 05 3f f6 ff b9 3e 87 27 15 3f
       -0.62021816 0.52048856 0.36328095 0.5826344
000120 7e cc 87 be 39 60 af be f3 93 86 be 5b 75 72 be
       -0.26523203 -0.342531 -0.2628475 -0.2367758
000130 5f 73 fe bd f9 62 db 3b 99 8e d7 bd c2 7b 5d be
       -0.12424349 0.006695148 -0.10525245 -0.21629241
000140 c2 08 0a 3f d5 1f f3 3b 3f 32 38 bf ca 3e 63 3f
       0.53919613 0.007419566 -0.7195167 0.88767684
000150 54 ea 04 3e 36 74 51 3e c2 ed 6b 3d c9 87 bd be
       0.12980014 0.20454487 0.05759979 -0.37017658
000160 77 04 09 be 66 bf f6 bc bd e9 e3 3d bb 9b 57 3d
       -0.1338061 -0.030120563 0.111285664 0.05263875
000170 5a da e8 be df d7 24 be c1 53 0a 3d 4a 5e 0d bf
       -0.4547909 -0.16097973 0.03377128 -0.55222
000180 58 9b 12 bf fe 7a f9 be 2a 4b 98 be bb 80 4d bd
       -0.57268286 -0.48726648 -0.29744846 -0.050171595
000190 6d 85 10 3f 7f bc ae 3e e2 32 34 3d 92 f7 bd be
       0.5645359 0.34128186 0.043993838 -0.37102944
0001a0 f4 a7 8a be ec 7f 2f 3f 86 48 e8 b9 05 9a 5f 3f
       -0.27081263 0.6855457 -0.00044304522 0.8734439
0001b0 a5 26 aa 3e 89 e4 af be 36 05 fd bc 00 42 da 3e
       0.33232608 -0.34354046 -0.030886274 0.4262848
0001c0 7b 9e 30 3f a1 ad 31 bf 52 79 dd be b6 d8 8b be
       0.6899182 -0.6940556 -0.43256623 -0.27313775
0001d0 44 04 2f 3e e8 d8 43 3e b7 77 cd 3e 5d 26 1b 3d
       0.17091471 0.19125712 0.40130398 0.037878383
0001e0 89 a1 ca be ba 23 bd be 72 76 fa bd f2 11 dc 3e
       -0.39576367 -0.3694132 -0.12229623 0.4298244
0001f0 07 ac 6f bd 84 20 75 be 27 dc 94 3b ca e1 19 3e
       -0.058513667 -0.23938185 0.0045428458 0.15027538
000200 b8 29 02 3e 7e b1 86 3e fc a1 57 3e 53 31 16 bc
       0.12711227 0.2630729 0.21057886 -0.009167033
000210 f4 0a 0a 3f 80 4a a1 3d cb 2e a1 bd 71 12 42 bd
       0.53922963 0.07875538 -0.07870253 -0.04738087
000220 cd 9a 19 3f 5d 97 8d bf 7d a7 e6 be 1c 3a bc bd
       0.6000183 -1.1061817 -0.45049658 -0.09190771
000230 fb 2b e7 bd 9e 49 ce 3e 51 d5 af be 43 b0 60 bf
       -0.112876855 0.4029054 -0.34342435 -0.87768954
000240 e2 d5 98 bf d8 39 e2 3e af 49 92 be 63 72 b1 bd
       -1.1940272 0.44184756 -0.2857184 -0.08664396
000250 2b 9f 8d 3d 78 26 c3 3e 2b d3 27 3f f7 84 70 be
       0.069151245 0.38115287 0.6555659 -0.23488222
000260 63 15 fd 3e b6 16 97 3e 54 a6 67 be 07 59 4d be
       0.4943038 0.29509515 -0.22622043 -0.20053492
000270 f9 b8 a8 be a1 bb ee be 28 a0 35 3f 12 e4 e8 3d
       -0.32953623 -0.46627524 0.70947504 0.11371626
000280 c8 4c a1 be b7 68 8b 3d 94 82 28 3f 27 de 48 bf
       -0.31503892 0.06807082 0.65824246 -0.7846398
000290 08 f1 4d be 3d 0d 30 3e e1 b7 5a be 08 4b 8e 3d
       -0.20111477 0.1719255 -0.21359207 0.06947905
0002a0 39 c7 4c 3f 32 43 13 3f bb e5 bc 3c 38 50 36 3f
       0.7999149 0.57524407 0.023058763 0.71216154
0002b0 15 57 bd bd 99 ce 0b 3f 5c fb 12 3f ed 66 e3 bd
       -0.09245125 0.5461212 0.57414794 -0.11103616
0002c0 a2 d3 7b be db c9 ea be 9d 9c 3b bf c9 0c 51 3c
       -0.2459245 -0.45857129 -0.7328585 0.012759396
0002d0 83 97 5b be b2 11 ab 3e c5 1b c2 3d 78 ea 87 3d
       -0.21444516 0.33411938 0.09477953 0.06636518
0002e0 25 01 53 3f cb 83 b8 be 4b 5d 3d 3c 07 18 06 3f
       0.8242362 -0.3603805 0.011557887 0.5238041
0002f0 81 df b8 bd 00 95 56 3d 3c 50 95 be bf d1 b8 3d
       -0.09027005 0.05238819 -0.29162776 0.09024381
000300 74 a3 e7 be 57 51 a5 be cf 41 c5 bd e4 a8 1b be
       -0.45241892 -0.3228862 -0.096316926 -0.15201145
000310 1c 70 23 bd 07 45 cd 3e 29 66 1d 3f 56 22 b4 3d
       -0.039901838 0.40091726 0.6148401 0.087956116
000320 73 61 0d bf 67 09 c4 3e b5 9a 58 3e 61 25 57 3e
       -0.5522682 0.38288423 0.21152766 0.21010353
000330 7c 7a 47 bf f4 0f 34 bf 37 98 82 3e 01 63 31 3e
       -0.7792127 -0.7033684 0.25506756 0.17322923
000340 79 84 44 3e 12 18 a5 3e aa 22 50 3e 7d 84 1e 3e
       0.1919116 0.32244927 0.20325723 0.15480228
000350 69 19 f0 3e c5 e8 a8 bd 4b 6a 6d bf 81 6d 20 3b
       0.46894386 -0.08247522 -0.92740315 0.0024479332
000360 32 52 01 3f 8b c1 21 3e a9 f1 3f 3e e8 57 b3 be
       0.50516045 0.15796487 0.1874453 -0.35028005
000370 b5 4d 94 3d d4 69 55 3d 48 df 8e 3e 52 a6 16 3f
       0.07241384 0.05210288 0.27904725 0.58847535
000380 3b 56 2a 3f a5 37 17 be 1b 6a 9c 3f af a8 d9 3e
       0.6653783 -0.1476732 1.2219881 0.42511508
000390 2e 2d 01 bf 45 76 97 be d5 be 7c 3e 98 17 35 3e
       -0.50459564 -0.2958242 0.24682172 0.17684782
0003a0 4a ce 06 be 7c ff 80 3e b9 57 01 3f 8b 93 85 3e
       -0.1316463 0.2519492 0.5052448 0.2608913
0003b0 14 ca 12 be b5 63 4c 3f 7c 26 df bd 4b 55 54 bf
       -0.14334899 0.7983964 -0.10896012 -0.82942647
0003c0 e8 e5 d3 3e ea 08 6c bd 99 a0 29 bd c1 d0 80 3f
       0.41386342 -0.05762569 -0.041412923 1.0063707
0003d0 50 d7 f0 be 64 3b 83 be b5 d2 a4 3d 68 65 01 3f
       -0.4703927 -0.2563125 0.08048002 0.5054536
0003e0 0f 50 b9 be 81 f2 5d 3e bf 93 a5 3e 40 32 81 bd
       -0.36193892 0.21674539 0.32339284 -0.063084126
0003f0 52 c5 a2 3e 5d 12 96 bd 5b 61 7c 3e 9e 4d 9c 3e
       0.31791168 -0.07327721 0.24646513 0.30527967

network_body._body_endoder.seq_layers.0.bias f4 [128]
000000 26 62 8a ba d1 d0 7d 3c 9c b6 7f 3c d8 b9 e0 bb
       -0.0010557815 0.01549168 0.015607502 -0.006858092
000010 49 28 97 3c 0f 4b 0e 3b f9 a3 5f 3c e0 7a d6 bb
       0.018451827 0.002171222 0.013649934 -0.0065454096
000020 18 1f 35 3b 9b da 7b 3b f9 50 f9 3b 54 68 b6 3b
       0.0027636942 0.003842986 0.0076085296 0.005566636
000030 e8 d1 4f bb 20 a7 ab ba 95 4f 20 3a e6 7a 5f 3c
       -0.0031710807 -0.0013096072 0.0006115374 0.013640141
000040 fc 6e 9e 3b 0b 41 2e 3c 3c a9 91 bc ab 4b 93 3c
       0.0048350077 0.010635625 -0.017780893 0.017980417
000050 46 5e 84 3c 03 53 64 3c 58 1b 2a 3c 3f a7 92 3c
       0.016158234 0.013935807 0.010382496 0.017902015
000060 0b 37 c8 3c a9 51 5c 3b 65 29 16 3c 17 b3 c8 bb
       0.024440309 0.003361801 0.009165143 -0.006124865
000070 dd 36 90 3b ed f1 ad 3b 63 6f 94 3c 98 91 61 3a
       0.0044010715 0.005308381 0.01811952 0.0008604764
000080 41 64 98 3a ce e0 d0 bb 92 0c 73 bc 34 b4 1d 3c
       0.0011626558 -0.006374455 -0.01483454 0.009625483
000090 f1 95 b8 ba 63 52 e5 bb 69 0b 31 3c 34 c2 4c 3c
       -0.0014082772 -0.0069983467 0.010805943 0.0124974735
0000a0 e7 66 0c 3c ce e4 40 bc 63 25 0e bb b0 4d 2d bc
       0.008569456 -0.011773301 -0.0021689765 -0.010577604
0000b0 2c 69 23 3c 69 0d ab bb 6d cc 08 3c 68 3f 78 3c
       0.009973805 -0.0052201045 0.00834952 0.015151836
0000c0 d9 28 6f 3c 62 62 b2 3c 0e 49 be 3b 82 6e 66 3c
       0.014597141 0.021775428 0.0058070486 0.014064433
0000d0 85 78 42 bc 59 e7 ef bb 10 fb 91 ba 5e 9e 5b bb
       -0.011869554 -0.00732128 -0.0011137445 -0.0033511142
0000e0 1c ec 0f bc a4 b5 3a bc bb d1 d1 ba d1 a5 02 3c
       -0.00878432 -0.011395846 -0.0016007939 0.007974104
0000f0 8d a6 18 bc b7 ba 19 3b 27 0c 90 3c 33 cc 88 bc
       -0.009317053 0.0023457238 0.01758392 -0.016698932
000100 5b 95 c0 ba 29 15 75 bc 4e 38 68 bb 66 eb 58 3c
       -0.0014692949 -0.014958658 -0.003543395 0.013239717
000110 1f 2a 78 bb 53 57 1c 3c db ab 3b bc 1d 41 b8 3c
       -0.0037866903 0.009542304 -0.011454548 0.022491986
000120 4e 76 ae 3b be f3 38 bc de f0 f2 bb be e3 50 3c
       0.0053241616 -0.011288581 -0.0074139675 0.0127496105
000130 88 73 80 3c a0 27 df bb 0a b6 77 bc 1a b2 ce bb
       0.01568009 -0.0068101436 -0.015119085 -0.0063078525
000140 5b d7 b6 bb 2f 47 3b bc 86 33 64 bc 4d 07 78 bc
       -0.0055798716 -0.011430546 -0.0139283 -0.015138459
000150 42 91 d6 bc 43 ea 8c 3b 5b 52 3f bc 83 8c a7 3c
       -0.026192311 0.004300387 -0.01167735 0.020452743
000160 52 d3 02 3d ed 5c 48 bc 79 ff 07 3a 77 62 c6 bb
       0.031939812 -0.0122291865 0.00051879097 -0.0060542184
000170 cf f4 35 3c 02 88 0d 3c dd b9 14 3c 0a 26 04 b8
       0.01110573 0.008638384 0.009077516 -3.150668e-05
000180 6a 93 80 3c a9 e6 39 3c e3 53 1b bc bf f2 12 bc
       0.015695293 0.011346498 -0.009480449 -0.008969008
000190 67 f1 58 bc 85 bc cf 3b 04 54 1c 3c 1c 0d 37 3c
       -0.013241149 0.006339612 0.009541515 0.011172559
0001a0 03 53 9a 3b fa 6f 60 3c fe 4d 14 bc 81 29 2a bc
       0.004709603 0.013698572 -0.009051798 -0.010385872
0001b0 a0 b3 57 3c b3 3b fc bb bf 6b b6 bb f9 61 87 bb
       0.0131653845 -0.0076975464 -0.0055670436 -0.0041315523
0001c0 7d 5f d4 3c 30 0d 5f 3c ef 18 9e ba 20 32 b0 ba
       0.025924439 0.013613984 -0.0012061874 -0.0013442673
0001d0 69 78 d8 3b 43 d8 9b 3c b2 35 4f 3c 7e 5b 1e bc
       0.006606151 0.01902402 0.012647079 -0.009665368
0001e0 56 4d b6 3b 3a a3 39 3c 39 04 7c 3c 8a 22 b4 3c
       0.0055634184 0.01133042 0.015381866 0.021989126
0001f0 31 b4 9e 3c a1 05 8f b9 2b 50 18 bc 59 5a 70 3c
       0.019373031 -0.0002727928 -0.009296457 0.014669978

network_body._body_endoder.seq_layers.2.weight f4 [128, 128]
000000 de 08 1d bb 42 55 a0 3d 55 29 1f be 4c 3f 9a 3d
       -0.0023961584 0.07828762 -0.1554311 0.07531604
000010 fa f0 2c bd f3 7f 19 3d aa 67 89 bd 86 44 f4 3c
       -0.042222 0.037475538 -0.067092255 0.02981783
000020 0c 97 38 be 6e 2c 1a 3d 66 03 a3 3d 28 25 a4 bd
       -0.1802637 0.037640028 0.079596326 -0.080148995
000030 0e 4c b5 3b bf a3 4c 3d ae 98 85 3c 02 bf b6 bc
       0.005532748 0.049960848 0.016308155 -0.022307876
000040 c8 5a b6 bd 90 7f d7 3d 71 57 31 be 8d 1b 39 bc
       -0.08904034 0.105223775 -0.17318512 -0.0112980725
000050 ea e9 39 bc b7 a7 5f 3d 5a 71 58 3d 88 ba 18 3d
       -0.011347273 0.054603305 0.052842475 0.037287265
000060 b7 9c 96 bd 0e 0b e2 bd 52 d6 8c bb a6 a5 8c bc
       -0.0735411 -0.11037265 -0.00429801 -0.017168831
000070 93 b4 aa 3d e4 ad 9b bd 6f 99 02 3d c7 21 af 3d
       0.08335223 -0.076015264 0.031884607 0.085513644
000080 e4 6e 21 3e 45 45 ae 3d 76 65 a3 bd 46 ff f7 bd
       0.15764958 0.08509306 -0.079783365 -0.121092364
000090 68 d1 c6 bd d7 62 80 bd fb 7a 74 3d f3 cc 11 bd
       -0.0970791 -0.06268852 0.059687596 -0.035595845
0000a0 26 8b 40 3d 90 84 73 bd 54 9c 13 3e 33 ac 4c bd
       0.047007702 -0.059452593 0.14415103 -0.04996891
0000b0 04 01 6d bc 29 67 a9 3c 62 b1 e3 bd b4 73 78 3d
       -0.014465574 0.020679073 -0.111178175 0.060657218
0000c0 92 7b 3f 3c 6a c0 fc 3d 62 41 d6 39 67 8d 86 3d
       0.011687176 0.123413876 0.00040865975 0.06569939
0000d0 1e c5 24 3d e7 a6 48 be eb cc f9 3c 28 4a 28 3d
       0.040227048 -0.19594918 0.03049322 0.041086346
0000e0 f9 3d 2a be 8c a3 eb 3d 3b 6a 96 bd 94 72 44 3d
       -0.16625203 0.115058035 -0.073444806 0.047960833
0000f0 fd 4a dc 3c bf 65 0b be d4 f7 33 be 84 8c 0b 3c
       0.026891226 -0.13613032 -0.17575008 0.008517388
000100 06 b8 fc bd 05 ab af 3d 4a 97 72 bd 53 df 30 be
       -0.12339787 0.08577541 -0.05922631 -0.17272691
000110 7c 4e 88 bd f9 1b c1 3d 91 73 95 3a 4a ee 18 be
       -0.06655595 0.094291635 0.0011402239 -0.1493465
000120 96 b0 8e bd 37 ac c9 bc 6c 92 97 3c d3 57 bd 3b
       -0.06967275 -0.024618251 0.018502437 0.0057782917
000130 a6 b1 e3 bd 14 d6 81 bc 68 c5 a5 3d de 7a 91 bd
       -0.11117868 -0.01584915 0.08094293 -0.07103513
000140 76 72 a0 3d 32 55 d8 3c bb 49 39 be 66 05 76 3c
       0.07834332 0.026407812 -0.18094532 0.0150159355
000150 8f 4c d8 bd e2 f0 2b 3d ca 52 73 3c 8b 94 17 3e
       -0.105614774 0.04197777 0.014851281 0.14802758
000160 44 aa 3e bd 5d f1 29 3c 46 60 9e 3d 08 d3 12 be
       -0.046549097 0.010372487 0.077332065 -0.14338315
000170 a7 71 3f 3d e0 6f 62 bc 0d 42 52 bd ef f9 48 3d
       0.046739247 -0.013820618 -0.051332522 0.04906648
000180 76 96 1f bd 89 7c 50 3d 10 eb c5 bd 33 17 4b bd
       -0.03896185 0.050900016 -0.09663975 -0.04958267
000190 6c 54 a9 3d ad 79 a2 3c 75 b7 89 bb 07 b2 4f bd
       0.08268055 0.01983341 -0.004202778 -0.05070689
0001a0 47 ff 33 3d 9c fb 83 bc 52 57 8c bd 92 b7 65 3d
       0.043944623 -0.016111188 -0.068525925 0.05608327
0001b0 68 1e 6d 3e 96 47 1b bd 65 da 01 be 0d 97 09 be
       0.2315613 -0.037910067 -0.12680967 -0.13436528
0001c0 11 39 5e 3d 6a 4e ff 3b ae 23 3a bd 21 27 46 be
       0.05425364 0.00779133 -0.045444183 -0.19350864
0001d0 28 16 d0 bc eb 69 af bd 65 24 55 3d cd 8a af 3d
       -0.02540119 -0.08565124 0.05203666 0.08571396
0001e0 2a 4c 99 3c 59 83 b7 bd 4e d5 31 bd cb 18 0f 3d
       0.018713076 -0.089605995 -0.043416314 0.034935754
0001f0 ac 55 7a bd 18 74 c4 bb a5 96 aa 3c 1b 96 f0 3c
       -0.06111686 -0.0059952848 0.020823786 0.02936845
000200 33 49 54 3d 74 cb ef 3d 0f 7f b8 3d bf 53 55 3d
       0.05182762 0.117087275 0.090086095 0.05208182
000210 10 4b 02 bc f3 2b c8 bd a7 4e b5 bc 40 a5 b8 bd
       -0.007952467 -0.09774008 -0.02213223 -0.09015894
000220 a1 c2 e5 bb c8 d6 3e 3e f0 6d 31 bc 11 51 2c 3c
       -0.007011727 0.1863662 -0.010829434 0.010517375
000230 f0 ae 5b 3c ce 83 a8 3b e5 19 8b bc a2 29 0e be
       0.013408408 0.0051426655 -0.01698012 -0.13883069
000240 16 66 17 bd 36 8f 7d bd fe 07 05 3e 4d ba 25 3e
       -0.03696259 -0.061904155 0.1299133 0.1618435
000250 97 76 13 be 60 89 59 3a 9e e0 84 bd d9 01 82 bb
       -0.14400707 0.00082983635 -0.06488155 -0.0039675054
000260 f8 41 d4 3d 9a 65 5e bd 26 a9 16 3e 5b 0c 6e 3d
       0.10364145 -0.054296114 0.14712963 0.05811725
000270 1d ba a2 3d fb d4 1f bc 30 cd 1c 3d cd e7 f5 3d
       0.079456545 -0.009755368 0.03828162 0.12007103
000280 48 3f 52 bd 83 e1 4a bd 94 15 af 3c 0a dd 49 3d
       -0.05132988 -0.04953147 0.021372594 0.049283065
000290 0a 1d 1a 3d 9a 14 03 bd a4 6d 9c bd 54 aa 90 3d
       0.03762535 -0.03200207 -0.076381 0.070637375
0002a0 ae 2e 86 bd c4 39 f7 3d 24 0f 8c bd 3d a4 11 3e
       -0.06551872 0.12071565 -0.06838825 0.14222808
0002b0 94 5d 3e 3d bf 6e 78 bd 5c 0b 07 bc aa 8a bd 3d
       0.04647596 -0.06065249 -0.008242454 0.09254964
0002c0 05 ec 89 3d d4 56 8b bd e8 49 d1 ba 67 af bc bd
       0.0673447 -0.068036705 -0.001596746 -0.09213143
0002d0 a1 0b cf 3d ea ac ca 3d 52 4a 0c 3e 45 16 52 3d
       0.1010964 0.09896262 0.13700226 0.05129077
0002e0 f9 9b 49 3e 7d 02 83 3c df e5 ab bd cf da 38 bb
       0.19688405 0.015992397 -0.08393454 -0.0028206592
0002f0 0d 4d 0a 3d f6 3d 09 bc 27 40 25 bd 08 32 9b 3c
       0.033764888 -0.008376589 -0.040344384 0.018944755
000300 a8 0a 1e 3e 22 7b 5e bd 34 71 6b 3e 7a 76 a7 bc
       0.15433753 -0.054316647 0.22992402 -0.020442236
000310 34 6e cd 3d b8 23 8f bd e6 d2 e2 bb c9 39 b4 3c
       0.10030785 -0.06989235 -0.0069221137 0.02200021
000320 2a 20 dd 3c 54 3b 95 3c c6 8b 07 be 8d 4d 52 3e
       0.026992876 0.018216766 -0.13236913 0.20537396
000330 ac 66 ce 3d d0 34 69 bd 00 6d 4b bd 12 65 03 bd
       0.10078177 -0.05693513 -0.049664497 -0.03207881
000340 cb a3 6a bd 93 98 7c 3d dc 2d 9c bd 5e 11 36 be
       -0.05728511 0.061668944 -0.076259345 -0.17780063
000350 3f 90 2b bd df b4 5f bc 44 76 78 3c e3 4f d3 bd
       -0.04188561 -0.013653963 0.0151649155 -0.103179716
000360 61 f6 39 be b0 36 c5 bc da 0e b6 bd 3d 47 83 3d
       -0.18160392 -0.024073929 -0.088895515 0.06410072
000370 2d c1 0a bd d7 0c e1 bb d9 ac a1 bc f4 9c f1 3c
       -0.033875633 -0.0068679857 -0.01973574 0.029493786
000380 11 bc 8f 3d 9b 41 c6 bd 48 13 86 bd 07 d0 21 3d
       0.07018293 -0.09680482 -0.06546646 0.03950503
000390 8b 7c 3b bd 95 02 2e bd a8 84 dd 3a 5f 09 62 bd
       -0.04577307 -0.04248293 0.0016900497 -0.05518472
0003a0 5e d1 c0 3c 82 80 34 3d 92 20 06 bd 12 d1 c1 3c
       0.023537334 0.044067867 -0.032745905 0.023659263
0003b0 63 77 97 b8 90 20 1d bd 44 fc 59 3d 3a c9 25 be
       -7.2224786e-05 -0.038361132 0.053219095 -0.16190043
0003c0 ca 9e bd 3c 5e 29 6c 3d fd 78 33 be 6d 9a af 3d
       0.023147006 0.05765664 -0.17526622 0.08574376
0003d0 86 1d aa 3b 5f 41 14 be 02 4c 09 3e 3f a0 44 be
       0.0051915077 -0.14478062 0.13407901 -0.19201754
0003e0 bb 0f e5 bd d3 3e 09 be 46 42 93 bd 65 68 04 be
       -0.11184641 -0.13402872 -0.07190375 -0.12930448
0003f0 9c ee 95 bc 71 42 c8 3a 69 36 9e bd 51 a6 eb 3d
       -0.018302254 0.001527859 -0.07725222 0.11506332

network_body._body_endoder.seq_layers.2.bias f4 [128]
000000 92 5e 86 bb 60 a2 3b 3c e1 f7 38 ba cd 6f 04 bc
       -0.004100629 0.011452287 -0.000705598 -0.008083296
000010 e5 15 81 bb ab a1 5c 3c 7d f0 16 3c 80 10 13 bc
       -0.0039393776 0.013466279 0.00921261 -0.008976102
000020 eb 9a 21 3c 2c 11 19 3c 1c f3 1d 3c be 09 95 bb
       0.0098635955 0.009342473 0.009640481 -0.0045482805
000030 4c 48 61 bc 88 74 17 3c b5 d7 65 3c c1 0e 26 bc
       -0.013750147 0.009244092 0.014028479 -0.010135354
000040 20 ff fa 3b 35 34 3c 3b f5 b4 22 3a 32 50 5f bc
       0.007659808 0.0028717641 0.0006206774 -0.01362996
000050 88 8f 34 3c 4b bd 48 bc 21 8f 76 3c ed 2c 71 bc
       0.011020549 -0.012252162 0.015048773 -0.014720184
000060 7c f8 5c 3c 1b e1 6c 3b 97 75 45 bc 1f 78 49 bc
       0.013486978 0.0036144916 -0.012051961 -0.0122967055
000070 38 82 28 bc f7 2d 4a bc d2 d2 39 bc 6d e9 98 3a
       -0.010284953 -0.01234006 -0.011341767 0.0011666246
000080 9b 81 4b 3c aa 91 fe bb 4e aa ab 3b df a6 55 3c
       0.012421037 -0.0077688294 0.0052388078 0.013040273
000090 e3 2c 84 3c 16 34 a7 3b 45 45 3c 3a 21 15 fa bb
       0.016134685 0.0051026447 0.0007181953 -0.0076319133
0000a0 a0 6c 16 bb e6 e5 95 bb 64 cd 2a bc 8c 86 31 3c
       -0.002295293 -0.004574525 -0.0104249455 0.010835301
0000b0 b7 6a 93 3c cb 93 61 3c 57 e9 a7 3b e1 a0 81 bb
       0.017995222 0.013768147 0.005124252 -0.003955946
0000c0 28 b8 d6 3b 9d 87 41 bc 06 2c 70 3c 52 60 18 bc
       0.006552715 -0.011812118 0.0146589335 -0.009300308
0000d0 55 af bf 3a 39 66 d7 ba e3 c5 7a bb 86 d7 8c 3b
       0.0014624397 -0.0016433663 -0.0038264922 0.0042981533
0000e0 b0 2a 82 3c c0 49 67 3c 9a 46 a5 bb 5f c3 85 bb
       0.015889496 0.014116704 -0.0050438168 -0.004082128
0000f0 bf 09 30 bc 16 8f 2c 3b ae bc 86 3a 5e 4e 13 bb
       -0.010744511 0.0026330403 0.001027962 -0.002247713
000100 26 7b 5e bb a7 e5 34 3c 21 d3 49 3c 55 d8 d8 ba
       -0.0033947914 0.0110410815 0.012318403 -0.0016543964
000110 0f d1 05 3c f9 af 4e 3c ad 85 1f 3c 03 be 61 3c
       0.008167519 0.012615197 0.009736461 0.0137782125
000120 58 58 41 3c e1 fc b4 3a 49 16 d3 bb 1b 49 fd 3a
       0.011800848 0.0013808274 -0.0064418656 0.0019324155
000130 3c cb 61 bc e7 a8 00 bc bf 13 5e bc 96 bb c0 bb
       -0.013781365 -0.007852769 -0.0135545125 -0.005881737
000140 b6 bc 51 3c c2 0d 4f bc 3c 23 ee ba d3 2e 91 3c
       0.01280134 -0.012637557 -0.001816846 0.017722523
000150 66 56 53 3c 2e 87 ec 3a ad dc 06 bc 87 40 5f 3c
       0.012899017 0.0018045658 -0.008231324 0.013626224
000160 8b 18 36 3c 0f 7d 3d bc 33 9e 12 bc 10 b6 f7 3b
       0.01111425 -0.011565461 -0.00894885 0.0075595453
000170 73 3f 71 bb 4d 42 f1 3b 41 96 04 3c 5b 30 f3 bb
       -0.00368115 0.00736264 0.008092464 -0.007421536
000180 c7 4f 62 bc a6 b1 4c bc db d5 f1 3a 81 21 95 bb
       -0.013812966 -0.012493527 0.0018450575 -0.004551113
000190 23 2a 1a 3c 52 cc 9f bc 5f 6b 9b 3c df 7b eb bb
       0.00940946 -0.019506607 0.018972097 -0.0071863974
0001a0 d7 b7 5a bc ee f1 2d bb 1f fc e4 3b b3 47 31 3c
       -0.013349495 -0.0026541906 0.006988063 0.010820317
0001b0 4d 20 70 bc 9c 0e a1 bb b8 e2 86 bb 21 19 df bb
       -0.014656139 -0.0049150717 -0.0041163824 -0.0068084155
0001c0 80 34 57 3c f5 92 14 3c 88 b8 8f bc 77 f9 e4 3b
       0.013135076 0.00906824 -0.017544046 0.0069877463
0001d0 69 29 36 bc ff ab 52 3c ba 98 67 bb d0 be 29 3c
       -0.011118271 0.01285839 -0.0035338835 0.010360435
0001e0 6b c9 48 3c 17 1f 64 3c c7 d8 66 3b 7a 3e a7 3c
       0.012255053 0.013923428 0.0035224424 0.020415533
0001f0 4b 8c ad 3b 68 8e 45 bc 0c 9d fc bb 5b 50 a4 3b
       0.0052962652 -0.012057878 -0.007709151 0.005014462

action_model._continuous_distribution.log_sigma f4 [1, 2]
000000 ea 73 d0 bc 8e 4a e8 bc
       -0.025445897 -0.028355863

action_model._continuous_distribution.mu.weight f4 [2, 128]
000000 7c d1 68 bc aa b9 be 3c df 49 9c bc 30 c8 b7 3b
       -0.014210101 0.02328189 -0.019078193 0.005608581
000010 aa 6b 34 3b 2b ee ec 3c ea 97 92 bc 95 ca 65 bb
       0.0027529993 0.028922161 -0.017894704 -0.0035063375
000020 f2 6f 8f 3c c9 f3 0b 3d 65 63 ba 3c 4a e2 23 bc
       0.017509434 0.03416804 0.022752473 -0.010002682
000030 97 7c 8d bc 3b f9 1a 3c bd b1 56 3d 02 dd 49 bc
       -0.017271323 0.009458835 0.0524156 -0.012320759
000040 94 9d 4e 3c cd 94 2d 3c af 15 81 3b 54 b3 bf bc
       0.012610812 0.010594559 0.0039393525 -0.02340094
000050 c2 f6 bb 3c 6f 19 97 bc aa e3 41 3c 3e ba 7d 3c
       0.022944812 -0.018444745 0.0118340645 0.015486298
000060 95 56 1f 3d bc 99 fc bc 0b 1e 23 bd f1 fc 05 bd
       0.03890093 -0.030835025 -0.039823573 -0.032711927
000070 bf 0c 13 bd c6 8d 24 bd 28 f4 b0 bc 4a bc 81 ba
       -0.035900827 -0.04017427 -0.021600798 -0.0009898033
000080 4f 4c c7 3c 4b 8d 7e 3a 9d e5 7e 3c 8a 36 ed 3c
       0.024328379 0.00097103853 0.015557674 0.02895667
000090 92 3b b9 3b 6c 1c 79 3b ed 80 a0 bb a1 85 bd bc
       0.0056528533 0.0038011326 -0.0048981817 -0.023135008
0000a0 98 51 d9 3b 41 ae 9e bc a6 19 a9 bc af ba b0 3c
       0.006632041 -0.0193702 -0.020642113 0.021573393
0000b0 36 06 4c 3c a7 13 c4 3c 0e 86 d9 bc e0 bb f9 bb
       0.012452653 0.023935152 -0.02655318 -0.0076212734
0000c0 d9 d4 15 bd 90 78 30 bd 28 b6 9e 3c 25 a3 c3 bc
       -0.03657994 -0.043083727 0.019373968 -0.023881504
0000d0 f8 d1 7d bc 98 f2 85 bb ad 09 f7 bb 38 5d d1 bb
       -0.015491955 -0.0040877573 -0.0075389952 -0.0063892864
0000e0 3f 8f e4 3c 0e bb a5 3c 81 d4 0c bd b4 25 22 bd
       0.027900336 0.020230796 -0.034382347 -0.039586738
0000f0 09 7b 38 bd f3 00 33 bc 39 cf 2c bb db b2 70 bd
       -0.04503921 -0.010925519 -0.0026368632 -0.05876432
000100 aa f5 9c 3a 49 d3 22 3c ec 50 5e 3c 92 44 37 3c
       0.0011975069 0.00993807 0.013569098 0.011185782
000110 c2 e6 9b 3c 71 bd fc 3c d6 bd c9 3c 11 44 b5 3c
       0.019030932 0.030852051 0.024626654 0.022127183
000120 09 32 13 3d ef 38 94 3c 37 a3 f1 bb af 28 64 bc
       0.03593639 0.018093554 -0.007374193 -0.013925715
000130 f0 eb da bc 8f 60 ce bc e9 f3 f3 bb 3c 1b 02 bd
       -0.026723832 -0.025192527 -0.007444848 -0.031764254
000140 e6 2e 89 3c 6c 1e 55 bb 79 d1 09 bd a8 a2 b6 3c
       0.016745996 -0.0032519354 -0.033647034 0.022294357
000150 e3 5a 93 3c f7 ae 30 bc 7c a2 0d bc 25 e4 0d 3d
       0.017987674 -0.010783902 -0.008644696 0.034641404
000160 36 fe 87 3c 82 ab 71 bc 09 27 56 3b a1 ef 1f 3c
       0.01660071 -0.014750363 0.0032677075 0.009761722
000170 44 4e 28 bc 5a a0 84 3c 8b eb cb bc d8 15 74 bc
       -0.010272566 0.016189743 -0.02489259 -0.014897786
000180 8b f8 f1 bc a9 d6 20 bd ae fd 41 bd b1 28 03 bd
       -0.02953746 -0.039267216 -0.04736107 -0.03202123
000190 29 2d 80 bc 04 99 7f bc 2f 49 7a 3b 67 3a 29 bd
       -0.015646534 -0.015600447 0.0038190593 -0.041315462
0001a0 ec 34 d6 bc 0b 93 1f bc 2f 71 66 bc 5a 07 4d 3c
       -0.026148282 -0.009739648 -0.014065071 0.01251396
0001b0 77 4e 16 3c 41 f1 ef bc 80 b2 9e bb be 94 2f bd
       0.009173981 -0.029289844 -0.004843056 -0.04286646
0001c0 89 99 f6 3c 13 6f 8b bc 42 2b 98 bc 0e ab 05 bd
       0.030102508 -0.017020738 -0.018575314 -0.032633834
0001d0 b3 78 da bb 34 74 28 3d af 5c e4 bc 0a ab 8d bb
       -0.0066672205 0.041126445 -0.027876226 -0.004323368
0001e0 ac 02 d3 3c 2e e7 8c 3c 1b 55 13 bc 4e 55 bc 3b
       0.02575811 0.017200079 -0.008992459 0.005747474
0001f0 00 38 66 3c dc bb b1 bb b5 23 6a bc a9 fd 4e bc
       0.014051437 -0.005424006 -0.01429074 -0.0126337195
000200 56 a2 7e bc 87 1c 6e bb 4a 50 5a 3c 95 9f 26 bc
       -0.015541634 -0.0036332922 0.0133248065 -0.010169883
000210 a5 13 11 bd 74 78 ac ba be 40 1e 3d 29 cd 4d 3c
       -0.035419125 -0.0013158456 0.03863596 0.012561121
000220 6a d5 0b 3d 75 e3 1d bd 4a 02 68 bc 89 07 94 3c
       0.034139074 -0.038546998 -0.014160702 0.01807
000230 24 cd 67 3c 1e ea 1f 3c 5b 98 fb ba c9 60 c4 bc
       0.01414803 0.009760408 -0.0019195186 -0.023971932
000240 0d 87 14 3c 10 15 d2 3b 55 da 1d 3d 03 11 25 3c
       0.009065402 0.0064112023 0.038538296 0.010074857
000250 f5 27 fb 3c 95 57 f3 bb 84 b9 0c 3d 6b 88 cf bb
       0.030658701 -0.007426212 0.03435661 -0.006333401
000260 b8 8b 89 3c dd 3b be bc 35 1e 34 3a bd b3 b0 bb
       0.016790256 -0.023221904 0.0006870956 -0.00539252
000270 62 57 31 3b e9 76 3d bc 31 29 06 bc 3b a4 e3 3c
       0.002706014 -0.011563995 -0.008188532 0.027788272
000280 de 75 fe 3c 6f d6 4f bc d8 0b 50 bc d9 a5 f2 bb
       0.031062063 -0.012685402 -0.012698136 -0.0074050245
000290 3f a1 9b 3c 43 48 bd 3c ba cf 7f 3c 55 70 27 bb
       0.018997787 0.023105746 0.015613491 -0.0025549133
0002a0 1b 2f d8 3c 3e 66 c5 bb 49 f9 28 bb c6 b7 14 3c
       0.02638965 -0.006024151 -0.002578335 0.009077018
0002b0 a0 65 0a bc ed b9 11 3d 1a 6d 87 bc 0d 28 99 3c
       -0.008447081 0.035577703 -0.016531516 0.018695856
0002c0 1f 00 00 bd bc c3 98 bc 85 68 b8 bb d5 ef 8d 3a
       -0.031250115 -0.01864802 -0.005627694 0.0010828922
0002d0 b5 4a 59 3d 23 b8 d2 3c 95 e0 0b 3d 36 ad 69 3c
       0.05304976 0.025722569 0.034149725 0.014262488
0002e0 2b 6e 30 bb 3d da 06 3c 62 98 a9 bc af c1 e8 bb
       -0.0026921134 0.008230743 -0.020702545 -0.007103167
0002f0 bc 6f 1b 3c 2f da 8f bc 27 47 b6 3c 1b f3 ac bc
       0.009487089 -0.017560093 0.022250725 -0.021112015
000300 bf 2b b4 3c 82 0d f5 bc 72 3f ca bc 34 ab 2f bc
       0.021993516 -0.029913668 -0.024688456 -0.01072197
000310 cf b8 ff bc ff e6 60 bc 2c 94 7b bc 3c 8e cc 3c
       -0.031216053 -0.013726949 -0.015355151 0.024970166
000320 75 5f 1b bd 9a 32 da bc 14 f1 c3 3a c1 c7 1c 3d
       -0.03793283 -0.026635457 0.0014949166 0.038276438
000330 24 43 84 3b 5d 8f 50 3b 34 47 c9 bb e1 27 23 bb
       0.004036324 0.0031823732 -0.0061425213 -0.0024895596
000340 0c 40 c9 3b b8 6e 5f 3c 13 98 aa 3b aa 61 73 3d
       0.006141668 0.013637237 0.005206117 0.05941931
000350 01 2b 3b 3c 79 ff c5 3c a7 aa 99 3c 5e 9e a0 3b
       0.011423827 0.02416967 0.018758131 0.0049016913
000360 9d a5 4a 38 33 1b bc 3b c0 ce 63 bc 96 31 22 3d
       4.8314792e-05 0.005740547 -0.0139042735 0.03959807
000370 e6 d5 40 bc f8 42 85 3c 2a c3 af bc 9d eb 8e bc
       -0.011769747 0.016267285 -0.021455366 -0.017446334
000380 ce 20 05 3c a4 03 fa 3c 88 17 9a 3c d3 7b 25 3d
       0.008125497 0.030519314 0.018810049 0.04040129
000390 4a 73 9c bb d8 7f a5 b9 49 c0 a8 bc e5 fe 98 bc
       -0.0047744857 -0.00031566503 -0.020599501 -0.01867623
0003a0 d9 d4 6d 3c d6 d4 67 bc 51 ef 88 bc 56 e9 02 bd
       0.014516079 -0.014149865 -0.016715677 -0.031960808
0003b0 0e 1c 84 ba a3 cc ae bc 1e 48 39 3d 28 1c 29 3c
       -0.0010079162 -0.021337813 0.045234792 0.010321654
0003c0 6e 85 85 3c 62 91 86 bc 55 59 8c bb 48 7f 0a 3d
       0.016298976 -0.016426746 -0.00428311 0.03381279
0003d0 ab 07 a5 bc 46 07 ab bc 74 cb 32 3c 53 3c 21 bc
       -0.020145258 -0.020877492 0.010912765 -0.009841043
0003e0 4c 43 61 3c 7b c0 7b bc 32 65 10 3c 70 ac 89 bc
       0.013748955 -0.015365715 0.008813189 -0.016805857
0003f0 df cf 26 3d a4 b2 83 bc 59 50 13 bd e8 ca 05 bd
       0.040725585 -0.016076393 -0.035965297 -0.03266421

action_model._continuous_distribution.mu.bias f4 [2]
000000 de 82 6c 3c 49 fa 52 3b
       0.014435498 0.0032192639
