results/MoveToGoal/MoveToGoal/MoveToGoal-81844.onnx (onnx, 75062 bytes, 7 tensors)

network_body._body_endoder.seq_layers.0.weight f4 [128, 6]
00000000: 7aba d33e 341c 163e 8893 eebe 4c26 fdbe
00000010: 6587 41bf 7fa8 2e3f 2ca8 10bc aec7 d83e
00000020: b6c2 8bbe 6f43 2bbc 6670 08bf f298 d53e
00000030: ebf9 bebe 06aa 463d 4e1f 213e ec2b 65bf
00000040: 2bf1 a33d c329 33bd 5ca7 96be 6a86 933e
00000050: b6a2 083f 3171 15bf 63a6 f83e 5d8a b2be
00000060: d61f cdbc d49d 173f d07a dc3e 1f78 8abe
00000070: 8656 3dbf e50e fc3e d379 98be 6a27 62be
00000080: d20b 043f 73c4 943e c130 2bbf 72e8 afbd
00000090: 63c9 fd3c 9a82 0e3f e6f7 18bf c698 c13e
000000a0: c035 37be 2405 e63e 3bd9 253f d8a7 f53d
000000b0: 6e37 f33e cb0c b83e c548 303d 1495 adbe
000000c0: 1073 b83d cdc1 25be 2512 b23e 0a52 d73e
000000d0: f09d e83e 68a8 49bd c36d 94be 9075 f43d
000000e0: b4fc db3e 0b00 0fbf 06e1 2cbe db08 65be
000000f0: da64 82be 7ecd 30bf aab0 c73d 46b8 d23c
00000100: 3ae4 703f ef8d 373f a437 4b3e 7e98 d23e
00000110: e69a 2abf d348 033f f6ff b93e 0488 2c3f
00000120: 981b 5abe 7914 afbe a04b 85be 5391 a9be
00000130: 5f73 febd a04a e23b 87a9 10be 9e9d 5dbe
00000140: c936 e93e 957e 0abd 3f32 38bf b6c8 613f
00000150: 8309 1f3e 2389 513e 26c8 483d 8908 e9be
00000160: 7704 09be 7a56 9abd 4c19 d13d 706c 583d
00000170: 193e cbbe db49 74be c153 0a3d f132 eabe
00000180: 2883 07bf a53c f9be bbe5 a0be b1cd 9ebd
00000190: 6d85 103f 7b82 9b3e c931 013d c191 bdbe
000001a0: 6905 b4be 14d1 2f3f 8648 e8b9 9a03 733f
000001b0: 469a a13e 6d50 b0be cd2a 273d 3f8a ce3e
000001c0: 7b9e 303f ba54 43bf 9519 cebe 4b01 8cbe
000001d0: e8a5 313e e5f5 253e b777 cd3e a13e 15bd
000001e0: ad84 c2be 5642 bdbe 52a1 06be 5de4 da3e
000001f0: 07ac 6fbd 7465 82be b0d2 e9bc 67be 193e
00000200: 635d 193e 4606 863e fca1 573e fd43 16bd
00000210: 1b05 073f 66ac 9f3d 983a 163c fea6 7fbd
00000220: cd9a 193f 930a 91bf 70c0 e2be 3e11 bebd
00000230: 7c64 acbd d07c d33e 51d5 afbe e54b 6cbf
00000240: f583 94bf fcda e23e c08d 6dbe 4696 05be
00000250: 2b9f 8d3d da34 bc3e c5c2 153f ee64 70be
00000260: 2a8d 123f 5c0c 813e 54a6 67be c2b2 98be
00000270: 8157 8abe bee4 eebe e46e 303f e4f2 b83d
00000280: c84c a1be 78f4 62bd e265 0f3f b4ae 48bf
00000290: 5f92 4ebe 2eab bd3d e1b7 5abe b45a 1d3e
000002a0: 6d95 433f eb6e 133f c2b8 0ebd 0ce5 303f
000002b0: 1557 bdbd 0e28 263f 8b59 163f fb58 e4bd
000002c0: 70ac 69be e583 efbe 9d9c 3bbf e405 773d
000002d0: 3983 31be 2ac6 aa3e e8be 073e 32b6 963d
000002e0: 2501 533f ce28 c4be 89a1 143c 233e 063f
000002f0: e8e8 13be 6f68 db3c 3c50 95be c758 1a3e
00000300: c87f d3be 3d41 a5be 0433 07be d7bb 4bbe
00000310: 1c70 23bd 272c b43e 3c85 1b3f 0aa3 b63d
00000320: 2c34 1bbf ca66 b83e b59a 583e ff2a a73e
00000330: 7ebb 48bf 4afd 33bf 287e 5d3e 7f24 0a3e
00000340: 7984 443e b96a 8b3e 8d4b 6a3e 40e4 1e3e
00000350: be01 073f 35f4 99bd 4b6a 6dbf 30af e2bd
00000360: 8262 063f daed 213e f3a8 3d3e c9f6 c4be
00000370: b54d 943d 238c 493d 0b5d 973e c5aa 163f
00000380: e472 173f 203f 3cbe 1b6a 9c3f b5ee bd3e
00000390: e2cc fabe 2949 97be 4d55 703e d074 2c3e
000003a0: 4ace 06be e8d9 953e 6d48 f73e 7248 853e
000003b0: 3cfd b7bd c3f4 463f 7c26 dfbd 0f68 5cbf
000003c0: faa7 b63e 6c60 6ebd d056 09bd f70d 813f
000003d0: 50d7 f0be 5b51 67be c774 ad3d 24af 013f
000003e0: d956 c6be dda0 313e bf93 a53e d61c 5a3d
000003f0: a0b7 953e 18ad 96bd 38ff 9a3e 989a 8d3e
0.41353208 0.14659196 -0.46596932 -0.4944328 -0.7559722 0.68225855 -0.008829158 0.42339844
-0.2729699 -0.010453089 -0.53296506 0.4171825 -0.37300047 0.04850199 0.15734598 -0.89520144
0.080049835 -0.043741 -0.2942456 0.28813487 0.5337328 -0.5837584 0.48564443 -0.34871188
-0.025039595 0.592252 0.43062449 -0.2704477 -0.7396015 0.49230114 -0.29780445 -0.22085348
0.51580536 0.2905613 -0.6687127 -0.08589257 0.030979818 0.5566803 -0.59753263 0.3781187
-0.17891598 0.44925797 0.6478459 0.11994904 0.47503227 0.3594726 0.04303815 -0.339028
0.090063214 -0.1618721 0.34779468 0.42054778 0.45432997 -0.04923287 -0.28989992 0.11936486
0.42966235 -0.5585944 -0.16882715 -0.2236666 -0.2546757 -0.69063556 0.09750493 0.025722634
0.94098246 0.7170095 0.19845444 0.41131967 -0.66642606 0.51282996 0.36328095 0.67395043
-0.21299589 -0.34195307 -0.2603426 -0.33118686 -0.12424349 0.0069058686 -0.1412717 -0.21642157
0.4554961 -0.033812124 -0.7195167 0.88196886 0.15530972 0.2046247 0.049019 -0.45514324
-0.1338061 -0.07536025 0.10209903 0.05283779 -0.39695814 -0.23856299 0.03377128 -0.4574199
-0.52934504 -0.4867908 -0.3142527 -0.07754076 0.5645359 0.30372986 0.03154162 -0.37025264
-0.35160378 0.686784 -0.00044304522 0.9492737 0.31563014 -0.3443636 0.040812302 0.40339848
0.6899182 -0.7630116 -0.40253893 -0.27344736 0.17348444 0.16207083 0.40130398 -0.03643668
-0.3799185 -0.36964673 -0.13147476 0.42752352 -0.058513667 -0.25468028 -0.028542846 0.15014039
0.1497703 0.2617666 0.21057886 -0.036685932 0.52742165 0.07796554 0.009169243 -0.062415116
0.6000183 -1.1331352 -0.44287443 -0.092806324 -0.084176034 0.41306162 -0.34342435 -0.92303306
-1.160277 0.44307697 -0.23198605 -0.13045606 0.069151245 0.36759073 0.5850032 -0.23476002
0.5724665 0.25204742 -0.22622043 -0.2982388 -0.27019885 -0.4665889 0.68919206 0.09030703
-0.31503892 -0.055408925 0.56014836 -0.78391576 -0.20173024 0.092611656 -0.21359207 0.15366632
0.7639988 0.5759112 -0.034844168 0.690995 -0.09245125 0.6490487 0.5873038 -0.11149784
-0.22819686 -0.46780315 -0.7328585 0.060308352 -0.17335214 0.33354312 0.13256419 0.0735897
0.8242362 -0.38312382 0.009071716 0.52438563 -0.14444315 0.026783196 -0.29162776 0.15072928
-0.41308427 -0.32276335 -0.13203055 -0.19895874 -0.039901838 0.35189936 0.60750175 0.08917816
-0.6062648 0.36015922 0.21152766 0.3264999 -0.7841109 -0.70308363 0.21630156 0.13490485
0.1919116 0.2722986 0.22880383 0.15516758 0.52737033 -0.07517282 -0.92740315 -0.110685706
0.5249406 0.1581339 0.1852148 -0.38469532 0.07241384 0.04920591 0.29563174 0.58854324
0.59159684 -0.18383455 1.2219881 0.37096182 -0.48984438 -0.29548004 0.2347004 0.16841435
-0.1316463 0.29267812 0.48297444 0.26031834 -0.089838475 0.77717227 -0.10896012 -0.8609628
0.3567503 -0.058197424 -0.033530056 1.0082387 -0.4703927 -0.22589628 0.08469539 0.5065787
-0.38738135 0.1734652 0.32339284 0.053250156 0.29241657 -0.07357234 0.3027284 0.27657008

network_body._body_endoder.seq_layers.0.bias f4 [128]
00000000: 72c4 d03d 0976 7e3d 60e5 e93d 39cd 11bd
00000010: ea7e 72bd 8368 afbc 85b8 ff3c 9bc6 a6bc
00000020: 4691 253d 729b acbd 300e e5bc d292 fa3c
00000030: 85dc e1bd 67e0 1abd ad28 80bd 61a8 58bd
00000040: 0920 7fbd 8458 e53c 5b7b 04bd fef7 92bc
00000050: dd6e 443d 9699 2b3d f677 9e3c b86c 383d
00000060: 5896 67bd 10a3 38bd 79aa a2bc 6f43 8cbd
00000070: 9d55 143c aaaf bc39 2ca9 463d e21e 99bb
00000080: e6d1 cabd e82b 81bc 00f2 09be eba2 983c
00000090: b1fd 15bd 207e 7bbd c6a8 ba3c ffde 473d
000000a0: ad62 673d e505 64bd a059 a6bb 4efb eebd
000000b0: f963 443d 3e9e 6b3d c4c8 0b3a 511f abbc
000000c0: d52f 2b3d 3bf4 ee3b cdef 86bc 1522 963d
000000d0: e0ad 1dbd d3cb adbd d7d1 3e3c fac9 85bd
000000e0: 7686 d4bd aa0c 93bd ca49 0dbd 7a6a ca3d
000000f0: 18d6 023a 8959 50bd 2b80 773d b292 43bb
00000100: 1437 4f3d f195 08be 3a82 47bd 6498 6f3d
00000110: 0372 3dbd c328 9b3c efef f4ba f9b8 3fbd
00000120: 19c5 363d d855 a9bc 7a70 93bd 5f55 363d
00000130: 275d 873d 684b 09bd d5a0 cfbd b5ec 33bd
00000140: 31b9 1ebc e441 bebc c8d4 efbd 2d77 54bd
00000150: 80ed 9ebd 0a61 553c c73a 0cbd 4083 833c
00000160: e615 963d f441 49bd f0b1 3e3c d605 10bc
00000170: 0fb1 d3bd 5169 6ebc d897 0f3d 84d5 cbbc
00000180: e070 133d e672 843d f4ce 9dbc 71a5 67bc
00000190: 6f45 56bd 0f18 15bd 7893 f5bc f71c b4bd
000001a0: b0a1 1fbc f686 b2bd f76e 05bd 84c3 febc
000001b0: b31a a3bb a055 16bd 5828 d2bd f9d8 aabd
000001c0: 31db 7c3c 6a97 a13d c3ce f5b8 e1c1 053c
000001d0: bf26 ea3c 7114 873d 6d5d 51bc bd98 2bbe
000001e0: 5293 68bd b73d 0f3d ceb7 cd3c 9fad 473c
000001f0: 83e6 693d 646b 433c f8c5 89bd 2a8d 9b3d
0.10193719 0.062124286 0.11420703 -0.035596106 -0.059203066 -0.02141214 0.031215915 -0.020358374
0.040421747 -0.08428086 -0.027960867 0.030587588 -0.11028389 -0.037811663 -0.06257758 -0.052894954
-0.06228641 0.02799631 -0.032344203 -0.017940518 0.04795729 0.041894518 0.019344311 0.045025557
-0.056539863 -0.045077384 -0.019856678 -0.068487994 0.009053615 0.00035989034 0.04850118 -0.004672871
-0.09903316 -0.015768006 -0.13471222 0.018632373 -0.036618892 -0.06139958 0.022785556 0.04879665
0.05649059 -0.055669684 -0.005076602 -0.11669026 0.047946904 0.05752396 0.00053323456 -0.020888956
0.041793663 0.007292298 -0.016471768 0.073307194 -0.0384959 -0.08486142 0.011646709 -0.065326646
-0.10377209 -0.0718015 -0.0344942 0.0988359 0.0004991009 -0.050866637 0.060424965 -0.0029842076
0.050589636 -0.13338448 -0.048708178 0.05849494 -0.04625131 0.018940335 -0.0018687228 -0.046807263
0.04462156 -0.020670816 -0.071991876 0.04451501 0.06609564 -0.03351918 -0.10138098 -0.043926913
-0.009687708 -0.023224778 -0.11710507 -0.051871467 -0.07760143 0.013023624 -0.034235742 0.016053796
0.073283955 -0.049135163 0.011639103 -0.008790454 -0.103365056 -0.014551477 0.03505692 -0.024882086
0.035996318 0.06467228 -0.019263722 -0.014138565 -0.05231231 -0.036399897 -0.029977545 -0.08794587
-0.009743139 -0.08717148 -0.032576527 -0.031099088 -0.004977548 -0.036702752 -0.10261601 -0.083421655
0.015433119 0.07890208 -0.00011721023 0.0081639 0.028582929 0.06595696 -0.012778622 -0.16757484
-0.05678112 0.034970965 0.025112059 0.012187391 0.0571046 0.011927459 -0.06727213 0.07595284

network_body._body_endoder.seq_layers.2.weight f4 [128, 128]
00000000: 16d5 9b3c 2e3d b63d 63ec 01be 5d43 f33d
00000010: 4581 80bd 1db9 723c 14f6 8fbd 7367 8e3a
00000020: dc53 54be a421 8d3d f378 4f3d 8c3a b7bd
00000030: f276 a13c 5bb9 c13c c886 1e3d befd 28bd
00000040: 8d84 02be 93c9 bb3d 63d2 58be 3080 33bd
00000050: 5860 01bd 2933 db3c 876e ee3a 6c6d 753c
00000060: f2d1 09be 03d0 07be 7571 69bc a61a 3dbd
00000070: cc47 793d 3553 a4bd 7ce8 083d 0b74 a63d
00000080: 2f24 d13d c1ca 853d 42b1 06be 0eb4 fabd
00000090: d4dc e2bd 4c09 82bd 7f8e 923c 0a7d 8fbd
000000a0: 34e2 a73c 8a92 91bd 9817 e73d e636 68bd
000000b0: b874 ddbc 08d5 853d 2356 ccbd ef7b 863d
000000c0: bb18 6f39 09a5 083e b620 9bbc 6056 d03d
000000d0: 5a85 d73c f772 65be 3597 dc3a bb96 883d
000000e0: 35fd 5ebe a7fb 943d beef a1bd d2b5 493d
000000f0: c5e6 b83b 81af 13be df90 4ebe 565d 97ba
00000100: 282b 0abe bcef e53d 8d94 b1bd c109 49be
00000110: 8790 c8bd b7c5 a63d 0a4c c1bc a2ef 2dbe
00000120: 3a04 c2bd 2579 61bc a9db 3f3d bf22 cdbc
00000130: 3d3e e7bd d82a 58bd 6d88 733d 4754 ebbd
00000140: 335d 233d 8b20 0b3d ab57 17be 462b ab3b
00000150: 943d a9bd 82ba cb3c 07c2 fd3c 6b89 0c3e
00000160: 487f 21bd f73e 8bbb 1e5a 143d dd8a 1bbe
00000170: 3cf8 943d 7006 253c e2c0 97bd 5a91 1b3d
00000180: f39d 5fbd 80e3 de3c 5118 f7bd 5540 7dbd
00000190: f678 983d c646 bc3b 7bb3 833d 1e4d 9fbd
000001a0: 5151 c23c 3702 50bd ee8a 6bbd 042d d63c
000001b0: b362 913e 0270 46bd 5730 f1bd 7e3b 31be
000001c0: e72f 5f3d 59f2 8dbc dc41 27bd c74b 68be
000001d0: d39e 50bd fb33 d0bd fbbe b63c 8a19 933d
000001e0: 32f5 983b 2fe9 d7bd 3946 1ebd 6bc7 313d
000001f0: 70b6 bdbd a5b3 aabb 99ce ae3c 73c8 4b3d
00000200: d66d 09bd 5b0a b73d 7f43 eebc e463 e6bc
00000210: bf94 683c 81d0 e4bd dd46 95bd d36b d8bd
00000220: f89e 09bd 6303 ed3d dc49 5abb b60b 32bd
00000230: 077c a9bb 67f2 0a3d f377 65bd ba60 d4bd
00000240: 437e cfbc de53 d5bd 72d3 f93d cd99 163e
00000250: fd58 28be 3003 e3bc c789 36bd 1899 e6bb
00000260: 87fa e03d 824b 87bd 2902 063e 6d2a 973c
00000270: f128 2e3d 799f 96bd 54b6 273d 28b1 883d
00000280: 8bd7 4fbd 326d c1bd 0050 233c d05b 923d
00000290: b6a9 a5bb d1ad 16bc 472a a8bd 7b7b 633d
000002a0: 33d4 b3bd e9dd b63d 74a8 9ebd 12bf 1e3e
000002b0: 7150 9f3b 5c14 27be e382 c2bc 033c de3c
000002c0: b9df 843d 3085 d2bd 19a9 cebb 2d8d 99bd
000002d0: 9169 c33d 5d67 9d3d f723 f53d d108 5439
000002e0: 2677 123e e5dc bbbc 87ba a4bd 9b6f 0ebd
000002f0: 6d6e 283c c472 a6bc 2b3e 68bd 17d2 7d3b
00000300: 37a8 143e 1138 edbd 12af 523e 19a2 37bd
00000310: bba0 a03d 0516 78bd c26f 85bc 758b 393d
00000320: 97f9 133c 8bee 72bd 5b3b 44be 009f 5b3e
00000330: 5c77 d23d 38bc d7bd 7c1c aabd 64dd 2cbd
00000340: 048a 84bd 2206 873d 870a d4bd 99e9 23be
00000350: 7905 e1bd d358 28bd 320b 183c d97f febd
00000360: 2e7d 7ebe b809 6abd 9870 9dbd ec78 a63d
00000370: cf0f b5bd 0c90 203d cc6f 5abd 3916 573c
00000380: bba5 313d 3c47 75bd ed10 b7bd dc2f 4a3d
00000390: 0777 ccbd 4336 dabd a452 65bd ea51 82bd
000003a0: 5e67 2fbb 5d73 603d 5d83 eebc 57cb 4dbc
000003b0: 542d b6bd d3d9 afbd 035f 713d f2e9 2cbe
000003c0: 5833 4abd 83f1 213d 3894 52be 3821 6e3d
000003d0: e21c 79bc f066 22be bf16 eb3d a0ce 83be
000003e0: f455 bcbd e801 36be b896 8ebd a679 23be
000003f0: b270 f1bc e06b 30bd 3891 dfbd 2444 173e
0.019022506 0.08898388 -0.1268783 0.11878083 -0.06274656 0.014814642 -0.070293576 0.001086457
-0.20735115 0.06891182 0.050652456 -0.08946714 0.019710038 0.023647955 0.038702756 -0.041257612
-0.12745877 0.091693066 -0.21174006 -0.04382342 -0.03158602 0.026757794 0.0018190899 0.0149797015
-0.13458994 -0.13262944 -0.014248242 -0.046167992 0.060859486 -0.08023683 0.03342484 0.08127602
0.102119796 0.06532813 -0.13153556 -0.12241374 -0.11077276 -0.063494295 0.017890213 -0.07006271
0.020493604 -0.07108028 0.11283797 -0.05669298 -0.027033195 0.06534773 -0.09977367 0.06566607
0.00022802029 0.13344206 -0.018936496 0.10172725 0.026308704 -0.22407137 0.0016829731 0.066693746
-0.21776278 0.072745614 -0.07907055 0.049245663 0.0056427442 -0.14422418 -0.20172451 -0.0011548202
-0.13493025 0.11227366 -0.08670912 -0.19632627 -0.097931914 0.0814318 -0.023595829 -0.16985944
-0.094734624 -0.013761793 0.046840344 -0.025040982 -0.11291168 -0.052775234 0.059456278 -0.11490684
0.039883804 0.033966582 -0.14779536 0.0052236645 -0.08263698 0.024869207 0.030976309 0.13724296
-0.039428025 -0.0042494494 0.036218755 -0.15189691 0.072739094 0.010072336 -0.07409836 0.037980415
-0.05459399 0.02720809 -0.12065185 -0.06182893 0.074449465 0.0057457415 0.064307176 -0.07778381
0.023720415 -0.050783362 -0.05750554 0.026144512 0.28395614 -0.048446663 -0.11776798 -0.1730785
0.054489043 -0.017327474 -0.040834293 -0.22685157 -0.050932717 -0.101661645 0.022307863 0.071826056
0.0046679014 -0.10542523 -0.03864119 0.04340307 -0.09263313 -0.0052094036 0.021338748 0.04975171
-0.033552013 0.08937522 -0.029084919 -0.028123803 0.01419562 -0.111725815 -0.07288907 -0.10567441
-0.03359887 0.115729116 -0.0033308184 -0.0434682 -0.005172256 0.03392258 -0.056022596 -0.10370012
-0.025328761 -0.10416387 0.12198533 0.14707108 -0.16440196 -0.02771148 -0.04456499 -0.007037293
0.10985284 -0.06606199 0.13086762 0.018452847 0.042519514 -0.07354636 0.040945366 0.06674415
-0.050742667 -0.094446555 0.009967804 0.07146418 -0.0050556315 -0.0091967145 -0.08211189 0.055537682
-0.08780708 0.08929045 -0.07746974 0.15502575 0.0048618843 -0.1631636 -0.023744052 0.027128225
0.06487984 -0.1027931 -0.006306779 -0.0749763 0.095416196 0.076857306 0.119697504 0.0002022118
0.14303264 -0.02293248 -0.0804339 -0.034774404 0.010280234 -0.020318396 -0.056699913 0.003872996
0.14517294 -0.115829594 0.20574597 -0.044832323 0.07843157 -0.060567874 -0.016288642 0.045299012
0.009031675 -0.059309524 -0.19163267 0.21447372 0.10276672 -0.10533947 -0.08306214 -0.042203322
-0.06471637 0.065929666 -0.103535704 -0.16007079 -0.10987372 -0.041100334 0.009280013 -0.12426729
-0.2485244 -0.057138175 -0.07687491 0.08128533 -0.08840906 0.039199874 -0.053329274 0.013127857
0.043370944 -0.059882388 -0.08938775 0.04936205 -0.0998364 -0.10654881 -0.055987015 -0.0636328
-0.0026764493 0.05479752 -0.029115373 -0.012560687 -0.088953644 -0.085864685 0.0589285 -0.16886118
-0.04936537 0.039536964 -0.20564353 0.05813715 -0.01520464 -0.1585958 0.11478948 -0.2574358
-0.09196082 -0.17774165 -0.06962341 -0.15964374 -0.029472683 -0.043071628 -0.1091637 0.14772087

network_body._body_endoder.seq_layers.2.bias f4 [128]
00000000: f57d f9bc 8459 333d f9bb 4f3c de69 db3c
00000010: c9df 11bd f553 a33d 6179 c93c dd78 8f3c
00000020: c155 953c 75b8 6a3d ef0c 823d 9076 91bd
00000030: 9adf 67bd db1e 2b3b fc5a cd3d ade6 e4ba
00000040: 79bf a0bc 145b df3c 4f5e 2c3c 862c 64bc
00000050: b19d 593d 0676 0bbd f756 5f3d 68e4 163d
00000060: aa0d cd3d d82d 953c a3a9 05bd c3e9 e1bc
00000070: 9a57 bcbb 4b5c 00bc e9b7 91bc 62df 4239
00000080: 8d84 663d e888 4eba 171c 8e3c 8b57 b03d
00000090: 354f e73b eb55 abba 5b45 6ebc aad4 fbbc
000000a0: 2c87 10bd 9464 e83c 46ae b9bc 7d59 003d
000000b0: 5ecc 0f3d a0a5 713d 07a5 a93c 5e1b 91bc
000000c0: 39a7 dc3c f1e5 19bd d1b8 6d3d e716 a2bc
000000d0: ee9d 013c e4b6 5fbd 12b7 18bd 58e7 8bbd
000000e0: 2b2f c13d 816f b63d d021 02bb 3d11 4b3c
000000f0: 01f7 2d3c 9c02 c4bb fc4e 8abc da72 93bb
00000100: c2ad 8bbc 5b6d 403d 118d 203d 189f 043d
00000110: 5bfc 3f3d 684d ad3d 35ba 803d d7a5 693d
00000120: 0461 a63d 7643 203d 9c0d b53c 17cc 163c
00000130: a6a3 c9bc 8a05 8c3c 1215 20bd eb75 9d38
00000140: eb75 8c3d 33bd 39bd e134 acba 71b6 793d
00000150: 4861 c33c 6250 923c c814 ba3c 1f34 c83d
00000160: da61 b73c d4d1 f63b 726e 45bc bbd2 3b3d
00000170: 0dfd 05bd efe0 5c3d cb76 103d d86d 3fbd
00000180: 28d9 a4bc 0261 a43a b100 fb3c 3c39 7fbc
00000190: b3d0 54bd 1797 5cbc 7f45 623d 09b0 fc3b
000001a0: 4ad8 0abd 6d3b 21bd 3024 7abc 56b0 1e3d
000001b0: 7de7 283d 76f3 7d3b c9e2 13bd 53d2 553b
000001c0: 5151 813d b6d2 ec3c 6bb1 59bc 44d1 36bd
000001d0: 7498 37bd c71e b43d a122 86bd 5b3a b1bb
000001e0: 354f a03d 3de0 843d 0a1f 51bc d137 583d
000001f0: bdb2 383d 8f3b 93bc cb2b acbb c162 b83c
-0.030455569 0.04378654 0.0126790935 0.02678388 -0.03561381 0.07974998 0.02459401 0.017513687
0.018229367 0.05730482 0.06350123 -0.07102692 -0.056609727 0.002611092 0.100271195 -0.0017463766
-0.019622551 0.02726511 0.010520532 -0.013926631 0.053128902 -0.034048103 0.054526296 0.03683892
0.10012372 0.018210337 -0.03263248 -0.027577287 -0.0057477476 -0.007834504 -0.01778789 0.00018584498
0.056278754 -0.0007878677 0.017347379 0.086104475 0.0070590028 -0.001307187 -0.014542903 -0.030741055
-0.03528516 0.028368272 -0.022666108 0.031335343 0.03510701 0.058995843 0.020708574 -0.017713245
0.026935207 -0.037572805 0.058037583 -0.019786311 0.0079111885 -0.054617777 -0.037283964 -0.06831235
0.09432825 0.089079864 -0.001985658 0.012394247 0.010617972 -0.0059817564 -0.016883366 -0.0044997754
-0.017050628 0.04697929 0.03919703 0.032378286 0.046871524 0.0846203 0.06285516 0.057042923
0.08123973 0.039126836 0.022101216 0.009203932 -0.024614166 0.017092485 -0.039082594 7.508307e-05
0.068584286 -0.04534645 -0.0013138318 0.060965005 0.023850098 0.017860595 0.022714987 0.09775566
0.022385526 0.0075323377 -0.012050258 0.045855265 -0.03271203 0.05392545 0.03526954 -0.046735615
-0.02012308 0.0012541118 0.030639978 -0.015577611 -0.051956844 -0.013463757 0.055242058 0.0077114147
-0.033897676 -0.039363313 -0.015267417 0.038742386 0.04123639 0.003874985 -0.03610495 0.0032626584
0.06314338 0.028909069 -0.013286929 -0.044633165 -0.044823125 0.08794933 -0.06549574 -0.005408568
0.078276075 0.064880826 -0.012763748 0.052787606 0.045092333 -0.017972736 -0.005254244 0.022508027

action_model._continuous_distribution.log_sigma f4 [1, 2]
00000000: 82a1 8abe 064b cbbd
-0.27076346 -0.09926419

action_model._continuous_distribution.mu.weight f4 [2, 128]
00000000: 73d2 bcbd fe09 003d 7a7e 1fbe 871b 143d
00000010: 9b37 a639 cb5b 483d 71e5 a9bb 1609 02bc
00000020: 0b08 d7bb 05cc 7a3d fcbb b93c 04c0 babd
00000030: 77a5 96bd 8d27 08bc 503a a93d 4ded 8b3c
00000040: b56f 2fbd 314f 50bb 6cc8 b9bb 6e91 fcbd
00000050: e7ef 693c 7fde ecbd 0e74 f23b ecde 17be
00000060: cbe6 913d 7143 b6bd 9593 d6bd 453c 05be
00000070: 6998 17be aa33 2ebe 3d2c f1bd a73f 01bd
00000080: 770b 9c3c 3f7a 583c 4df4 b1bb d919 6f3d
00000090: bda6 acbd 771e eebb 89e5 e4bd f053 f6bd
000000a0: 0ff7 91bd 139f 1abe 6864 f3bd 088d 4b3a
000000b0: 4c2f 923c a13c f13c 5b37 f8bd 0768 a7bd
000000c0: bef9 21be 922b 15be 60ea a43c 36b6 febd
000000d0: 6ef0 33bd 9d36 85bc d9fd 87bd ec7c 58bd
000000e0: cbe6 663d b9dd 243d 09aa 20be 1ece e5bd
000000f0: 9c71 2ebe 8e48 0bbe caaa a4bd bcae 09be
00000100: fc17 a8bc 6e9c 4b3d 2c1b 3c3d 5e71 023d
00000110: cc0d 473d 58f7 843d 48d7 1b3d 5a49 d43c
00000120: 615a 7b3d 65e4 2f3d b792 1fbe 5858 67bc
00000130: cb3e f4bd b8fb 1fbe dc12 92bd 4057 1fbe
00000140: ce4d 673c e18d a2bc 61d2 0ebe 6924 e83c
00000150: 1edf 063c c209 c2bc ec7e 69bc f15d 883d
00000160: bbdb 62bb f529 f9bd 25c8 2cbc 2147 ae3c
00000170: f23a f6bd 1b21 b73c 44ac 22be 5da7 dcbd
00000180: aa0b ddbd cbbe 37bd a0d8 36be 0720 95bd
00000190: 0f68 e3bd 451b f6bd 351f 0b3d 09e9 20be
000001a0: 5c58 c0bd 83e1 bebd afaa d4bd c4c3 353d
000001b0: b215 16be 139d 10be e64f 343c 473c 08be
000001c0: a9c1 df3c 9323 22be 8d57 d2bd 2c57 e7bd
000001d0: a63c aebd f605 9b3d 3530 dcbd cfb7 06be
000001e0: 83b9 053d 2b5e 683d abf8 c5bd b239 223d
000001f0: 56f2 993c da9b a6bc 4d49 6e3b 471a 2bbd
00000200: f591 113b 9356 c5bb 12bf 2a3c 43cd 60bd
00000210: 0174 29bd b2a4 1cbc 86da 8c3d 6c1b bf3d
00000220: 4261 35bb ec7a 97bd 70d7 863b a150 6c3d
00000230: 5415 103c 9166 92bc 8b01 173c 2072 aebd
00000240: 1960 f3b9 5ea3 0a3d 3fd9 443d c524 3b3c
00000250: 0127 843d 75b4 05bc afaf a53d 63dd f3bc
00000260: 970c 913c 7519 f5bd b42b 873c 6ab1 5abb
00000270: 84f9 b1bc c6d3 09bc c0a6 85bb a4dc 793d
00000280: 05a1 b13d 920a 9ebd db20 c1bb d634 13bc
00000290: 0941 14bc e5cf bd3c bade dbbb 4717 76bb
000002a0: 96c2 173c 8f0e 89bc 0c0c 9bb9 2bf4 26bc
000002b0: 1fdc 41bd 543f c03d 7344 89bd 5aff ce3b
000002c0: 5778 30bd fe58 35bc 04d0 c6bc 778d fabb
000002d0: 7065 c83d 6300 2f3a 9d88 643c b03a 643d
000002e0: f60a 8abb 2f81 b23b 9a82 efbb 0e78 bebd
000002f0: dcf1 8dbb a186 e3bc 7e3c c33c 59d8 40bd
00000300: d782 413d 74ed 97bd 67c0 10bd 346e 65bd
00000310: 2464 37bd 94f4 c4bc 5a9a dabb 1525 2f3d
00000320: 6042 ecbb a787 71bd 966c 8ebc 8d0d a73d
00000330: 82a5 353c f20e 4d3a d87e 803c 1399 88bc
00000340: bf30 103d f9cc 073d 262c c0b9 c3d9 f73d
00000350: 2eb4 c3bc 4079 b03d bc9d dd3d acf7 1f3c
00000360: 86b9 96bb 48d7 193c 408b 96bd f996 9b3d
00000370: 0859 1bbc 94b1 bf3c 24f9 1dbd 5fb8 c1bc
00000380: f950 6f3c 2046 ca3d d643 c53b 0f8c 6a3d
00000390: 6e72 4c3c 9daa adbc 58c5 bcbd 5b1c 81bc
000003a0: a417 6b3c 5186 79bc 32e4 babc 1519 61bd
000003b0: f7f5 b1bc 60e2 d3bc 30df c43d 1d5d ca3b
000003c0: 862d 4b3d ecba ccbc 60c8 15bd a662 b83c
000003d0: 596a 12bd e429 9abc 994c 4c3c b29d 4cbb
000003e0: ea75 c53c d44f 93bd 7261 3cbb 0c0a 9fbd
000003f0: bb4c 9c3d 04c3 96bd b2aa a9bd 9f49 0ebe
-0.092198275 0.03125953 -0.1557559 0.036159065 0.00031703417 0.048915666 -0.0051848223 -0.007936737
-0.006562238 0.061229724 0.022672646 -0.09118655 -0.07355779 -0.008310211 0.08263075 0.017080927
-0.04283114 -0.0031785483 -0.005669644 -0.12332426 0.014278389 -0.11565875 0.0073990887 -0.14831132
0.071240984 -0.08899582 -0.10477368 -0.13011272 -0.14804234 -0.17011896 -0.11776016 -0.031554844
0.019048436 0.0132127395 -0.0054307343 0.05837426 -0.0843024 -0.0072668153 -0.11176593 -0.120277286
-0.07127201 -0.15099744 -0.11884385 0.0007764851 0.017844819 0.029447855 -0.12119933 -0.081741385
-0.15817925 -0.14567402 0.02013129 -0.12437098 -0.043930463 -0.016261393 -0.066402145 -0.05285351
0.056372445 0.040250514 -0.15689863 -0.11220954 -0.17035526 -0.13601896 -0.08040388 -0.13445562
-0.02051925 0.04970973 0.04592435 0.031846397 0.048597142 0.064924896 0.038047105 0.025913883
0.06136549 0.042942423 -0.15583311 -0.014120184 -0.11926039 -0.15623367 -0.071325034 -0.15560627
0.014117671 -0.019843044 -0.1394744 0.028337674 0.008231906 -0.023686294 -0.014251452 0.06658543
-0.0034615833 -0.12166206 -0.010545765 0.021274151 -0.12022962 0.022354653 -0.15886027 -0.107741095
-0.1079324 -0.04485969 -0.17856073 -0.07281499 -0.11103832 -0.1201692 0.03396531 -0.15713896
-0.09391853 -0.09320357 -0.10384118 0.04437615 -0.14656714 -0.14122419 0.011005377 -0.13304244
0.027314024 -0.15833883 -0.10270605 -0.112959236 -0.085076615 0.07569496 -0.10751382 -0.13156055
0.03264762 0.05673043 -0.0966657 0.039605804 0.018792313 -0.020337988 0.0036359609 -0.041773107
0.0022212241 -0.0060222833 0.010421531 -0.054883253 -0.041370396 -0.009560751 0.068776175 0.09331402
-0.0027676378 -0.07396492 0.0041150376 0.05769408 0.0087941475 -0.017871173 0.0092166765 -0.08517861
-0.0004642017 0.033847205 0.048058745 0.011422341 0.06452752 -0.0081607 0.080901496 -0.029768651
0.017706199 -0.11967746 0.016500331 -0.0033369907 -0.021725424 -0.008412307 -0.004078716 0.061001435
0.0867329 -0.0771686 -0.0058938093 -0.008984765 -0.009048709 0.02317042 -0.0067099007 -0.0037550495
0.0092627015 -0.016730575 -0.0002957288 -0.01019005 -0.047329064 0.09387079 -0.06702509 0.0063170614
-0.043083515 -0.011068581 -0.024269111 -0.0076462585 0.09784973 0.0006675778 0.013948587 0.05572003
-0.0042127324 0.005447529 -0.00730927 -0.09300242 -0.0043318104 -0.027774157 0.023832556 -0.047081325
0.04724392 -0.074183375 -0.03533974 -0.0560133 -0.044773236 -0.024042405 -0.006671232 0.042759974
-0.007210061 -0.05896726 -0.017385762 0.081568815 0.011086823 0.00078223564 0.015685484 -0.016674554
0.035202738 0.03315446 -0.00036653987 0.121020816 -0.023889627 0.086168766 0.10821101 0.009763639
-0.004599753 0.009389706 -0.073507786 0.07597155 -0.009481676 0.023400106 -0.038567677 -0.023647485
0.014606708 0.098766565 0.0060200496 0.057262477 0.012478454 -0.021199519 -0.09217328 -0.015760591
0.014348898 -0.015229777 -0.02281389 -0.05495556 -0.02172373 -0.02586478 0.09612882 0.0061756507
0.04960396 -0.024991475 -0.036568046 0.022507977 -0.035745952 -0.018818803 0.012469434 -0.0031221923
0.024104077 -0.071929604 -0.0028744605 -0.07765588 0.07631823 -0.07361415 -0.08284511 -0.13895272

action_model._continuous_distribution.mu.bias f4 [2]
00000000: a0a8 e63d bf12 b73c
0.112626314 0.022347806
