results/Lava/Lava/Lava-1000027.pt (torch, 454192 bytes, 42 tensors)

network_body._body_endoder.seq_layers.0.weight f4 [128, 8]
0.5944094 0.054232385 -0.38312107 0.13804924 -0.33538935 0.10379061 0.27460146 -0.25316852
0.6214404 0.98694456 -0.6497382 0.0884643 -0.17752987 0.18416359 0.019431293 -0.3930913
-0.74382955 0.29406565 -0.49545616 0.17083609 -0.07014876 -0.8526751 -0.30894712 -0.35722664
0.57903624 -0.079555266 -0.082364686 -0.0936364 0.06224406 -0.58855504 0.39910856 -0.5397303
0.7481426 0.22245926 -0.001156179 -0.5766998 0.3128319 -0.047146756 -0.015832633 -0.84047294
-0.30813172 0.32726598 -0.010866683 0.8184071 0.76907694 -0.43836913 -0.43662718 0.27219707
0.29206422 0.3959057 0.00043622672 -0.22345869 0.38916373 0.5137798 0.35643995 -0.81352234
0.010670655 -0.22688663 -0.50646955 -0.3039115 0.9157454 -0.21732701 0.28336146 -0.24422386
0.18243366 0.41679332 -0.17755051 -0.0071034525 -0.37456802 0.32837588 -0.31170735 0.1734031
0.31256083 -0.50039035 0.31805107 -0.16403973 -0.36255786 0.4470239 -0.2286337 0.35820493
-0.32302815 -0.338586 0.6114982 0.08108318 -0.079423465 0.060113814 0.20600255 0.6302122
-0.12225807 0.59807277 -0.25352463 -0.1480506 0.52374375 0.11967614 -0.48906505 0.26745138
-0.7787439 0.12735781 -0.18895052 0.2409582 -0.29657033 0.13066302 0.42210406 -0.23983955
-0.41765812 0.29153663 -0.39364687 -0.148517 0.20261596 -0.094574235 -0.23811224 -0.39211267
-0.31797972 0.27401662 -0.066673115 0.6109724 -0.19779795 -0.1331478 0.4230321 1.1156863
0.45447037 -0.025986154 -0.28765258 0.017787322 -0.059590574 -0.16132128 -0.31190723 0.3208606
-0.24790296 -0.60394895 0.55268353 0.26207146 0.24306184 0.52214706 0.13468589 -0.18086547
0.3423378 0.18972482 -0.1618609 -0.2682945 0.12868099 0.58995503 -0.09389235 -0.20257849
-0.31250155 0.79940945 -0.302487 0.2459964 -0.41695288 -0.2862005 0.3625146 -0.5124769
-0.32349002 0.18214773 -0.11105789 0.06672726 -0.06259559 -0.6823267 -0.6657003 0.6029479
0.24813563 -0.33054724 0.09960343 -0.35585886 0.15594922 0.22437574 0.1782114 0.38566777
-0.42290762 0.044417094 0.47426143 -0.118360735 -0.2902217 -0.1443361 -0.3457616 -0.38467312
0.3470071 -0.18976541 -0.46881095 -0.13520305 -0.24533579 0.017014407 -0.70169795 0.4937257
0.054879244 0.036612663 -0.13212906 -0.16649185 0.06665099 -0.45671865 -0.10141907 0.11743791
-0.1196237 -0.032471724 -0.120966025 0.3950081 0.3826814 -0.1312947 0.0855863 -0.24557024
0.14419557 0.3125559 0.17666695 -0.50108254 0.1851082 -0.31198102 0.33953846 -0.1922868
-0.90976185 0.5381707 -0.047460582 -0.113268174 -0.34405813 0.0884012 0.39707342 -0.44199184
0.31718215 0.020063976 0.05843962 0.0062869317 -0.49863482 -0.68301624 0.21513349 0.14006554
-0.47297862 0.19925539 0.09095345 0.3834789 -0.22511542 -0.1306348 -0.5307577 0.45897382
-0.24620771 -0.0074296407 -0.73916024 0.57386416 0.30220225 -0.28302428 -0.1785819 0.3734765
-0.08459639 0.14307876 0.010686745 0.24219126 -0.07470232 -0.15664595 -0.22782555 0.7040656
0.5305818 -0.19825639 0.44191703 0.26358038 0.09367596 0.12105616 0.355423 -0.4863252
00000000: 372b 183f c722 5e3d 7228 c4be c85c 0d3e
00000010: 27b8 abbe 2c90 d43d 9098 8c3e 4e9f 81be
00000020: b816 1f3f 66a8 7c3f 3e55 26bf c52c b53d
00000030: 64ca 35be 6195 3c3e 602e 9f3c 4343 c9be
00000040: 9d6b 3ebf c68f 963e 6eac fdbe a8ef 2e3e
00000050: 27aa 8fbd ea48 5abf 512e 9ebe 69e6 b6be
00000060: b83b 143f dfed a2bd d1ae a8bd 71c4 bfbd
00000070: a1f3 7e3d 8bab 16bf f557 cc3e c42b 0abf
00000080: 4686 3f3f 5ccc 633e ee8a 97ba 99a2 13bf
00000090: 812b a03e f51c 41bd 70b3 81bc 3c29 57bf
000000a0: 71c3 9dbe 688f a73e 2c0a 32bc 2183 513f
000000b0: 3ae2 443f eb71 e0be 998d dfbe 6a5d 8b3e
000000c0: 7189 953e 27b4 ca3e 5cb5 e439 5bd2 64be
000000d0: 7840 c73e 1387 033f 4c7f b63e 0043 50bf
000000e0: f9d3 2e3c f854 68be fda7 01bf 4a9a 9bbe
000000f0: 4a6e 6a3f f98a 5ebe c114 913e d215 7abe
00000100: e4cf 3a3e ef65 d53e cdcf 35be 14c4 e8bb
00000110: 61c7 bfbe e220 a83e 1b98 9fbe 9590 313e
00000120: f907 a03e 9519 00bf 97d7 a23e 08fa 27be
00000130: 2fa1 b9be 51e0 e43e f41e 6abe a366 b73e
00000140: f263 a5be 255b adbe 258b 1c3f f00e a63d
00000150: c5a8 a2bd e739 763d 55f2 523e 9655 213f
00000160: 7062 fabd 4c1b 193f fbcd 81be 949a 17be
00000170: 1214 063f c418 f53d bc66 fabe 63ef 883e
00000180: c35b 47bf 166a 023e 3f7c 41be bfbd 763e
00000190: 11d8 97be 87cc 053e 061e d83e 8098 75be
000001a0: 49d7 d5be 4a44 953e 158c c9be d714 18be
000001b0: 8f7a 4f3e 23b0 c1bd b2d3 73be fec2 c8be
000001c0: 3dce a2be e84b 8c3e ea8b 88bd b068 1c3f
000001d0: 8c8b 4abe e657 08be aa97 d83e cfce 8e3f
000001e0: 57b0 e83e eae0 d4bc 3347 93be b8b6 913c
000001f0: 3f15 74bd 6831 25be 4eb2 9fbe d747 a43e
00000200: 46da 7dbe 669c 1abf ab7c 0d3f 3b2e 863e
00000210: 34e5 783e 6eab 053f 19eb 093e cc34 39be
00000220: e646 af3e 3947 423e ddbe 25be e65d 89be
00000230: f3c4 033e 4b07 173f a24a c0bd bc70 4fbe
00000240: 3400 a0be 19a6 4c3f 93df 9abe 7be6 7b3e
00000250: d97a d5be df88 92be 839b b93e b031 03bf
00000260: 7ca0 a5be ef84 3a3e 5272 e3bd 4da8 883d
00000270: 1e32 80bd f6ac 2ebf 566b 2abf cb5a 1a3f
00000280: 4417 7e3e 7d3d a9be e2fc cb3d 2233 b6be
00000290: 27b1 1f3e c1c2 653e 0d7d 363e 3f76 c53e
000002a0: 5987 d8be b3ee 353d 65d2 f23e 1d67 f2bd
000002b0: f097 94be d8cc 13be aa07 b1be e0f3 c4be
000002c0: eaaa b13e dd51 42be fd07 f0be ab72 0abe
000002d0: 4e39 7bbe cc61 8b3c 7aa2 33bf 9dc9 fc3e
000002e0: 0fc9 603d 29f7 153d d74c 07be d77c 2abe
000002f0: 5080 883d 07d7 e9be cdb4 cfbd 4983 f03d
00000300: 45fd f4bd 1201 05bd 09bd f7bd 803e ca3e
00000310: d1ee c33e 1e72 06be df47 af3d c476 7bbe
00000320: 01a8 133e 5407 a03e 2ee8 343e f246 00bf
00000330: 018d 3d3e fabb 9fbe fcd7 ad3e d5e6 44be
00000340: 27e6 68bf 8ec5 093f 0766 42bd 25f9 e7bd
00000350: 6328 b0be b00b b53d 354d cb3e c14c e2be
00000360: b365 a23e 355d a43c 625e 6f3d 9b02 ce3b
00000370: 104d ffbe 27da 2ebf f44b 5c3e 576d 0f3e
00000380: 412a f2be 9b09 4c3e cd45 ba3d 5957 c43e
00000390: a884 66be 21c5 05be bddf 07bf 9efe ea3e
000003a0: e01d 7cbe 5874 f3bb 9b39 3dbf c3e8 123f
000003b0: 41ba 9a3e 8fe8 90be 2cde 36be 5038 bf3e
000003c0: df40 adbd 3d83 123e 7517 2f3c fc00 783e
000003d0: 88fd 98bd cc67 20be 1a4b 69be a53d 343f
000003e0: 35d4 073f b903 4bbe f342 e23e 02f4 863e
000003f0: 2fd9 bf3d 4bec f73d 01fa b53e 9eff f8be

network_body._body_endoder.seq_layers.0.bias f4 [128]
-0.003730748 -0.00095979404 0.03239987 0.015673252 0.03909604 0.00801124 -0.020512167 0.04622636
0.011522042 0.013058638 0.05452115 0.012401303 0.057623513 0.041107677 0.02274286 0.0019450134
0.026221406 0.05869658 -0.009513991 0.034706235 0.025394317 0.015505718 0.007347783 0.012772185
-0.0057407673 0.04110268 -0.025703138 -0.01797566 -0.0044273413 0.008360705 0.012374353 0.0040650293
-0.031143893 0.0011480355 0.019261321 0.03451163 -0.0051393644 0.047730245 0.015240021 0.007406343
0.010341405 0.014123974 -0.011248649 0.015692271 0.030694915 0.04662265 0.023722462 -0.0063573676
-0.027784424 0.062837586 0.0135389725 -0.016733453 0.08689634 0.001765237 -0.038031742 0.056108397
0.05337122 -0.013948409 0.016254121 0.013677134 0.020717518 0.02042619 0.019023888 -0.018331692
0.02129643 0.042842597 -0.03028643 0.07517263 0.026607871 -0.0030562575 0.021897033 0.08639212
0.036379952 0.01953445 0.023522481 0.044241514 0.020168079 -0.041326944 0.08884636 0.010893476
-0.02616305 0.043889683 0.050610956 0.004949604 -0.023143116 0.026114456 -0.0033000007 0.03290381
-0.026309488 -0.01491542 0.053214826 0.1145604 0.034693595 0.0776864 0.09786885 0.062858805
0.026382329 -0.02421866 0.04473653 0.016440455 -0.033926263 -0.0011507224 -0.008172435 -0.010834142
0.0513261 0.017802676 0.016622014 0.0056270817 0.1540179 0.022263326 0.015144836 -0.0016100463
0.00879783 -0.04770611 -0.049646836 0.18787937 0.094923235 0.0055804774 0.0593544 -0.012069198
-0.007553871 -0.026862508 -0.018275026 0.03245168 0.09459041 0.040601347 -6.102096e-05 -0.0038256564
00000000: 917f 74bb b09a 7bba bab5 043d 3165 803c
00000010: 2b23 203d 9341 033c 2209 a8bc da57 3d3d
00000020: f2c6 3c3c e6f3 553c 9251 5f3d d62e 4b3c
00000030: a206 6c3d 8660 283d 3c4f ba3c d2ef fe3a
00000040: 46ce d63c d36b 703d 92e0 1bbc 2028 0e3d
00000050: be07 d03c b20b 7e3c acc5 f03b 6d42 513c
00000060: 0c1d bcbb 495b 283d 638f d2bc b141 93bc
00000070: 3b13 91bb 57fb 083c ccbd 4a3c f033 853b
00000080: 7a21 ffbc ae79 963a ebc9 9d3c 115c 0d3d
00000090: 1d68 a8bb ca80 433d 48b1 793c e8b0 f23b
000000a0: ff6e 293c 3e68 673c 414c 38bc 148d 803c
000000b0: e773 fb3c 64f7 3e3d 9c55 c23c 7751 d0bb
000000c0: 299c e3bc feb0 803d 91d2 5d3c 9814 89bc
000000d0: b5f6 b13d 865f e73a 2cc7 1bbd ebd1 653d
000000e0: c89b 5a3d de87 64bc 5d27 853c 0f16 603c
000000f0: c9b7 a93c d354 a73c fcd7 9b3c 582c 96bc
00000100: da75 ae3c b87b 2f3d 3f1b f8bc 1cf4 993d
00000110: c0f8 d93c 7e4b 48bb 6861 b33c 5aee b03d
00000120: 2503 153d b606 a03c 38b2 c03c 9736 353d
00000130: 8737 a53c 7146 29bd 15f5 b53d 8d7a 323c
00000140: e553 d6bc abc5 333d 6f4d 4f3d 4a30 a23b
00000150: a296 bdbc fced d53c d344 58bb 25c6 063d
00000160: ff86 d7bc ce5f 74bc caf7 593d a59e ea3d
00000170: df1a 0e3d 0c1a 9f3d 776f c83d 1ebc 803d
00000180: c11f d83c 3666 c6bc a73d 373d 22ae 863c
00000190: 44f6 0abd d6d3 96ba ade5 05bc af81 31bc
000001a0: 513b 523d ebd6 913c e42a 883c 6263 b83b
000001b0: deb6 1d3e 9461 b63c 0c22 783c 3008 d3ba
000001c0: c624 103c 7b67 43bd 7b5a 4bbd 7363 403e
000001d0: 1d67 c23d 70dc b63b 991d 733d e3bd 45bc
000001e0: 7686 f7bb c30e dcbc 82b5 95bc 0eec 043d
000001f0: 9eb8 c13d 994d 263d c2f0 7fb8 ddb7 7abb

network_body._body_endoder.seq_layers.2.weight f4 [128, 128]
-0.09874019 0.039696176 -0.03128253 0.0015332362 -0.024274431 0.046240572 -0.2247689 -0.039552733
-0.09989574 -0.037834976 0.10195423 -0.04736073 0.12597783 -0.14230536 0.07041886 -0.07617631
-0.0036547037 -0.014341063 0.013237065 0.047275357 0.0048191547 -0.1458881 -0.09809528 -0.16879436
-0.087720394 -0.09534095 0.09932966 0.017776418 0.011728116 0.14133267 0.04918889 -0.09847398
-0.16854663 -0.14982021 0.07675449 -0.2248679 -0.07727732 0.13088152 0.07692903 0.11508951
-0.07046039 0.036902726 -0.13884307 0.012514563 0.06119519 -0.023727499 -0.08597662 -0.06735468
0.016215667 -0.04862063 -0.1561578 -0.10136766 -0.07895709 -0.074410014 -0.07293863 -0.0045379335
0.028941313 -0.06355366 0.079298414 -0.019861102 0.016890148 -0.054081652 0.06915143 -0.15828717
0.10272834 0.109937 -0.14912555 -0.21989235 -0.036799066 -0.085154645 -0.0760377 0.12521042
-0.07777166 0.04449605 -0.15198483 0.14998902 0.10068008 0.0182155 -0.021986041 -0.053777166
-0.05895616 0.00707318 0.09790105 -0.10142844 -0.06668433 0.0057238205 0.06331464 0.122104324
0.15361355 0.17563793 -0.082926154 -0.20124117 -0.20601583 0.08795079 0.2066855 -0.1270954
-0.08486129 -0.04502482 -0.061045147 -0.13697015 0.0072875847 -0.07628438 0.03685456 -0.14640917
0.03633893 -0.04410859 0.10891419 -0.07140458 0.13095196 0.0031943426 -0.048112564 -0.14207667
-0.09594029 -0.15636858 -0.14411812 -0.10051811 0.043585036 0.03908756 0.035178013 0.12227247
0.09324805 0.008232503 0.035072044 0.11310982 -0.113307424 0.03195091 0.13468787 0.087752186
-0.114601426 0.031509724 -0.038622513 -0.07538052 0.1129828 -0.0062944144 0.018846367 0.031613864
-0.07467289 -0.08886155 0.21986173 0.068470836 0.034975775 0.027143557 0.111870274 0.05771725
-0.0808822 -0.04565864 0.024951894 0.13115025 0.028944453 -0.039225876 0.06540269 0.07386956
0.05329897 -0.07098417 -0.06553689 -0.055692684 -0.007000764 -0.026186388 0.05793085 0.03610769
-0.119710915 0.039986175 -0.011498731 -0.13155386 -0.28558367 0.03462511 0.00540948 0.01791362
0.055463806 -0.09803816 0.009703889 -0.05847898 -0.027462823 -0.034771018 0.033681203 -0.056340322
-0.039238535 -0.059017092 -0.019549737 0.04653227 0.04244631 -0.13983011 -0.098576404 0.09465126
-0.024204379 -0.0030499045 -0.03011438 -0.13584352 0.13870262 0.018376365 0.110463955 0.03669862
-0.07367237 -0.017234812 -0.15796971 -0.10149941 -0.0754196 0.022800704 0.036170345 -0.0032652102
0.005206255 0.012661149 0.1686232 -0.030497918 -0.07460652 -0.14410037 -0.078534074 0.1641726
0.034623753 0.034438293 0.032255277 -0.05739943 -0.0078017227 0.040231384 0.1632435 -0.06704139
0.12755226 -0.006056667 0.08830202 -0.09789622 -0.0607104 0.07824314 -0.10718209 -0.14843236
0.057248354 -0.007980908 0.00668575 -0.025216928 -0.08545335 0.028446672 -0.09336909 -0.157793
-0.05350095 -0.14415725 0.09068946 0.10017652 0.09913197 0.12190681 0.06236167 -0.0067313593
0.008218885 0.10957312 -0.06934888 0.042092085 -0.03130194 0.082800925 -0.11633365 0.037420966
-0.2200236 -0.09105801 0.049831685 -0.009016164 -0.10287481 -0.015843866 -0.032489248 -0.05273976
00000000: 4c38 cabd 7598 223d 1c22 00bd dff6 c83a
00000010: 2cdb c6bc c166 3d3d d229 66be 0c02 22bd
00000020: 2396 ccbd d9f8 1abd 61cd d03d 53fd 41bd
00000030: 5500 013e 7fb8 11be c337 903d 5302 9cbd
00000040: c183 6fbb c7f6 6abc 46e0 583c cea3 413d
00000050: 00ea 9d3b b163 15be 2ee6 c8bd 6ed8 2cbe
00000060: c0a6 b3bd 1e42 c3bd 596d cb3d da9f 913c
00000070: 4927 403c 83b9 103e 4a7a 493d baac c9bd
00000080: 7d97 2cbe 786a 19be 7531 9d3d c543 66be
00000090: 9243 9ebd ce05 063e f88c 9d3d 0db4 eb3d
000000a0: 894d 90bd 5027 173d e12c 0ebe e209 4d3c
000000b0: cfa7 7a3d 2c60 c2bc 8314 b0bd 40f1 89bd
000000c0: b8d6 843c 6d26 47bd d5e7 1fbe d999 cfbd
000000d0: 41b4 a1bd 4764 98bd d960 95bd f2b2 94bb
000000e0: 5516 ed3c 6c28 82bd 3567 a23d c0b3 a2bc
000000f0: 355d 8a3c b984 5dbd 449f 8d3d 0816 22be
00000100: 3c63 d23d a626 e13d 5eb4 18be 762b 61be
00000110: 9eba 16bd 8f65 aebd a7b9 9bbd 2937 003e
00000120: c046 9fbd 7d41 363d e9a1 1bbe b996 193e
00000130: 5c31 ce3d ac38 953c 121c b4bc 7245 5cbd
00000140: 047c 71bd 22c6 e73b 5880 c83d b7b9 cfbd
00000150: cb91 88bd e38e bb3b 1bab 813d d511 fa3d
00000160: df4c 1d3e 6eda 333e 30d5 a9bd 2a12 4ebe
00000170: d0f5 52be 8b1f b43d 5da5 533e 4c25 02be
00000180: c2cb adbd f26b 38bd 7a0a 7abd e741 0cbe
00000190: b1cc ee3b fc3a 9cbd cff4 163d 49ec 15be
000001a0: 21d8 143d 35ab 34bd 670e df3d 903c 92bd
000001b0: 4518 063e 2d58 513b ae11 45bd 8c7c 11be
000001c0: 587c c4bd 161f 20be b393 13be 70dc cdbd
000001d0: 3986 323d 471a 203d d216 103d fd69 fa3d
000001e0: d5f8 be3d 9fe1 063c b4a7 0f3d 1fa6 e73d
000001f0: b90d e8bd f5de 023d 9eeb 093e 6bb7 b33d
00000200: 27b4 eabd 5710 013d a432 1ebd 1a61 9abd
00000210: 8763 e73d 6041 cebb b263 9a3c 8a7d 013d
00000220: 1aee 98bd 0bfd b5bd 6f23 613e 703a 8c3d
00000230: c242 0f3d 2a5c de3c 3e1c e53d ec68 6c3d
00000240: 91a5 a5bd 8e04 3bbd ea67 cc3c 404c 063e
00000250: eb1c ed3c 50ab 20bd d8f1 853d ed48 973d
00000260: 0550 5a3d 2660 91bd 3438 86bd 031e 64bd
00000270: aa66 e5bb d684 d6bc e648 6d3d a8e5 133d
00000280: ff2a f5bd 8bc8 233d 2c65 3cbc 0eb6 06be
00000290: 0638 92be 0fd3 0d3d 0242 b13b 96bf 923c
000002a0: 042e 633d 3bc8 c8bd 0ffd 1e3c a887 6fbd
000002b0: b7f9 e0bc 0e6c 0ebd 4df5 093d 1cc5 66bd
000002c0: 96b8 20bd e8bb 71bd c526 a0bc 9f98 3e3d
000002d0: 2fdc 2d3d a02f 0fbe 6de2 c9bd 85d8 c13d
000002e0: 4348 c6bc e8e0 47bb 6fb2 f6bc 901a 0bbe
000002f0: 0f08 0e3e 088a 963c ed3a e23d 4b51 163d
00000300: 8ae1 96bd 0530 8dbc d0c2 21be ecde cfbd
00000310: 9775 9abd 8bc8 ba3c 5b27 143d 23fd 55bb
00000320: 3b99 aa3b b570 4f3c 8fab 2c3e c5d6 f9bc
00000330: 4ecb 98bd 0c8f 13be 79d6 a0bd dd1c 283e
00000340: a3d1 0d3d 2b0f 0d3d 1c1e 043d aa1b 6bbd
00000350: 98a5 ffbb aac9 243d 4e29 273e ff4c 89bd
00000360: 0f9d 023e 0177 c6bb b1d7 b43d d07d c8bd
00000370: 78ab 78bd f03d a03d 4982 dbbd a7fe 17be
00000380: 407d 6a3d 5bc2 02bc 2314 db3b bb93 cebc
00000390: 2a02 afbd ff08 e93c 4b38 bfbd 7d94 21be
000003a0: d023 5bbd f59d 13be 65bb b93d 5929 cd3d
000003b0: b405 cb3d 47aa f93d f36e 7f3d bc92 dcbb
000003c0: 81a8 063c df67 e03d c906 8ebd c068 2c3d
000003d0: 7736 00bd 8893 a93d 5640 eebd ba46 193d
000003e0: de4d 61be 9f7c babd 4f1c 4c3d 88b8 13bc
000003f0: 07b0 d2bd ffca 81bc 7213 05bd a605 58bd

network_body._body_endoder.seq_layers.2.bias f4 [128]
0.037366483 0.006943163 0.019085161 0.010342886 0.013489395 0.028038893 -0.018063681 -0.00094920344
-0.013068201 0.011288909 -0.0029484078 0.028912682 -0.0047165933 -0.020794503 -0.01557041 -0.0014689601
0.02679983 -0.006246134 -0.018901084 0.004800601 -0.0022634014 0.029713273 -0.00029669062 0.015193687
0.023765266 -0.009253442 -0.0155753605 -0.004386821 -0.009325885 -0.0013925955 -0.012493951 0.01393467
0.002981162 0.007852964 0.020702364 -0.005689 0.002533316 -0.007290374 0.002482302 0.013068217
0.031867713 0.009017617 0.03964321 0.0172312 -0.0067965253 0.0105299 0.0018482493 0.013885215
0.0066894647 0.008947008 -0.0013593273 0.010957505 -0.0038990227 -0.007125977 0.013303656 -0.0028398926
0.0066069253 -0.008613553 0.007619094 -0.0071800295 0.014527543 -0.00913391 -0.0072643636 -0.008160025
0.0012734343 0.011170251 -0.009421257 -0.015622639 0.013014254 -0.0051119393 0.007999187 0.018060425
-0.0052669565 0.00035358855 -0.013178526 0.0006278088 0.001653909 0.032047328 -0.00013466438 0.013444932
0.0105691645 0.02400434 0.013692465 0.004018719 0.015593592 0.00075175345 0.05828371 -0.010232838
0.033737846 0.017817367 0.0035640928 -0.013387541 0.016763093 0.025260523 0.059539426 0.030327128
0.01731942 0.0028834166 0.016393602 0.010993924 -0.012416735 0.006577805 -0.0031239183 -0.0010086998
0.0703693 -0.019266035 0.006866204 0.03790298 0.0046472345 0.0021610188 -0.00084055995 0.037159547
0.009171944 0.028814673 0.006237752 -0.014275888 0.016994836 0.021207929 -0.011330261 0.0034472249
-0.023963206 0.009845227 0.0017626025 0.01922085 0.0026830256 -0.0019388578 -0.010234953 -0.010908702
00000000: 990d 193d 7983 e33b 7c58 9c3c 3575 293c
00000010: a002 5d3c d2b1 e53c 49fa 93bc f7d3 78ba
00000020: 021c 56bc 1ef5 383c 133a 41bb 4ada ec3c
00000030: a78d 9abb 3c59 aabc 081b 7fbc 1f8a c0ba
00000040: 518b db3c 5fac ccbb 72d6 9abc 5c4e 9d3b
00000050: 9355 14bb 4069 f33c 248d 9bb9 f1ee 783c
00000060: 60af c23c c09b 17bc cc2f 7fbc 52bf 8fbb
00000070: 99cb 18bc c087 b6ba 6eb3 4cbc 3e4e 643c
00000080: 995f 433b b8a9 003c 0198 a93c ca6a babb
00000090: fd05 263b 17e4 eebb 1eae 223b 131c 563c
000000a0: b887 023d a1be 133c eb60 223d 7228 8d3c
000000b0: 63b5 debb 9a85 2c3c f540 f23a d07e 633c
000000c0: 4c33 db3b 7996 123c 752b b2ba 1b87 333c
000000d0: bf86 7fbb 0781 e9bb 94f7 593c 7e1d 3abb
000000e0: e87e d83b dc1f 0dbc 98a9 f93b 7446 ebbb
000000f0: ef04 6e3c 65a6 15bc e609 eebb a0b1 05bc
00000100: 5de9 a63a 6e03 373c 9e5b 1abc 19f6 7fbc
00000110: bd39 553c 0e82 a7bb 060f 033c 75f3 933c
00000120: 6f96 acbb da61 b939 bfea 57bc 8993 243a
00000130: fac7 d83a 0f44 033d b234 0db9 2248 5c3c
00000140: 4a2a 2d3c c0a4 c43c 5c56 603c 75af 833b
00000150: 447c 7f3c 5211 453a e6ba 6e3d a2a7 27bc
00000160: b230 0a3d baf5 913c 8e93 693b 6b57 5bbc
00000170: c152 893c 28ef ce3c 9ddf 733d 9970 f83c
00000180: 75e1 8d3c b4f7 3c3b e04b 863c dc1f 343c
00000190: 906f 4bbc a18a d73b a7ba 4cbb 5936 84ba
000001a0: c81d 903d ced3 9dbc e5fd e03b 2840 1b3d
000001b0: d447 983b e19f 0d3b 0659 5cba 9c34 183d
000001c0: ec45 163c c00c ec3c 0e66 cc3b 6ae5 69bc
000001d0: c138 8b3c 40bc ad3c 8fa2 39bc d6ea 613b
000001e0: 7c4e c4bc e04d 213c 2007 e73a 0b75 9d3c
000001f0: b3d5 2f3b 4621 feba 81b0 27bc 6aba 32bc

action_model._continuous_distribution.log_sigma f4 [1, 2]
-0.056561176 -0.10592315
00000000: b1ac 67bd 3dee d8bd

action_model._continuous_distribution.mu.weight f4 [2, 128]
-0.021628968 -0.04091171 -0.07185608 0.004497349 -0.06178124 -0.054880515 -0.015701152 -0.05713056
-0.034459252 0.027192587 -0.014112927 -0.0028415886 -0.059461415 -0.01405608 -0.049015198 -0.024208626
0.052971423 0.031653356 -0.015425644 0.0067755575 -0.0026960801 0.046716683 -0.019290064 0.04869927
0.07208056 -0.020653859 -0.03776596 -0.027975857 -0.04960129 -0.021551957 0.032202806 -0.01795166
0.01159102 -0.072657295 0.038770203 -0.011957613 -0.0018444594 -0.08814829 -0.03163535 0.035669513
0.014434544 -0.049384948 -0.0077159433 0.044970267 -0.0057041855 -0.028609779 -0.060083527 -0.017199418
-0.07097194 -0.0054288274 -0.04698796 -0.07242971 -0.011047628 -0.02727832 0.020369796 -0.00677554
-0.063470855 -0.025210483 -0.06766832 -0.015870212 0.03225197 0.027407998 -0.0021278644 -0.06551849
-0.04881835 0.0065039997 -0.020941138 -0.030454025 -0.06316326 -0.007911411 0.0064235283 0.035687633
-0.01118805 -0.014758745 0.014787978 -0.035521653 0.0012882942 -0.022278676 -0.081900366 0.026705315
0.041273624 0.04717167 0.04056171 -0.03889869 0.025870157 -0.05168894 0.0043284018 -0.013200107
0.06415705 -0.0578994 -0.036788385 -0.00087274145 -0.068179205 0.0634257 -0.009768877 0.01518696
0.032618575 -0.03649038 0.02695033 -0.07550814 -0.007511487 -0.03531168 -0.032641083 -0.03233203
0.010189462 -0.00793034 0.008725585 0.02893842 -0.058150936 0.0038694295 -0.0043491125 0.07156066
-0.018799627 0.07483789 -0.06454206 -0.009243762 0.02602992 0.019746171 -0.03349417 0.013681529
0.013040382 0.023819609 -0.03469233 0.026626945 -0.00055809563 -0.08103557 -0.04063311 -0.009061724
-0.005382446 -0.01744622 -0.04307386 -0.015512988 0.009031863 0.034750726 -0.0041330177 -3.2030825e-05
-0.04090789 -0.040832013 0.023595354 -0.0370317 0.06522392 -0.005159274 0.034056988 0.00918121
-0.018566554 0.0017908465 -0.015407647 -0.033652063 0.035556566 -0.090746656 0.00738096 0.028855521
-0.04875111 0.014487389 -0.032124396 0.015927568 0.03402817 0.015529353 -0.014186705 -0.03976681
0.0071381964 -0.0017896128 -0.021513626 0.03284551 0.01316608 0.032931957 -0.011295155 0.03998434
0.05899035 0.013948804 -0.0015234769 -0.01137538 -0.021671608 -0.02586786 -0.031411342 -0.035559133
-0.0028996747 -0.015947506 -0.029769396 0.013733773 0.021487577 -0.019727515 0.0070995037 0.023384878
0.01347145 -0.03739766 0.008798676 0.031210547 0.034699693 0.0058179093 -0.0018530652 -0.026521683
0.020969484 0.04745103 -0.017150542 0.015864156 -0.04788354 -0.06409064 0.04252595 0.044823617
0.036086086 0.015099944 -0.024293372 -0.03510546 -0.014672043 0.026523098 0.052180648 0.040491734
0.05323519 -0.038328197 -0.022820516 -0.024330348 0.014941734 -0.013339821 0.025308516 -0.022852814
-0.016381895 0.034366965 -0.016506055 -0.02514119 0.010922715 -0.02568139 0.01725532 0.043506093
-0.077214986 -0.011121225 -0.013409776 0.006170427 -0.018390175 -0.029073305 -0.04146593 0.017927038
-0.01239263 -0.0047530467 0.040524848 -0.032249816 -0.010480567 0.031953778 -0.0210063 0.057624836
0.043465376 -0.009989072 -0.017668543 -0.010265607 -0.0067127887 0.01651234 0.026100153 0.017150264
-0.012349346 -0.03689663 -0.031042809 -0.010513745 -0.047946725 0.008725552 -0.025768066 0.017406018
00000000: 3c2f b1bc 0a93 27bd 4829 93bd 7f5e 933b
00000010: 530e 7dbd 64ca 60bd b49f 80bc bc01 6abd
00000020: 2525 0dbd fdc2 de3c e839 67bc f239 3abb
00000030: d08d 73bd 794b 66bc 29c4 48bd 2b51 c6bc
00000040: 90f8 583d f3a6 013d d7bb 7cbc 7f05 de3b
00000050: b8b0 30bb fe59 3f3d 3206 9ebc e378 473d
00000060: f99e 933d 4832 a9bc 7bb0 1abd a02d e5bc
00000070: b92a 4bbd bb8d b0bc 17e7 033d 5c0f 93bc
00000080: 43e8 3d3c 59cd 94bd 81cd 1e3d dde9 43bc
00000090: cac1 f1ba 1787 b4bd 1294 01bd 321a 123d
000000a0: de7e 6c3c df47 4abd 06d6 fcbb be32 383d
000000b0: 2dea babb 0e5f eabc 251a 76bd cbe5 8cbc
000000c0: bd59 91bd 4ee4 b1bb 7276 40bd 0756 94bd
000000d0: 1c01 35bc c976 dfbc 8fde a63c 5905 debb
000000e0: 02fd 81bd 3786 cebc b095 8abd 3f02 82bc
000000f0: a41a 043d bd86 e03c a473 0bbb 8f2e 86bd
00000100: c0f5 47bd 811f d53b c08c abbc b87a f9bc
00000110: bd5b 81bd dd9e 01bc 767c d23b 322d 123d
00000120: 154e 37bc aace 71bc 4649 723c 277f 11bd
00000130: fbdb a83a c581 b6bc 61bb a7bd 1bc5 da3c
00000140: 880e 293d 1537 413d 0924 263d 3c54 1fbd
00000150: a7ed d33c c8b7 53bd 44d5 8d3b 4345 58bc
00000160: c564 833d ec27 6dbd 6baf 16bd b0c8 64ba
00000170: 8aa1 8bbd 55e5 813d a40d 20bc bad2 783c
00000180: 0e9b 053d f076 15bd f0c6 dc3c 03a4 9abd
00000190: ec22 f6bb fba2 10bd a8b2 05bd 976e 04bd
000001a0: b4f1 263c 42ee 01bc c2f5 0e3c 4410 ed3c
000001b0: ad2f 6ebd 4196 7d3b 0083 8ebb 658e 923d
000001c0: ad01 9abc 9c44 993d a12e 84bd 2673 17bc
000001d0: b33c d53c b9c2 a13c 2f31 09bd 7e28 603c
000001e0: 54a7 553c 5721 c33c 8b19 0ebd c020 da3c
000001f0: 2a4d 12ba faf5 a5bd e76e 26bd a077 14bc
00000200: 3b5f b0bb 60eb 8ebc 376e 30bd 302a 7ebc
00000210: 61fa 133c c756 0e3d 446e 87bb d658 06b8
00000220: 088f 27bd 783f 27bd 0b4b c13c 8dae 17bd
00000230: 1e94 853d 210f a9bb 577f 0b3d c96c 163c
00000240: e318 98bc d6ba ea3a 5b70 7cbc bfd6 09bd
00000250: c3a3 113d 62d9 b9bd fbdb f13b 6a62 ec3c
00000260: 3eaf 47bd 835c 6d3c df94 03bd 887a 823c
00000270: 1f61 0b3d d46e 7e3c 5b6f 68bc 86e2 22bd
00000280: 88e7 e93b 7191 eaba 583d b0bc 0389 063d
00000290: 8bb6 573c a9e3 063d 500f 39bc 9fc6 233d
000002a0: de9f 713d 8689 643c 67af c7ba cd5f 3abc
000002b0: a888 b1bc d6e8 d3bc 2ea9 00bd 74a6 11bd
000002c0: 7808 3ebb 58a4 82bc f3de f3bc 9e03 613c
000002d0: b706 b03c 999b a1bc f4a2 e83b a591 bf3c
000002e0: 5bb7 5c3c 4a2e 19bd 5228 103c 43ad ff3c
000002f0: 4421 0e3d 29a4 be3b 8de2 f2ba 0044 d9bc
00000300: 32c8 ab3c 035c 423d 4b7f 8cbc 8cf5 813c
00000310: 8821 44bd f441 83bd b12f 2e3d f898 373d
00000320: 01cf 133d c165 773c e502 c7bc beca 0fbd
00000330: 0263 70bc f846 d93c 60bb 553d a9da 253d
00000340: 250d 5a3d 07fe 1cbd 17f2 babc 7050 c7bc
00000350: 2dce 743c 448f 5abc ce53 cf3c d335 bbbc
00000360: 5333 86bc 60c4 0c3d b537 87bc e6f4 cdbc
00000370: 30f5 323c c761 d2bc 075b 8d3c 7233 323d
00000380: e422 9ebd cc35 36bc adb4 5bbc 4b31 ca3b
00000390: fea6 96bc 242b eebc 2ed8 29bd b9db 923c
000003a0: 750a 4bbc 72bf 9bbb 62fd 253d 6218 04bd
000003b0: afb6 2bbc f7e1 023d 6715 acbc 0508 6c3d
000003c0: c008 323d 34a9 23bc 9fbd 90bc 1431 28bc
000003d0: f4f6 dbbb e344 873c fdcf d53c b67e 8c3c
000003e0: e954 4abc ec20 17bd 7d4d febc d841 2cbc
000003f0: c963 44bd 9ef5 0e3c 8d17 d3bc 1197 8e3c

action_model._continuous_distribution.mu.bias f4 [2]
0.017582938 0.0012046538
00000000: 180a 903c 79e5 9d3a

action_model._discrete_distribution.branches.0.weight f4 [2, 128]
0.08256172 0.05481511 0.03996891 -0.041752703 -0.021862762 -0.058145262 0.012550191 -0.024968099
-0.012486049 0.046280157 -0.005847551 0.07592245 -0.0109061375 0.0094546005 -0.004954002 0.08068581
0.0308497 -0.032423686 0.010824554 0.020186255 0.008735603 -0.0017370513 -0.012863414 -0.013537676
0.006428601 -0.04559953 0.023307197 -0.03320819 -0.0019915374 -0.0027130237 -0.014149286 -0.07603759
-0.033678032 0.047107834 0.044645682 -0.019976772 -0.036515027 -0.004164297 -0.015413895 -0.010515387
0.052985303 0.09170057 0.07563569 -0.00026197731 0.002369248 -0.013622468 0.004425372 0.036391824
-0.025201777 -0.071100146 -0.01651836 -0.006653377 -0.018798487 0.005873237 -0.023717131 0.020830529
0.009162217 -0.0010785193 -0.021810357 0.010532229 0.012944715 -0.009906075 -0.03234739 0.1043129
0.08845257 0.002501172 -0.016339084 0.016381042 -0.039176207 -0.0068496987 -0.022069324 -0.005861496
-0.0050605154 0.00059591024 -0.03414471 -0.0053732265 -0.041669115 0.105053626 0.054076355 -0.007151847
-0.0065992353 0.048703834 -0.007149542 0.025890263 0.0098427795 0.025539402 0.13823111 0.0035461807
0.014835785 -0.07810107 0.04142682 -0.013067784 -0.041834023 0.005378529 0.16300726 0.08903756
0.0020803986 -0.0052894247 0.017367247 0.07354199 0.07883149 0.05149986 -0.013123233 -0.012998275
0.16673039 0.0007860871 0.07185288 0.09933859 0.084259346 -0.0034032296 -0.056417108 -0.004446745
0.0024952125 0.0053673293 -0.03491796 0.007740057 -0.0019987198 -0.0118346205 -0.013525207 0.01168057
0.009505255 -0.007031214 -0.012795546 0.010062655 -0.02202175 0.027067538 0.0045231404 -0.027220352
-0.08357733 -0.0809403 -0.057077926 0.044643536 0.006789227 0.05644031 -0.0069251163 0.033493623
-0.012497337 -0.040247273 -0.018606115 -0.09015453 0.015914839 0.014869588 0.014232199 -0.091022074
-0.013407429 0.02462353 -0.0025258083 -0.03373885 -0.0023397638 -0.012335078 -0.0015487336 0.014531477
-0.0015628044 0.032030042 -0.035135485 0.016541481 -0.0024175656 0.0045441305 0.0065308763 0.07627843
0.023256216 -0.07145494 -0.04045189 0.021156682 0.034920145 0.006569039 0.0046120724 0.015049506
-0.06039487 -0.11180788 -0.06172232 -0.011613468 0.004112994 0.02362103 0.0076019573 -0.053678524
0.037403222 0.07296922 -0.00804765 -0.0064767264 0.019446252 -0.017271396 0.00879099 -0.048997488
-0.017822422 0.0023296664 0.0098201195 -0.00034479235 0.0040284093 0.04031434 0.014256563 -0.10826947
-0.080264285 0.005352598 0.006313333 -0.012756826 0.030097965 0.019070517 0.018149767 0.009985447
0.0074859113 0.016204786 0.02403975 -0.010958525 0.047242943 -0.10157063 -0.054387715 -0.007970493
0.013913915 -0.033731226 0.008700366 -0.01106987 -0.005888428 -0.014528005 -0.13375662 -0.016148413
-0.010510253 0.088312924 -0.04704877 -0.0107812155 0.059507176 0.0005922254 -0.15329115 -0.091235116
-0.009233622 0.0026106185 -0.008468021 -0.06970887 -0.10404294 -0.060478304 0.017237054 -0.00083242846
-0.16368005 -0.007553981 -0.06608495 -0.112637945 -0.08775963 0.012706208 0.056308478 0.014372437
0.005993685 -0.014012702 0.020079015 -0.0008136076 -0.0029931003 0.027031725 0.01091837 -0.016777428
-0.014959876 0.009346973 0.020995667 -0.0073582334 0.033558417 -0.01488517 -0.0067658527 0.0016633967
00000000: 1e16 a93d cf85 603d 71b6 233d e204 2bbd
00000010: 8919 b3bc ba29 6ebd 519f 4d3c e689 ccbc
00000020: 4992 4cbc 4390 3d3d d09c bfbb 3b7d 9b3d
00000030: a8af 32bc 78e7 1a3c 2e55 a2bb 9a3e a53d
00000040: 83b8 fc3c b3ce 04bd 7859 313c a55d a53c
00000050: c61f 0f3c c5ad e3ba 12c1 52bc 21cd 5dbc
00000060: 04a7 d23b 93c6 3abd bcee be3c 5005 08bd
00000070: 7484 02bb fccc 31bb 68d2 67bc 99b9 9bbd
00000080: faf1 09bd 25f4 403d 64de 363d 54a6 a3bc
00000090: c890 15bd a874 88bb 908a 7cbc bb48 2cbc
000000a0: 1e07 593d 82cd bb3d e2e6 9a3d 005a 89b9
000000b0: 6345 1b3b c630 5fbc b602 913b 980f 153d
000000c0: f573 cebc f49c 91bd 8351 87bc 9204 dabb
000000d0: 49ff 99bc 4874 c03b 6e4a c2bc c9a4 aa3c
000000e0: 201d 163c 1a5d 8dba a2ab b2bc 5f8f 2c3c
000000f0: 1216 543c 174d 22bc b27e 04bd 00a2 d53d
00000100: 9f26 b53d b4ea 233b 8bd9 85bc 8931 863c
00000110: 3b77 20bd 7073 e0bb baca b4bc cb11 c0bb
00000120: aed2 a5bb dc36 1c3a 53db 0bbd e411 b0bb
00000130: 3cad 2abd 5b26 d73d 2b7f 5d3d 0a5a eabb
00000140: 663e d8bb ac7d 473d b546 eabb d117 d43c
00000150: 9c43 213c 0238 d13c 758c 0d3e 0a67 683b
00000160: cb11 733c 74f3 9fbd 2baf 293d 421a 56bc
00000170: 275a 2bbd 5f3e b03b 60eb 263e 5359 b63d
00000180: 4c57 083b e952 adbb c245 8e3c 2f9d 963d
00000190: 6772 a13d 84f1 523d d402 57bc b8f6 54bc
000001a0: 5fbb 2a3e 6a11 4e3a 9a27 933d 0872 cb3d
000001b0: 2a90 ac3d b808 5fbb a015 67bd 00b6 91bb
000001c0: b886 233b 6ce0 af3b 2306 0fbd 4ea0 fd3b
000001d0: f4fc 02bb ffe5 41bc d498 5dbc dd5f 3f3c
000001e0: eebb 1b3c 1966 e6bb 69a4 51bc d6dd 243c
000001f0: f566 b4bc bebc dd3c da36 943b 37fd debc
00000200: 972a abbd 07c4 a5bd 8bca 69bd 24dc 363d
00000210: 2a78 de3b f42d 673d 16ec e2bb 9c30 093d
00000220: a1c1 4cbc 53da 24bd da6b 98bc f0a2 b8bd
00000230: d65f 823c 939f 733c 2b2e 693c c869 babd
00000240: d5aa 5bbc 49b7 c93c 0888 25bb c031 0abd
00000250: b956 19bb 1119 4abc e0fe caba 6f15 6e3c
00000260: 04d7 ccba ef31 033d 3aea 0fbd 0082 873c
00000270: 0570 1ebb eee6 943b f600 d63b de37 9c3d
00000280: d283 be3c f856 92bd e2b0 25bd c750 ad3c
00000290: 6d08 0f3d 1841 d73b de20 973b 3492 763c
000002a0: 9c60 77bd 88fb e4bd 8bd0 7cbd 6a46 3ebc
000002b0: 4bc6 863b e480 c13c d719 f93b 03de 5bbd
000002c0: 1f34 193d e370 953d 4ada 03bc b83a d4bb
000002d0: bf4d 9f3c be7c 8dbc 1608 103c 97b1 48bd
000002e0: 5400 92bc 51ad 183b 91e4 203c 3fc5 b4b9
000002f0: bf00 843b a620 253d 5c94 693c 62bc ddbd
00000300: 9a61 a4bd d964 af3b 13e0 ce3b 0202 51bc
00000310: 0290 f63c c639 9c3c d2ae 943c 009a 233c
00000320: 604c f53b e6bf 843c 03ef c43c 638b 33bc
00000330: d181 413d 4304 d0bd a7c5 5ebd ac96 02bc
00000340: 30f7 633c c129 0abd fb8b 0e3c 665e 35bc
00000350: b7f3 c0bb df06 6ebc 7ff7 08be ad49 84bc
00000360: 3233 2cbc 68dd b43d 36b6 40bd b2a3 30bc
00000370: ccbd 733d 933f 1b3a 5bf8 1cbe 7ad9 babd
00000380: 9e48 17bc e916 2b3b 74bd 0abc 86c3 8ebd
00000390: 7714 d5bd 19b8 77bd b934 8d3c 5437 5aba
000003a0: be9b 27be 6387 f7bb 8c57 87bd b9ae e6bd
000003b0: 52bb b3bd b32d 503c b8a3 663d 5f7a 6b3c
000003c0: ad66 c43b 8895 65bc bf7c a43c 4848 55ba
000003d0: e427 44bb a371 dd3c f7e2 323c d170 89bc
000003e0: 451a 75bc 0c24 193c 1bff ab3c 561d f1bb
000003f0: 8d74 093d eee0 73bc 16b4 ddbb 5506 da3a

action_model._discrete_distribution.branches.0.bias f4 [2]
0.002184665 -0.0021846653
00000000: 992c 0f3b 9a2c 0fbb

exp_avg f4 [128, 8]
-4.744906e-05 0.00035583822 -0.00019096429 -0.00091793435 0.0 0.00049363775 -0.00015909459 5.9926188e-05
0.00044070615 0.0002815647 0.00015282928 -0.00014711049 0.0 0.00041653222 -7.051853e-05 -7.7419e-05
9.533693e-06 -0.0002451364 0.00016071428 0.0012380502 0.0 -0.00028316703 0.00018408707 -4.095128e-05
-0.000256369 6.339467e-05 0.00024231787 -0.0021515212 0.0 9.534821e-05 -0.00019421302 -9.320039e-05
0.001450895 0.00024874182 1.8963286e-05 0.0019270421 0.0 -7.272335e-06 1.9734029e-05 4.094139e-05
-3.942868e-06 -3.9690567e-05 -7.670194e-05 0.0011732156 0.0 -0.00013902782 0.00012534198 -2.6321775e-06
0.00092132593 0.00024072861 -4.8669543e-05 0.0015983707 0.0 0.0001778055 2.2702812e-05 8.147525e-05
8.253601e-05 1.9238985e-05 -1.0720388e-05 0.00024315351 0.0 2.4779815e-06 -2.0529967e-06 3.463662e-05
0.0011682472 0.00026443225 0.00013213576 0.00048335432 0.0 0.00049568096 -6.5793874e-06 -0.00011596852
0.00063021074 0.00015699111 8.7178596e-05 0.0011425657 0.0 0.00016214943 1.4246868e-05 4.938604e-05
0.00074994424 -2.692803e-05 -0.00017281953 0.0014643684 0.0 -0.00032377074 5.685105e-05 9.890566e-05
-0.00016958329 -7.3240364e-05 1.510371e-05 -3.8584305e-05 0.0 -0.00015305147 2.4913734e-05 -2.8735516e-05
0.001304144 -0.00013637786 1.7577946e-05 0.0047711916 0.0 -0.00020067845 0.00030298263 0.00022788781
0.00016199652 5.212604e-05 -3.334185e-05 0.00030645527 0.0 -1.671312e-05 -7.0230853e-06 3.778975e-05
0.00031649097 0.0002702204 -0.00046265638 0.0016044646 0.0 0.00022131251 3.4111472e-05 0.0002287462
-0.0004539154 0.00019847618 0.00019443323 -0.0023560335 0.0 0.00035198996 -0.00024539162 -9.231612e-05
-0.0006041961 -0.00034289734 -0.0003257038 -0.001194472 0.0 -0.00027861077 -1.30206245e-05 -6.13433e-06
0.0011334073 0.00037421833 -6.680037e-05 0.0016610182 0.0 0.00024135833 -3.4119956e-05 0.0001501707
0.00043726308 -0.00020895766 -7.1993825e-05 0.0026225583 0.0 -0.00024556895 0.00031708725 0.00010743739
-0.00012936493 -0.0001438313 3.4907e-05 0.00077099155 0.0 -0.0001436049 0.00013406729 -5.595079e-05
-6.441107e-05 -5.0836247e-06 -1.03279135e-05 1.3313849e-05 0.0 -2.3788125e-05 -3.656065e-06 1.127284e-05
5.161454e-05 -4.134136e-06 4.9238142e-06 0.0002165205 0.0 -1.7919547e-05 1.9657165e-05 2.4336136e-05
0.00056292664 -3.19582e-05 0.00018011163 0.00012922434 0.0 0.0001690124 4.733498e-05 -0.00016245681
-0.00014647223 -1.5946347e-05 -3.1774132e-05 -2.9787669e-05 0.0 5.8453966e-06 2.0762924e-05 -2.3185385e-05
0.0009571979 -0.00016003827 0.0003283832 0.00293273 0.0 -0.00025795074 0.00024858388 5.8492624e-05
2.6220716e-05 7.126047e-06 -3.495136e-06 -1.9438869e-05 0.0 1.351555e-05 -9.770645e-06 1.7519737e-05
-2.5227624e-05 -1.3902017e-05 1.9446972e-05 3.6763315e-05 0.0 -1.1572208e-05 8.903566e-06 1.4763588e-06
0.00016955518 5.2136533e-05 0.0004429821 -0.0007507269 0.0 0.00020006004 -6.8795795e-05 -0.0002300157
0.00072647445 -4.7750607e-05 0.00016617561 0.0028917596 0.0 -5.891124e-05 0.00029215319 -1.7112949e-05
-0.00054621627 -0.00020019598 -7.8088764e-05 -0.000601589 0.0 -0.0001994863 2.8916944e-05 -3.7506987e-05
-0.0006421307 -0.000107826265 -0.00016186564 -0.0011643661 0.0 -0.00018237723 7.534758e-06 -9.478466e-05
-0.00071075174 -0.00019034038 6.4787455e-05 -0.0021222942 0.0 -0.00021803202 -0.00013748984 -6.833961e-05
00000000: 0a04 47b8 cc8f ba39 963d 48b9 88a1 70ba
00000010: 0000 0000 7867 013a a1d2 26b9 4159 7b38
00000020: 940e e739 f99e 9339 cc40 2039 ac41 1ab9
00000030: 0000 0000 0262 da39 59e3 93b8 025c a2b8
00000040: e6f2 1f37 a785 80b9 6985 2839 1246 a23a
00000050: 0000 0000 0976 94b9 7f07 4139 1ac3 2bb8
00000060: 4469 86b9 c1f2 8438 b516 7e39 8900 0dbb
00000070: 0000 0000 aef5 c738 a9a5 4bb9 9474 c3b8
00000080: f52b be3a 9069 8239 5913 9f37 ce94 fc3a
00000090: 0000 0000 e204 f4b6 818a a537 7cb8 2b38
000000a0: fa4c 84b6 6c79 26b8 0adb a0b8 95c6 993a
000000b0: 0000 0000 ffc7 11b9 3b6e 0339 77a4 30b6
000000c0: 2385 713a 186c 7c39 8622 4cb8 6c80 d13a
000000d0: 0000 0000 4d71 3a39 eb71 be37 b1dd aa38
000000e0: 2f17 ad38 6863 a137 b7db 33b7 06f7 7e39
000000f0: 0000 0000 664b 2636 37c6 09b6 ca46 1138
00000100: df1f 993a 7fa3 8a39 ec8d 0a39 b86a fd39
00000110: 0000 0000 96f0 013a 82c4 dcb6 2034 f3b8
00000120: ba34 253a fb9d 2439 a7d3 b638 25c2 953a
00000130: 0000 0000 a806 2a39 d505 6f37 db23 4f38
00000140: e897 443a 81e3 e1b7 e436 35b9 0df0 bf3a
00000150: 0000 0000 c6bf a9b9 5a73 6e38 926b cf38
00000160: 2bd2 31b9 9f98 99b8 f165 7d37 95d5 21b8
00000170: 0000 0000 717c 20b9 d6fd d037 0d0d f1b7
00000180: d0ef aa3a a700 0fb9 5a74 9337 a857 9c3b
00000190: 0000 0000 366d 52b9 a4d9 9e39 2bf5 6e39
000001a0: 9cdd 2939 e9a1 5a38 8ad8 0bb8 bbab a039
000001b0: 0000 0000 2733 8cb7 d8a7 ebb6 6f80 1e38
000001c0: b3ee a539 5eac 8d39 b090 f2b9 e64c d23a
000001d0: 0000 0000 2010 6839 ea12 0f38 97db 6f39
000001e0: 7efb edb9 0b1e 5039 c6e0 4b39 af67 1abb
000001f0: 0000 0000 4b8b b839 e8a7 80b9 d799 c1b8
00000200: ea62 1eba e7c6 b3b9 39c3 aab9 d48f 9cba
00000210: 0000 0000 8112 92b9 2873 5ab7 7ed5 cdb6
00000220: d78e 943a bc32 c439 2d17 8cb8 86b6 d93a
00000230: 0000 0000 2215 7d39 061c 0fb8 2477 1d39
00000240: 7540 e539 a51b 5bb9 64fb 96b8 3adf 2b3b
00000250: 0000 0000 b5bf 80b9 bb3e a639 0250 e138
00000260: 22a6 07b9 6cd1 16b9 1b69 1238 5e1c 4a3a
00000270: 0000 0000 a694 16b9 6a94 0c39 b4ac 6ab8
00000280: 6e14 87b8 0194 aab6 0d46 2db7 8c5e 5f37
00000290: 0000 0000 9c8c c7b7 b85a 75b6 7b20 3d37
000002a0: b17c 5838 f5b7 8ab6 3e37 a536 c709 6339
000002b0: 0000 0000 ef51 96b7 71e5 a437 7425 cc37
000002c0: 5e91 133a db0a 06b8 59dc 3c39 6580 0739
000002d0: 0000 0000 ec38 3139 8c89 4638 2b59 2ab9
000002e0: 5796 19b9 85c4 85b7 3745 05b8 88e0 f9b7
000002f0: 0000 0000 9323 c436 0a2c ae37 3c7e c2b7
00000300: 77ec 7a3a f2cf 27b9 d92a ac39 0b33 403b
00000310: 0000 0000 903d 87b9 5d54 8239 fa55 7538
00000320: 8ff4 db37 471c ef36 fb8d 6ab6 a710 a3b7
00000330: 0000 0000 d8c0 6237 9aec 23b7 59f7 9237
00000340: e99f d3b7 b53c 69b7 0e22 a337 4f32 1a38
00000350: 0000 0000 4126 42b7 8660 1537 4d27 c635
00000360: 9fca 3139 2dad 5a38 0d40 e839 6ecc 44ba
00000370: 0000 0000 35c7 5139 7646 90b8 5f30 71b9
00000380: e070 3e3a d347 48b8 6d3f 2e39 ad83 3d3b
00000390: 0000 0000 7617 77b8 232c 9939 c78d 8fb7
000003a0: f42f 0fba b3eb 51b9 96c3 a3b8 f4b3 1dba
000003b0: 0000 0000 322d 51b9 aa92 f237 d250 1db8
000003c0: a954 28ba c920 e2b8 7aba 29b9 a59d 98ba
000003d0: 0000 0000 843c 3fb9 14d3 fc36 20c7 c6b8
000003e0: be51 3aba 1b96 47b9 80de 8738 3016 0bbb
000003f0: 0000 0000 869f 64b9 262b 10b9 8c51 8fb8

exp_avg_sq f4 [128, 8]
7.3148394e-06 6.234877e-07 4.8079903e-07 4.0077528e-05 0.0 6.96597e-07 1.6616055e-07 1.3166368e-07
1.7910323e-05 8.592563e-07 9.873851e-07 7.230561e-05 0.0 1.324701e-06 2.973135e-07 2.1723065e-07
9.513356e-07 1.7417234e-07 1.4238323e-07 1.220616e-05 0.0 2.8006966e-07 5.5576514e-08 2.2109692e-08
4.844774e-06 2.9247985e-07 3.431756e-07 1.5792746e-05 0.0 3.396744e-07 4.5536233e-08 7.8248334e-08
1.5969306e-05 2.4262343e-07 4.477698e-07 1.8682815e-05 0.0 4.111456e-07 6.499351e-08 9.630038e-09
4.325852e-06 3.5508884e-07 3.3801186e-07 1.6718559e-05 0.0 3.7572408e-07 5.3143975e-08 8.898065e-08
7.6204497e-06 2.3176139e-07 2.4263898e-07 1.247619e-05 0.0 3.2942955e-07 3.5106996e-08 2.9405157e-08
9.176966e-08 6.468713e-09 7.067933e-09 4.1178663e-07 0.0 9.140819e-09 2.0202862e-09 1.4926378e-09
6.099533e-05 3.986768e-06 3.221407e-06 0.00019824672 0.0 3.395536e-06 3.5081425e-07 7.95582e-07
5.0516383e-06 9.697741e-08 2.080259e-07 9.674002e-06 0.0 2.5861135e-07 3.2743365e-08 4.8884193e-08
2.4337342e-06 1.4439546e-07 3.3935612e-07 2.963337e-05 0.0 4.7140207e-07 1.8953976e-07 6.849483e-08
4.1402066e-07 1.0185024e-07 4.4464954e-08 1.5614553e-06 0.0 5.1911297e-08 1.3582466e-09 1.6599888e-08
2.3986381e-06 2.1596661e-07 2.8781594e-07 4.8124966e-05 0.0 8.2797914e-07 3.2939258e-07 3.68031e-08
1.17849225e-07 1.5092606e-08 1.2332161e-08 7.347259e-07 0.0 1.6600033e-08 3.5255143e-09 3.0649654e-09
1.0272946e-05 7.9727727e-07 6.282298e-07 4.238456e-05 0.0 7.926311e-07 1.3948389e-07 1.6403074e-07
4.647832e-06 3.5938467e-07 3.813182e-07 2.2941289e-05 0.0 4.4632634e-07 8.320409e-08 1.00106796e-07
1.277312e-05 4.8977626e-07 7.1246063e-07 4.961278e-05 0.0 9.101281e-07 2.0509005e-07 1.445703e-07
2.4096309e-05 6.642578e-07 7.95919e-07 3.7357862e-05 0.0 1.0582282e-06 1.0014985e-07 1.3748877e-07
5.8435608e-06 4.650555e-07 4.0357503e-07 3.5687633e-05 0.0 6.3937085e-07 1.4270117e-07 8.410742e-08
1.2435619e-06 2.3022565e-07 1.3083074e-07 1.1152829e-05 0.0 2.5985452e-07 3.025303e-08 4.478437e-08
5.943138e-08 1.3573508e-09 3.012556e-09 1.6058883e-07 0.0 3.2420022e-09 1.1914718e-09 4.4164947e-10
6.1347436e-08 7.12435e-09 7.099025e-09 4.5826368e-07 0.0 1.0670868e-08 2.5178082e-09 1.3728537e-09
2.2154145e-05 7.3945506e-07 1.0450174e-06 4.234211e-05 0.0 9.214903e-07 7.6474365e-08 2.2471274e-07
4.5364885e-07 4.188499e-08 3.8840984e-08 1.1070343e-06 0.0 5.6678378e-08 3.4460843e-09 9.552619e-09
3.8534067e-06 3.9457777e-07 2.8929628e-07 2.4249917e-05 0.0 4.3372873e-07 9.267681e-08 7.414752e-08
3.8384243e-08 4.2827812e-09 3.0088194e-09 1.3517261e-07 0.0 3.874677e-09 6.5183003e-10 8.7180324e-10
7.149833e-09 8.100753e-10 1.2700869e-09 9.830149e-08 0.0 2.4586913e-09 8.0828305e-10 4.9605348e-11
2.0443777e-05 7.998332e-07 1.0084758e-06 4.64859e-05 0.0 9.0319116e-07 1.1381737e-07 2.1716201e-07
1.1988301e-05 1.5316061e-06 1.0333365e-06 7.588586e-05 0.0 1.2924893e-06 1.9408081e-07 3.0392852e-07
4.953497e-06 3.7087696e-07 3.635406e-07 1.6289508e-05 0.0 3.595192e-07 4.4424024e-08 9.2200985e-08
1.0024067e-05 9.081794e-07 8.5925996e-07 4.41573e-05 0.0 9.2330987e-07 1.2633895e-07 2.3492592e-07
1.135607e-05 7.2167245e-07 6.2917644e-07 4.974491e-05 0.0 8.962891e-07 1.8869224e-07 1.5214069e-07
00000000: fe71 f536 c05d 2735 4210 0135 eb18 2838
00000010: 0000 0000 c8fd 3a35 dd69 3234 705f 0d34
00000020: 203e 9637 a5a7 6635 4b86 8435 c7a2 9738
00000030: 0000 0000 61cc b135 759e 9f34 e83f 6934
00000040: 495f 7f35 2104 3b34 01e2 1834 0fc9 4c37
00000050: 0000 0000 7b5c 9634 06b3 6e33 baeb bd32
00000060: 4b90 a236 2006 9d34 b23d b834 aa7a 8437
00000070: 0000 0000 7e5c b634 9e93 4333 7a09 a833
00000080: d3f5 8537 e941 8234 0365 f034 0ab9 9c37
00000090: 0000 0000 6cbb dc34 8f92 8b33 5b71 2532
000000a0: c926 9136 0aa3 be34 ff77 b534 d53e 8c37
000000b0: 0000 0000 20b7 c934 6b40 6433 a115 bf33
000000c0: 2ab3 ff36 16da 7834 0c44 8234 d450 5137
000000d0: 0000 0000 74dc b034 8dc8 1633 a096 fc32
000000e0: e712 c533 6743 de31 32da f231 8613 dd34
000000f0: 0000 0000 bf09 1d32 40d5 0a31 8625 cd30
00000100: 3dd5 7f38 14c6 8536 5a2f 5836 73e0 4f39
00000110: 0000 0000 ddde 6336 8b57 bc34 fb8f 5535
00000120: 3e81 a936 e541 d033 b95d 5f34 864d 2237
00000130: 0000 0000 46d7 8a34 b6a1 0c33 bdf4 5133
00000140: 3c53 2336 1f0b 1b34 c030 b634 2d95 f837
00000150: 0000 0000 0215 fd34 4b84 4b34 6e17 9333
00000160: 9146 de34 c3b8 da33 bcf9 3e33 3293 d135
00000170: 0000 0000 13f5 5e33 0ead ba30 8a97 8e32
00000180: 4af8 2036 73e4 6734 1f85 9a34 cad9 4938
00000190: 0000 0000 4b42 5e35 5fd7 b034 7011 1e33
000001a0: 4c14 fd33 fea4 8132 6bdd 5332 fb39 4535
000001b0: 0000 0000 dc97 8e32 8145 7231 719f 5231
000001c0: f859 2c37 7a04 5635 a0a3 2835 13c6 3138
000001d0: 0000 0000 32c5 5435 0ac5 1534 6d20 3034
000001e0: 93f4 9b36 74f1 c034 f9b7 cc34 0b72 c037
000001f0: 0000 0000 a09e ef34 efad b233 4bfa d633
00000200: 224c 5637 2b79 0335 ec3f 3f35 5117 5038
00000210: 0000 0000 874f 7435 b936 5c34 2e3b 1b34
00000220: 6e22 ca37 734f 3235 23a7 5535 b3b0 1c38
00000230: 0000 0000 7208 8e35 f611 d733 a0a0 1334
00000240: ce13 c436 beac f934 eeaa d834 4eaf 1538
00000250: 0000 0000 3ba1 2b35 6639 1934 8b9e b433
00000260: 76e8 a635 f233 7734 7b7a 0c34 091d 3b37
00000270: 0000 0000 2282 8b34 8fef 0133 f058 4033
00000280: 7e41 7f33 898d ba30 7205 4f31 526e 2c34
00000290: 0000 0000 e8c9 5e31 30c1 a330 a3cc f22f
000002a0: 1cbe 8333 72ca f431 afeb f331 4807 f634
000002b0: 0000 0000 f952 3732 c005 2d31 ffae bc30
000002c0: aad7 b937 f77e 4635 8642 8c35 7f98 3138
000002d0: 0000 0000 555c 7735 3a3a a433 9148 7134
000002e0: 068d f334 09e5 3333 1dd2 2633 6995 9435
000002f0: 0000 0000 896e 7333 28d0 6c31 dd1c 2432
00000300: 834c 8136 5bd6 d334 9450 9b34 4d6c cb37
00000310: 0000 0000 39db e834 9d05 c733 083b 9f33
00000320: ecdb 2433 be27 9331 b6c3 4e31 f723 1134
00000330: 0000 0000 0522 8531 762c 3330 b3a3 6f30
00000340: 99aa f531 fbab 5e30 368f ae30 d119 d333
00000350: 0000 0000 c1f5 2831 dd2d 5e30 a82a 5a2e
00000360: ad7e ab37 1eb4 5635 f75a 8735 dbf9 4238
00000370: 0000 0000 d372 7235 c36b f433 0a2d 6934
00000380: 5c21 4937 9691 cd35 2cb1 8a35 e924 9f38
00000390: 0000 0000 9879 ad35 8764 5034 9e2b a334
000003a0: 3736 a636 f11c c734 a42c c334 74a5 8837
000003b0: 0000 0000 f103 c134 bbcc 3e33 0700 c633
000003c0: 0a2d 2837 9dc9 7335 e5a7 6635 8a35 3938
000003d0: 0000 0000 5fd9 7735 c9a7 0734 f23f 7c34
000003e0: f385 3e37 f4b8 4135 ade4 2835 31a5 5038
000003f0: 0000 0000 8598 7035 549b 4a34 1d5c 2334

exp_avg f4 [128]
7.552403e-05 8.525611e-05 2.6047008e-05 -0.00017245684 0.0001290876 5.9689373e-05 0.00016762239 1.634511e-05
0.00014238889 0.000116959214 5.188911e-05 -1.6351978e-05 0.0001841851 2.5764264e-05 0.00018791843 -0.000114776514
-0.00015061056 0.0001794074 0.00016106038 4.780601e-05 -1.1425674e-05 1.7284816e-05 -5.6980727e-05 -1.4130118e-06
0.0001229832 -3.1053685e-06 -3.0457744e-07 -0.00011448269 0.00021255131 -8.842315e-05 -6.615665e-05 -0.00023354674
-1.1565545e-05 4.027712e-06 0.00025666173 0.00020821595 -1.8466708e-05 4.3571404e-06 -1.0229818e-06 0.00017699144
4.4531986e-05 -7.455067e-05 0.00015674692 2.7424501e-05 -6.8315526e-06 8.797441e-06 -3.5612559e-06 -0.00013610543
-3.3632143e-05 -4.0666357e-05 -0.00018185866 -1.2891211e-06 -1.1528577e-05 -2.7748774e-05 3.1517833e-05 -1.3296693e-05
-1.4675658e-06 -7.701297e-05 7.1527606e-06 -3.1836314e-06 -0.0001321645 8.137058e-06 -0.0001063232 0.00023785126
-8.850214e-05 -2.1755916e-06 5.1821527e-05 9.97568e-07 0.00015115671 -0.00018020897 -3.3579818e-05 0.00031036773
1.0140742e-05 2.7834803e-05 -1.1228235e-06 8.7792105e-05 -8.8187735e-05 8.348631e-06 -0.0001151199 2.4777495e-05
1.5838008e-05 -5.5136796e-05 -2.4088815e-06 1.6756014e-05 4.5495646e-05 0.0001961226 -0.00012282602 -0.00011533853
-1.475231e-05 -0.00027678252 0.0001090931 1.2100271e-05 8.477039e-05 -1.3206926e-06 0.00011688151 -3.5721052e-06
-1.7953766e-08 2.6889933e-05 -0.00011046288 0.00015478695 -0.00015410378 -0.00040919342 0.00014573894 -0.00021884368
5.270847e-05 -2.5441466e-05 -0.00016619817 2.5516347e-05 8.319361e-06 -0.000119968405 -8.337763e-05 4.15979e-05
-0.00019153168 -0.00011390363 2.2918506e-05 -1.9494375e-05 -1.1747595e-05 -8.646644e-05 -4.0051204e-05 -1.2307612e-05
2.5312185e-05 2.0663934e-05 -2.2162945e-05 -0.00032609783 -1.045434e-06 9.40598e-06 5.3294374e-05 -3.3830675e-05
00000000: a862 9e38 87cb b238 867f da37 88d5 34b9
00000010: b05b 0739 fa5a 7a38 cbc3 2f39 db1c 8937
00000020: 3a4e 1539 0048 f538 82a3 5938 9b2b 89b7
00000030: d021 4139 5620 d837 f80b 4539 2cb4 f0b8
00000040: 37ed 1db9 4f1f 3c39 51e2 2839 5083 4838
00000050: e5b0 3fb7 dcfe 9037 97fe 6eb8 b7a6 bdb5
00000060: 0df5 0039 d365 50b6 ce84 a3b4 6d16 f0b8
00000070: 4fe0 5e39 d16f b9b8 95bd 8ab8 3ae4 74b9
00000080: a309 42b7 c825 8736 8e90 8639 8b54 5a39
00000090: f4e8 9ab7 8d33 9236 634d 89b5 c796 3939
000000a0: dbc7 3a38 1658 9cb8 6e5c 2439 ab0d e637
000000b0: 973a e5b6 b998 1337 e9fd 6eb6 86b7 0eb9
000000c0: 3d10 0db8 2b91 2ab8 50b1 3eb9 dd05 adb5
000000d0: dc6a 41b7 0ac6 e8b7 0432 0438 dd14 5fb7
000000e0: 2df9 c4b5 0682 a1b8 bf01 f036 5fa6 55b6
000000f0: a395 0ab9 6684 0837 d5f9 deb8 b667 7939
00000100: 3a9a b9b8 6100 12b6 f15a 5938 2de4 8535
00000110: d27f 1e39 7af6 3cb9 0ed8 0cb8 dab8 a239
00000120: 2822 2a37 c97e e937 ecb3 96b5 071d b838
00000130: 6ef1 b8b8 1911 0c37 876c f1b8 44d9 cf37
00000140: dddb 8437 af42 67b8 45a8 21b6 448f 8c37
00000150: 94d2 3e38 42a6 4d39 dcca 00b9 e7e1 f1b8
00000160: b080 77b7 1f1d 91b9 e9c8 e438 4502 4b37
00000170: c2c6 b138 a742 b1b5 481e f538 4db8 6fb6
00000180: c038 9ab2 b191 e137 4fa8 e7b8 4e4e 2239
00000190: eb96 21b9 0389 d6b9 80d1 1839 6779 65b9
000001a0: 4a13 5d38 226b d5b7 7b45 2eb9 f00b d637
000001b0: 6293 0b37 8c97 fbb8 06db aeb8 6879 2e38
000001c0: e5d5 48b9 8cdf eeb8 1e41 c037 da87 a3b7
000001d0: 8917 45b7 5155 b5b8 a7fc 27b8 cb7c 4eb7
000001e0: 8155 d437 7657 ad37 90ea b9b7 1cf8 aab9
000001f0: d750 8cb5 60ce 1d37 6688 5f38 69e5 0db8
