results/Lava/Lava/Lava-499995.pt (torch, 454121 bytes, 42 tensors)

network_body._body_endoder.seq_layers.0.weight f4 [128, 8]
0	0x3f154cc1	0.5832024
1	0x3d698677	0.057013
2	0xbebd6350	-0.36989832
3	0x3e109705	0.1412011
4	0xbeabb827	-0.33538935
5	0x3de3bf7e	0.111205086
6	0x3e9186f7	0.28423283
7	0xbe85e641	-0.26152232
8	0x3f1d248f	0.6138391
9	0x3f7b5203	0.98172015
10	0xbf240ed2	-0.64085114
11	0x3db6565e	0.08903192
12	0xbe35ca64	-0.17752987
13	0x3e3f5dd2	0.18688133
14	0x3d0190ff	0.03163242
15	0xbecebd6a	-0.40378886
16	0xbf3ddad8	-0.74162054
17	0x3e947f90	0.29003572
18	0xbefcc9b1	-0.49372628
19	0x3e15974e	0.146085
20	0xbd8faa27	-0.07014876
21	0xbf596370	-0.84917355
22	0xbeae7af9	-0.34078196
23	0xbeb46358	-0.35232043
24	0x3f0f0773	0.5587074
25	0xbda5d5f6	-0.080974504
26	0xbda53bb1	-0.08068026
27	0xbdd2f713	-0.10301032
28	0x3d7ef3a1	0.06224406
29	0xbf1817ab	-0.59411114
30	0x3ed2e05c	0.41186798
31	0xbf0b2eaa	-0.5436808
32	0x3f3c6876	0.73596895
33	0x3e6cb181	0.23114587
34	0x3b51b482	0.003199846
35	0xbf1564e0	-0.5835705
36	0x3ea02b81	0.3128319
37	0xbc8a190e	-0.01685765
38	0xbd5130e0	-0.051072
39	0xbf57d7c1	-0.8431359
40	0xbe95516b	-0.2916368
41	0x3ea9612e	0.33081955
42	0xbc74dcbb	-0.014945204
43	0x3f50dbe1	0.8158551
44	0x3f44e23a	0.76907694
45	0xbee348e6	-0.44391555
46	0xbeed53f0	-0.46353102
47	0x3e8943cf	0.26809546
48	0x3e8da1fc	0.27662647
49	0x3ec5370d	0.38518563
50	0x3b039363	0.0020076863
51	0xbe6911c3	-0.22760682
52	0x3ec74078	0.38916373
53	0x3f0099a9	0.50234467
54	0x3eb75baf	0.35812137
55	0xbf4e6fce	-0.8063935
56	0xbb788918	-0.003792351
57	0xbe696295	-0.22791512
58	0xbf01becc	-0.5068176
59	0xbea58bd9	-0.32333258
60	0x3f6a6e4a	0.9157454
61	0xbe5a17a9	-0.21298088
62	0x3e7acc73	0.24492054
63	0xbe704756	-0.23464713
64	0x3e357ca4	0.17723328
65	0x3ed10b77	0.4082906
66	0xbe3ba4d9	-0.18324603
67	0xbc145a68	-0.009054758
68	0xbebfc761	-0.37456802
69	0x3ea41f95	0.32055345
70	0xbe9bdff9	-0.30444315
71	0x3e2a8e68	0.16655886
72	0x3e95848b	0.29202685
73	0xbf00e45e	-0.5034846
74	0x3e9fba02	0.311966
75	0xbe2e3bb2	-0.1701496
76	0xbeb9a12f	-0.36255786
77	0x3edafeb8	0.4277246
78	0xbe6bfb60	-0.2304511
79	0x3ebf136c	0.37319505
80	0xbea1dbb8	-0.31612945
81	0xbeb30734	-0.34966433
82	0x3f1507c8	0.58215
83	0x3d861538	0.06547016
84	0xbda2a8c5	-0.079423465
85	0x3d12bc4b	0.0358241
86	0x3e32d0d8	0.1746248
87	0x3f2ac0ed	0.6670063
88	0xbdf14dc3	-0.1178241
89	0x3f19fad2	0.60148346
90	0xbe839dd3	-0.25706348
91	0xbe1796a4	-0.14803559
92	0x3f061412	0.52374375
93	0x3de6369c	0.11240885
94	0xbf00ba3b	-0.50284165
95	0x3e8c2163	0.27369222
96	0xbf43adc8	-0.76437044
97	0x3e020a10	0.12699151
98	0xbe491bbe	-0.19639489
99	0x3e6ac37f	0.22926138
100	0xbe97d811	-0.29657033
101	0x3e0cf026	0.13763484
102	0x3ec60f76	0.3868367
103	0xbe3c7e4e	-0.18407556
104	0xbed8fad9	-0.42378882
105	0x3e98b5ea	0.2982629
106	0xbec729ad	-0.38898984
107	0xbe232146	-0.15930662
108	0x3e4f7a8f	0.20261596
109	0xbdc6019b	-0.09668275
110	0xbe89da7f	-0.26924512
111	0xbec57ff0	-0.3857417
112	0xbea11457	-0.3146083
113	0x3e8f85c4	0.28031743
114	0xbd703ceb	-0.058651846
115	0x3f1b1eed	0.60594064
116	0xbe4a8b8c	-0.19779795
117	0xbe04794a	-0.12936893
118	0x3ec9a1e4	0.39381325
119	0x3f8f5448	1.1197596
120	0x3edc548f	0.43033263
121	0xbce8bbfa	-0.028409947
122	0xbe8e21c3	-0.27760133
123	0x3bb74071	0.005592399
124	0xbd74153f	-0.059590574
125	0xbe1c96b4	-0.15291864
126	0xbe9f1af1	-0.31075242
127	0x3e9ee939	0.3103731
128	0xbe763b59	-0.24046077
129	0xbf1a34f9	-0.6023708
130	0x3f09a6be	0.53770053
131	0x3e843510	0.25821733
132	0x3e78e534	0.24306184
133	0x3f03b407	0.51446575
134	0x3de5031f	0.11182236
135	0xbe368a84	-0.17826277
136	0x3e9d9660	0.3077879
137	0x3e3806e3	0.17971377
138	0xbe2822b2	-0.16419485
139	0xbe967e5f	-0.29393288
140	0x3e03c4f3	0.12868099
141	0x3f10b066	0.5651916
142	0xbe07dfd5	-0.13268979
143	0xbe44627e	-0.19178197
144	0xbe9755e3	-0.29557714
145	0x3f4b9483	0.79523486
146	0xbe990e3c	-0.29893672
147	0x3e7d244f	0.24720882
148	0xbed57ad9	-0.41695288
149	0xbe900836	-0.28131264
150	0x3eb5d973	0.35517463
151	0xbf01d106	-0.5070957
152	0xbea7179a	-0.32635194
153	0x3e33b86a	0.17550817
154	0xbde97ec6	-0.11401133
155	0x3d540c59	0.05176959
156	0xbd80321e	-0.06259559
157	0xbf2c68a5	-0.67347175
158	0xbf2e786f	-0.6815252
159	0x3f1acac2	0.60465634
160	0x3e6a25e3	0.22866015
161	0xbeabd591	-0.33561376
162	0x3dbe62bb	0.09296175
163	0xbec7ac12	-0.38998467
164	0x3e1fb127	0.15594922
165	0x3e5f1305	0.21784599
166	0x3df27dd6	0.118404076
167	0x3ed81582	0.4220391
168	0xbed7d61c	-0.4215554
169	0x3d76e918	0.06028089
170	0x3efc9d35	0.4933869
171	0xbdef7bff	-0.11693572
172	0xbe9497f0	-0.2902217
173	0xbe1ee9d1	-0.15518881
174	0xbebaf33d	-0.365137
175	0xbebb7d94	-0.36619246
176	0x3ead392e	0.33832687
177	0xbe4734eb	-0.1945378
178	0xbef1463e	-0.47123903
179	0xbe0e27ea	-0.13882414
180	0xbe7b394e	-0.24533579
181	0x3cb39aa6	0.021924328
182	0xbf344523	-0.70417994
183	0x3eff52d1	0.4986787
184	0x3d0d4775	0.034491975
185	0x3d325184	0.04353477
186	0xbe08325e	-0.13300464
187	0xbe2a2fed	-0.16619845
188	0x3d888050	0.06665099
189	0xbee99246	-0.4561941
190	0xbdf164f2	-0.11786832
191	0x3df7ca3f	0.12099122
192	0xbdea737f	-0.114478104
193	0xbd2e33b6	-0.042529784
194	0xbe08077f	-0.1328411
195	0x3ec9ff15	0.39452425
196	0x3ec3eed1	0.3826814
197	0xbe0a8643	-0.1352778
198	0x3dba04f0	0.09082973
199	0xbe64b292	-0.22333744
200	0x3e1432bf	0.14472483
201	0x3ea18298	0.31544948
202	0x3e385cdb	0.18004172
203	0xbf064466	-0.5244812
204	0x3e3d8d01	0.1851082
205	0xbe9e91db	-0.30970654
206	0x3e93406c	0.28760087
207	0xbe46af8d	-0.19402905
208	0xbf65d5eb	-0.8977954
209	0x3f09b83e	0.53796756
210	0xbd35cde1	-0.044385795
211	0xbdf10614	-0.117687374
212	0xbeb02863	-0.34405813
213	0x3dc04b68	0.093893826
214	0x3eca93e5	0.3956596
215	0xbed2e2ae	-0.41188568
216	0x3e9ec1c7	0.31007215
217	0x3c84767c	0.016169779
218	0x3d710b79	0.05884883
219	0x3bf0d9c9	0.0073501808
220	0xbeff4d10	-0.49863482
221	0xbf2c1b91	-0.67229563
222	0x3e7295d7	0.23689972
223	0x3e08de2e	0.13366005
224	0xbeec961e	-0.4620828
225	0x3e43e49a	0.19130173
226	0x3db350e1	0.08755661
227	0x3ec442df	0.3833227
228	0xbe6684a8	-0.22511542
229	0xbe017921	-0.12643863
230	0xbf070ac9	-0.5275083
231	0x3eeba095	0.46020952
232	0xbe70de27	-0.23522244
233	0xbbcd339d	-0.0062622563
234	0xbf3f9999	-0.74843746
235	0x3f120a8a	0.5704733
236	0x3e9aba41	0.30220225
237	0xbe9552c5	-0.2916471
238	0xbe4b39b1	-0.19846226
239	0x3ebcb69d	0.36858073
240	0xbd930d16	-0.0718023
241	0x3e14ebd9	0.14543094
242	0x3bf5230e	0.0074809855
243	0x3e74abb3	0.23893623
244	0xbd98fd88	-0.07470232
245	0xbe31ad0b	-0.17351167
246	0xbe7c4f9e	-0.24639747
247	0x3f3000b4	0.6875107
248	0x3f076876	0.5289377
249	0xbe488fb7	-0.19586073
250	0x3edd8e7b	0.43272766
251	0x3e86b26b	0.26307997
252	0x3dbfd92f	0.09367596
253	0x3dfa4ce7	0.12221699
254	0x3eb5d626	0.35514945
255	0xbef807e4	-0.4844352

network_body._body_endoder.seq_layers.0.bias f4 [128]
0	0x3c0b7dc1	0.008513869
1	0x3bfba42b	0.0076794825
2	0x3b33a6c5	0.0027412635
3	0x3c8463fa	0.016160954
4	0x3ca44ab0	0.020055145
5	0xbb7bc028	-0.0038414095
6	0xbcca4ec1	-0.024695756
7	0x3c99c6ea	0.018771607
8	0x3c5c05c7	0.013429112
9	0x3c40fc6e	0.011778934
10	0x3cbdafd3	0.023155129
11	0x3c33c5f1	0.010972486
12	0x3ccf944d	0.02533927
13	0x3cc71c5b	0.024305513
14	0x3c552aec	0.013010722
15	0x3b00baf1	0.0019642676
16	0x3c26e815	0.010187169
17	0x3d09bc90	0.033627093
18	0xbc6d740d	-0.014493001
19	0x3c9b959f	0.018992243
20	0xbcd0526b	-0.025429925
21	0x3c1932fd	0.009350535
22	0x3aca2d24	0.001542483
23	0x3c15c937	0.009142212
24	0xbc621f56	-0.013801416
25	0x3c707e2b	0.014678518
26	0xbcf50dd1	-0.029913815
27	0xbc50e32e	-0.012749476
28	0xbbd230e2	-0.0064145187
29	0xbb0731d2	-0.002062906
30	0x3c007e41	0.007842601
31	0x3afc569a	0.0019251883
32	0xbc9d35e5	-0.019190738
33	0x3b6e1d4a	0.0036333376
34	0x3c734337	0.014847568
35	0x3cf3f855	0.0297815
36	0x3ab1b068	0.0013556601
37	0x3c77000b	0.015075694
38	0x3a841323	0.0010076504
39	0xbbc2b2bc	-0.005941717
40	0xbbf9edb3	-0.007627213
41	0x3c875301	0.016519072
42	0xbb984e3d	-0.0046479986
43	0x3c1bb8e8	0.009504534
44	0x3c8d0665	0.017214963
45	0x3c308900	0.010774851
46	0x3cafe4ca	0.0214714
47	0x3b9cf23e	0.0047896197
48	0xbc90c309	-0.017671125
49	0x3d791773	0.06081338
50	0x3c95028b	0.01818969
51	0xbc4280a3	-0.01187149
52	0x3d09e1de	0.03366267
53	0xbb20bc69	-0.0024526364
54	0xbd199fdf	-0.03750598
55	0x3ca4609f	0.020065604
56	0x3cc521ac	0.024063908
57	0xbc17c9cc	-0.009264421
58	0x3c5dea7c	0.013544675
59	0x3b801e33	0.00390985
60	0x3b0d5c7f	0.0021570025
61	0x3c666cf1	0.01406406
62	0x3c6c1980	0.014410377
63	0xbc4c0828	-0.0124531165
64	0x3c9339cb	0.017971894
65	0x3cda0bc9	0.026616948
66	0xbccdac17	-0.025106473
67	0x3d3e3efe	0.046446793
68	0x3c4da736	0.012552073
69	0x3947e198	0.00019062159
70	0x3bc74143	0.006080778
71	0x3d5572b7	0.052111354
72	0x3cb22239	0.021744834
73	0x3c6c1f7e	0.014411805
74	0xbc6171dd	-0.013760057
75	0x3c3a1bf1	0.011359201
76	0x3c83601c	0.01603704
77	0xbd20135d	-0.039080966
78	0x3d8cb6f8	0.06870836
79	0x3c75ebd0	0.015009835
80	0xb98bee86	-0.0002668986
81	0x3d0cd0b5	0.034378726
82	0x3cc742ee	0.024323907
83	0x3bd4c990	0.0064937547
84	0xbc732bbc	-0.01484197
85	0x3c76f4d9	0.015073025
86	0xbb86636f	-0.004101209
87	0x3cc74a39	0.024327384
88	0xbbe33135	-0.006933356
89	0xbc5c054e	-0.013428999
90	0x3cdfdc70	0.027326792
91	0x3d8cedee	0.06881319
92	0x3d024387	0.03180268
93	0x3d206fe7	0.03916922
94	0x3d68e4ed	0.056858946
95	0x3cd5af74	0.02608464
96	0x3c76bd62	0.015059801
97	0xbba9c489	-0.0051808995
98	0x3d0fda3b	0.03512023
99	0x3c7eb17b	0.015545244
100	0xbc9c72c3	-0.019097691
101	0xb97ca4af	-0.00024093942
102	0xbbf09f89	-0.007343237
103	0xbbb8177c	-0.005618034
104	0x3d07d72e	0.033164196
105	0x3c487b69	0.0122364545
106	0x3bc9603b	0.006145505
107	0xbae64f65	-0.0017571269
108	0x3db29a1e	0.08720802
109	0x3c2f065c	0.010682669
110	0x3c0603af	0.008179589
111	0x3b20c724	0.002453276
112	0x3bb49a63	0.0055115684
113	0xbd11959d	-0.035543073
114	0xbd372cb3	-0.044720363
115	0x3e024c0c	0.12724322
116	0x3d21e4a2	0.039524682
117	0x3a1f2b60	0.0006071832
118	0x3d16b747	0.03679588
119	0xbc5863f6	-0.013207426
120	0xbaaea115	-0.0013323153
121	0xbc366a53	-0.011133748
122	0xbc7cbd75	-0.015426029
123	0x3ccd53ed	0.025064433
124	0x3d41635e	0.047213905
125	0x3d17f1a6	0.03709569
126	0xbb8e5acd	-0.0043443204
127	0xbc4cbe01	-0.012496472

network_body._body_endoder.seq_layers.2.weight f4 [128, 128]
0	0xbda75216	-0.081699535
1	0x3d63ea34	0.055643275
2	0xbd678ec2	-0.05653263
3	0x3d3d35d5	0.046193916
4	0xbb058652	-0.002037425
5	0x3d1dbad1	0.03850824
6	0xbe4b09ef	-0.19828008
7	0x3c4453c8	0.011982866
8	0xbdb41a62	-0.087940946
9	0xbb9ce0aa	-0.004787524
10	0x3d7f7979	0.062371705
11	0xbbe2abb7	-0.0069174427
12	0x3da6c5a4	0.08143166
13	0xbdaf6c11	-0.08565534
14	0x3d7ee156	0.062226616
15	0xbd0814d8	-0.033223003
16	0xbcccfccf	-0.025022892
17	0x3c6ed4bb	0.014577086
18	0xbb88e7cd	-0.0041780234
19	0x3d18e8fd	0.03733157
20	0x3d6036a1	0.0547396
21	0xbdb5c329	-0.088751145
22	0xbd966a33	-0.07344475
23	0xbe0edca8	-0.13951361
24	0xbdc46d95	-0.095912136
25	0xbd337583	-0.04381324
26	0x3e176865	0.14785917
27	0x3d24c871	0.04023022
28	0xbb0e2684	-0.0021690438
29	0x3e0aabbe	0.13542077
30	0x3d4cd3c8	0.050006658
31	0xbdc0a949	-0.094072886
32	0xbe247360	-0.16059637
33	0xbe1d3a19	-0.15354194
34	0x3d7e74ec	0.062123224
35	0xbe508427	-0.20362912
36	0xbcfd321b	-0.030907681
37	0x3dbd63a2	0.09247519
38	0x3dd45247	0.10367256
39	0x3da87c6a	0.08226855
40	0xbd490c54	-0.049084023
41	0x3d8f6d69	0.0700329
42	0xbe09244c	-0.13392752
43	0x3bc07cf6	0.0058742715
44	0x3d6f963b	0.05849288
45	0x3d54dd75	0.05196901
46	0xbd96f75f	-0.07371401
47	0xbd707f67	-0.05871525
48	0x3ca39492	0.019968305
49	0xbcaf00cb	-0.021362683
50	0xbdeb6304	-0.11493495
51	0xbd869824	-0.06571987
52	0xbbf54fb1	-0.0074863066
53	0xbd933077	-0.07186978
54	0xbcde40ac	-0.027130447
55	0x3d5d78de	0.054070346
56	0x3da66128	0.08124
57	0xbd8f08be	-0.06984089
58	0x3de3e4da	0.11127634
59	0x3d162830	0.03665942
60	0x3b82701b	0.003980649
61	0xbd11b94a	-0.035577096
62	0x3d803e17	0.06261843
63	0xbe2335ac	-0.15938443
64	0x3df93613	0.12168517
65	0x3dc8d2cb	0.098058306
66	0xbdd5f7da	-0.104476646
67	0xbe200db9	-0.15630235
68	0xbd337a78	-0.043817967
69	0xbda53c09	-0.080680914
70	0xbdbb9883	-0.09159949
71	0x3dc02571	0.093821414
72	0xbcac51fa	-0.021035183
73	0x3d2ec34c	0.04266672
74	0xbda2c397	-0.07947462
75	0x3e084e62	0.1331115
76	0x3df8de21	0.12151743
77	0x3d97841e	0.07398246
78	0xbd19ccb2	-0.03754873
79	0xbd223e64	-0.03961028
80	0xbcb20d7b	-0.021734944
81	0xbc1fabb3	-0.009745526
82	0x3e1f8b06	0.15580377
83	0xbdc7080c	-0.09718332
84	0xbd9432b4	-0.07236233
85	0xbb1d3701	-0.0023989084
86	0x3d65943b	0.056049567
87	0x3dead7ee	0.114669666
88	0x3e20d065	0.15704496
89	0x3e27727a	0.16352263
90	0xbd261cec	-0.040554926
91	0xbdfd3490	-0.12363541
92	0xbe3135ef	-0.1730573
93	0x3e1c9f7d	0.15295215
94	0x3e1ca9d7	0.15299164
95	0xbd95144e	-0.072792634
96	0xbdc4020f	-0.09570705
97	0xbd39cf52	-0.04536373
98	0xbd5d465b	-0.054022174
99	0xbe0112a9	-0.12604775
100	0x3c83edcd	0.016104603
101	0xbd6c2fde	-0.057662837
102	0x3d2d3205	0.04228403
103	0xbde0ff56	-0.109862015
104	0x3d91c9ff	0.07118606
105	0xbd1ca629	-0.0382444
106	0x3dc2c34c	0.09509906
107	0xbce1a999	-0.02754669
108	0x3da51233	0.08060112
109	0xbbea3f63	-0.0071486696
110	0xbd467759	-0.048453663
111	0xbdcf41d2	-0.10119976
112	0xbdb4d210	-0.08829129
113	0xbe11f9bd	-0.14255424
114	0xbdb6d54d	-0.08927403
115	0xbcaa8546	-0.020815503
116	0x3df824e9	0.12116415
117	0x3cbbdc3b	0.022932163
118	0x3d2c8972	0.042123266
119	0x3ddd5807	0.108078055
120	0x3dc32fc5	0.09530596
121	0x3d42d3a2	0.04756511
122	0x3d969320	0.073522806
123	0x3e036039	0.12829675
124	0xbd35861d	-0.044317354
125	0x3dacce88	0.0843783
126	0x3e06557c	0.13118547
127	0x3ddab490	0.10678971
128	0xbdd204e2	-0.102548376
129	0x3d1c56e8	0.038168818
130	0xbd58094a	-0.052743234
131	0xbcf9a1a6	-0.030472588
132	0x3df0e6bd	0.1176276
133	0xbc5c7366	-0.0134552475
134	0x3d0692c0	0.032854795
135	0x3d423cc6	0.04742124
136	0xbda459cd	-0.08024941
137	0xbd94033b	-0.07227179
138	0x3e4d0683	0.20022015
139	0x3db87b99	0.090079494
140	0x3c2ed0af	0.010669871
141	0x3d71caf5	0.059031446
142	0x3dd6a011	0.10479749
143	0x3dae1446	0.084999606
144	0xbdc2f53d	-0.09519432
145	0xbd090beb	-0.03345863
146	0x3c51484c	0.012773585
147	0x3dfb2940	0.12263727
148	0x3d2b9a8f	0.041895445
149	0xbbfd3b9c	-0.0077280533
150	0x3da77c23	0.08177974
151	0x3db018c6	0.08598475
152	0x3d411f69	0.047149096
153	0xbd72766d	-0.05919497
154	0xbd2ff83e	-0.04296135
155	0xbd179d65	-0.037015337
156	0xbca4404d	-0.020050192
157	0xbcffa88f	-0.031208305
158	0x3d5ab27c	0.053392872
159	0x3d1b16d3	0.037863564
160	0xbdf8db50	-0.121512055
161	0x3d165f46	0.036711954
162	0xbcb73889	-0.022365825
163	0xbdf28fdb	-0.118438445
164	0xbe8097de	-0.25115865
165	0x3c6b39a6	0.014357006
166	0x3c441140	0.011967003
167	0x3a02d380	0.00049906224
168	0x3d6bf255	0.057604153
169	0xbd7da4ce	-0.061924748
170	0x3c3f47ac	0.011674803
171	0xbd821e1c	-0.06353399
172	0xbd051c32	-0.032497592
173	0x3bbb5d97	0.005717944
174	0x3d39748e	0.04527717
175	0xbd57332a	-0.05253903
176	0xbd14d352	-0.036334343
177	0xbc92a19a	-0.017899323
178	0x3cd52407	0.026018156
179	0x3d574872	0.052559324
180	0x3d7b2cad	0.061321903
181	0xbe0b11e3	-0.13581042
182	0xbd97bc54	-0.074089676
183	0x3de218be	0.110398754
184	0xbb18cb6d	-0.002331461
185	0xbc04328b	-0.008068691
186	0xbc774acd	-0.0150935175
187	0xbdf5ea8b	-0.12007626
188	0x3e04f695	0.12984689
189	0x3cd2a495	0.025713244
190	0x3dd722e8	0.10504705
191	0x3cffbb60	0.031217277
192	0xbd724c95	-0.059155066
193	0xbcd20edb	-0.02564185
194	0xbe0eef80	-0.1395855
195	0xbd93c5ea	-0.072154835
196	0xbd9d4abd	-0.07680271
197	0x3cadf351	0.021234186
198	0x3ccc3e85	0.024932155
199	0xbc76c8c5	-0.015062516
200	0x3cfe8876	0.031070929
201	0x3c359ea8	0.01108519
202	0x3e418bc6	0.18900976
203	0xbd314646	-0.04327991
204	0xbd8a10a4	-0.06741455
205	0xbdf83b66	-0.12120704
206	0xbd9c02d2	-0.076177254
207	0x3e307089	0.17230429
208	0x3d534414	0.051578596
209	0x3cbdc75e	0.023166355
210	0x3d3c9683	0.046041977
211	0xbd685118	-0.056717962
212	0xbc52e69f	-0.012872367
213	0x3d07505f	0.033035632
214	0x3e1e3d2e	0.15453026
215	0xbd91f5c5	-0.07126955
216	0x3e01daf8	0.12681186
217	0xbc831ff5	-0.01600645
218	0x3dd3e3a6	0.10346155
219	0xbd6783fb	-0.05652235
220	0xbcfce660	-0.03087157
221	0x3dc066ef	0.09394633
222	0xbe0a9692	-0.13534
223	0xbe0a6c68	-0.13517916
224	0x3d554f95	0.05207785
225	0xbbc239e7	-0.0059273127
226	0xbbbc2e9e	-0.005742862
227	0xbc8dda32	-0.017315958
228	0xbda3fc50	-0.08007109
229	0x3d1d1f75	0.038360078
230	0xbdae9335	-0.08524171
231	0xbe0863eb	-0.13319366
232	0xbd228738	-0.039679736
233	0xbe10d38b	-0.14143197
234	0x3da8bb27	0.082388215
235	0x3def6c58	0.11690587
236	0x3d9a6cba	0.07540269
237	0x3dec175c	0.11527893
238	0x3d7f1dca	0.06228427
239	0x3c8a871d	0.01691013
240	0x3c9ab413	0.018884694
241	0x3deb8be5	0.11501292
242	0xbd390f92	-0.045180865
243	0x3d9ecb37	0.07753604
244	0x3c1261d1	0.008934454
245	0x3d8e6145	0.069521464
246	0xbde7cce7	-0.11318379
247	0x3cb4033d	0.0219742
248	0xbe630a2b	-0.22171848
249	0xbd982857	-0.07429569
250	0x3d7d7029	0.061874542
251	0xbb885ef4	-0.00416171
252	0xbd9801d5	-0.074222244
253	0x3ab7c3b2	0.0014020114
254	0xbd1d323d	-0.03837799
255	0xbd33f595	-0.043935377

network_body._body_endoder.seq_layers.2.bias f4 [128]
0	0x3c55eaa7	0.013056434
1	0xbb8873ad	-0.0041641803
2	0x3c6a1fa3	0.014289769
3	0x3c148d04	0.009066824
4	0x3c59494e	0.013262106
5	0x3c8d1055	0.017219702
6	0xbc508dc7	-0.012729115
7	0xbb951014	-0.004549036
8	0xbc21d1ef	-0.009876712
9	0x3c0b2897	0.008493564
10	0xbb848337	-0.0040439623
11	0x3c2583ae	0.010102196
12	0xbba0af73	-0.0049037277
13	0xbc80e88f	-0.015735893
14	0xbc48e37c	-0.012261268
15	0x3b8db972	0.0043250853
16	0x3c9044ea	0.017610986
17	0xbc0974ff	-0.00838971
18	0xbc4a040f	-0.012330069
19	0x3ada06c2	0.0016634094
20	0x39a17849	0.00030797932
21	0x3ccafb2d	0.024777973
22	0xbc538266	-0.012909507
23	0x3c26a254	0.010170538
24	0x3c91fc10	0.017820388
25	0xbba0d074	-0.004907662
26	0xbc6736b9	-0.014112168
27	0x39a06fef	0.00030600975
28	0xbbca5cfb	-0.006175635
29	0xbadbea34	-0.0016778172
30	0xbc3173f7	-0.010830871
31	0x3b5dadb6	0.0033825464
32	0x3a52b30a	0.0008037543
33	0x3bb81c65	0.0056186193
34	0x3c6d44a7	0.0144817
35	0xba598e71	-0.00082991185
36	0x3b994edb	0.0046785898
37	0xbb4bea57	-0.003111502
38	0x3bf9bf74	0.0076217
39	0x3c2378e1	0.00997755
40	0x3cef6b27	0.029225899
41	0x3c5d9aab	0.013525645
42	0x3c4de4a8	0.012566723
43	0x3c2a6e47	0.010402269
44	0xbbb8f3a6	-0.0056442795
45	0x3c1abd7c	0.009444591
46	0xbb9be511	-0.0047575315
47	0x3b2fadfc	0.0026806584
48	0x3c1f3952	0.009718256
49	0xba5c7f0b	-0.0008411265
50	0x3ac7a52a	0.0015231718
51	0x3c6e1077	0.014530293
52	0xbbe4bc6b	-0.006980469
53	0xbbc91340	-0.006136328
54	0x3c0b29b2	0.008493828
55	0xb911264b	-0.00013842543
56	0x3bd1f632	0.0064075226
57	0xbbb6d0aa	-0.005579074
58	0x3c251193	0.010074991
59	0xbb67f04d	-0.0035391033
60	0x3c30a27d	0.010780928
61	0xbbe41c4a	-0.00696138
62	0xbc0b3bcf	-0.008498146
63	0xbb0f6e9d	-0.0021886
64	0x3c04645c	0.008080568
65	0x3c1157f0	0.008871064
66	0xbc378ceb	-0.011203031
67	0xbc1bd627	-0.009511507
68	0x3c656c67	0.014002896
69	0xbc515cb8	-0.0127784535
70	0x3c03b8e7	0.00803969
71	0x3c6e9234	0.014561225
72	0xbaedfb7e	-0.0018156616
73	0x3b69562c	0.003560434
74	0xbc2aebeb	-0.010432224
75	0x39f9a087	0.00047612583
76	0x3b17f61c	0.0023187464
77	0x3c262390	0.010140315
78	0x3b23e4ed	0.0025008277
79	0x3c3adf1e	0.011405734
80	0x3c00c2a1	0.007858903
81	0x3c7a7325	0.015286242
82	0x3bf77396	0.0075516207
83	0x3bd00be1	0.0063490723
84	0x3c2be091	0.0104905525
85	0x3b917e0d	0.0044400753
86	0x3d00cf77	0.031447854
87	0xbc03e218	-0.00804951
88	0x3cd27173	0.025688862
89	0x3c73f660	0.014890283
90	0xbb8344ff	-0.0040060277
91	0xbb9e709c	-0.0048352014
92	0x3c919a97	0.01777391
93	0x3c9511f0	0.01819703
94	0x3d0945e5	0.033513922
95	0x3c5a05c7	0.0133070415
96	0x3c5fc017	0.013656638
97	0x3bca7a07	0.0061790976
98	0x3c1b3e65	0.009475325
99	0x3c1ef334	0.009701539
100	0xbbc22157	-0.0059243846
101	0x3a4afea9	0.0007743636
102	0x3aeabf54	0.0017909803
103	0x3b24f949	0.0025173
104	0x3d3780f5	0.044800717
105	0xbc67bc60	-0.014144033
106	0x3b8aef37	0.0042399424
107	0x3c96d6cf	0.018412976
108	0x3c03a677	0.008035294
109	0x3b581eac	0.0032977266
110	0x3a713354	0.0009201069
111	0x3d014956	0.03156408
112	0x3c48e061	0.012260527
113	0x3ca6952e	0.020334806
114	0x3ba44fa3	0.0050143762
115	0xbc2aa198	-0.0104145035
116	0x3c0ddb2b	0.008658211
117	0x3c94267f	0.018084763
118	0xbc0571ee	-0.008144839
119	0x3b11725d	0.002219341
120	0xbc846d66	-0.016165446
121	0x3bbe604b	0.005809819
122	0x3b0d95b6	0.0021604127
123	0x3c48ad3a	0.012248332
124	0x39c71477	0.00037971485
125	0x3b92ce45	0.0044801557
126	0xbc1caf66	-0.009563303
127	0xbbc9dd91	-0.006160446

action_model._continuous_distribution.log_sigma f4 [1, 2]
0	0xbca8d742	-0.020610455
1	0xbd4de39f	-0.050265905

action_model._continuous_distribution.mu.weight f4 [2, 128]
0	0xbc4c0b12	-0.012453811
1	0xbcfd8904	-0.030949123
2	0xbd731f16	-0.059355818
3	0x3a32c80d	0.0006819971
4	0xbd43706a	-0.04771463
5	0xbd01bfe4	-0.03167714
6	0xbc7f076e	-0.015565736
7	0xbd3a8a9f	-0.045542356
8	0xbd066d0a	-0.03281883
9	0x3c7d6590	0.015466109
10	0xbbbc7bb0	-0.0057520494
11	0x3b2d52a1	0.0026446956
12	0xbd2f7dae	-0.042844467
13	0xbc3f54b1	-0.011677907
14	0xbd090cfd	-0.033459652
15	0xbc884e07	-0.016638769
16	0x3d19210c	0.03738503
17	0x3d18371a	0.037161924
18	0xbc80ba04	-0.0157137
19	0x3bb1a7cd	0.0054216147
20	0xbb6cd892	-0.0036139828
21	0x3d197092	0.03746087
22	0xbb4f3d80	-0.003162235
23	0x3d2424e3	0.04007424
24	0x3d7f0b6c	0.062266752
25	0xbc9ecac4	-0.019383796
26	0xbd07079d	-0.032966245
27	0xbcab54aa	-0.020914394
28	0xbd3c1947	-0.045922544
29	0xbc1c64d5	-0.009545525
30	0x3cf892bf	0.030343411
31	0xbc035ea5	-0.0080181705
32	0x3bd53dae	0.006507597
33	0xbd681d4c	-0.056668565
34	0x3d016459	0.03158984
35	0xbc4759f9	-0.012167447
36	0xbac28cf4	-0.0014843033
37	0xbd8df745	-0.069319285
38	0xbcc6b885	-0.024257908
39	0x3cf0831d	0.029359395
40	0x3c291710	0.01032044
41	0xbd2cc73e	-0.0421822
42	0x39d9ece3	0.0004156596
43	0x3d214c03	0.03937913
44	0x3a2479cd	0.0006274253
45	0xbc9b0ecc	-0.018927954
46	0xbd22d543	-0.039754163
47	0xbb959ac8	-0.0045655705
48	0xbd64289c	-0.05570279
49	0x3b95094b	0.004548227
50	0xbd2599dd	-0.04042994
51	0xbd70f172	-0.05882401
52	0xbb1b569b	-0.0023702744
53	0xbca77c05	-0.02044488
54	0x3c866367	0.01640482
55	0xbb4439f1	-0.0029941762
56	0xbd6fae47	-0.058515813
57	0xbcc83f8e	-0.024444368
58	0xbd3c344f	-0.045948323
59	0xbc8a5bfa	-0.016889561
60	0x3ce4f83d	0.0279504
61	0x3d0afbdf	0.03393161
62	0x3b5b1b97	0.0033433193
63	0xbd6f21df	-0.05838191
64	0xbd2125d0	-0.0393427
65	0x39290c3f	0.00016121658
66	0xbc5120a7	-0.012764133
67	0xbce92f88	-0.028465047
68	0xbd487867	-0.04894295
69	0x3b27effc	0.002562522
70	0x3b84eef8	0.0040568076
71	0x3cfe1d5f	0.031019865
72	0xbc33467e	-0.0109421
73	0xbc496e16	-0.012294313
74	0x3c9c2901	0.019062521
75	0xbcf03dcf	-0.029326348
76	0xbb1e4e19	-0.0024155437
77	0xbc53b4ec	-0.012921553
78	0xbd8624ad	-0.06549964
79	0x3ca65c1b	0.020307591
80	0x3d1737c9	0.036918435
81	0x3d0a44e3	0.0337571
82	0x3d050964	0.03247966
83	0xbd117629	-0.035513077
84	0x3cad0d52	0.021124516
85	0xbd1bd930	-0.038048923
86	0x3c0b2718	0.008493207
87	0xbc3f7cbd	-0.011687455
88	0x3d515d8d	0.051114608
89	0xbd438887	-0.047737624
90	0xbcc838f3	-0.024441218
91	0xbac0905c	-0.001469146
92	0xbd572ef6	-0.05253502
93	0x3d5ca786	0.0538707
94	0xbb1b1ec0	-0.0023669451
95	0x3ca47641	0.02007592
96	0x3cc31b35	0.023816684
97	0xbcef6ffb	-0.029228201
98	0x3ca59719	0.02021365
99	0xbd84398d	-0.064562894
100	0xbaccfb5d	-0.0015638877
101	0xbcc467f9	-0.02397536
102	0xbcbf5fc0	-0.023361087
103	0xbccbd54b	-0.02488198
104	0x3c7d4995	0.015459438
105	0xbc2452a0	-0.010029465
106	0x3bd71b06	0.0065645007
107	0x3d1079bf	0.035272356
108	0xbd4cf2e8	-0.05003634
109	0x3b48bd4d	0.003063041
110	0xbc026072	-0.007957565
111	0x3d7fcd50	0.06245166
112	0xbc5dc7f5	-0.013536443
113	0x3d7cb48c	0.06169562
114	0xbd44c427	-0.048038628
115	0xbc2a4466	-0.010392284
116	0x3c89d651	0.016825827
117	0x3c6f3159	0.014599168
118	0xbd047fdf	-0.03234851
119	0x3c4d4423	0.012528452
120	0x3c9c42e4	0.019074865
121	0x3c9f9256	0.019478958
122	0xbceaf59c	-0.028681569
123	0x3ca7af88	0.020469442
124	0xbb44ed77	-0.0030048767
125	0xbd812c34	-0.06307259
126	0xbd085330	-0.03328246
127	0xbc13fd8f	-0.009032621
128	0xbc204be8	-0.009783722
129	0xbc6bb705	-0.014386897
130	0xbd2d1d29	-0.042264137
131	0xbc6fb295	-0.01462998
132	0x3bf25f0a	0.0073965834
133	0x3cb24334	0.02176056
134	0xbb16ad74	-0.002299157
135	0x3b1f9043	0.0024347461
136	0xbd2858cb	-0.041100305
137	0xbd0d4f15	-0.034499247
138	0x3c97c708	0.018527523
139	0xbce4624e	-0.027878907
140	0x3d6a7145	0.05723693
141	0xbb144e74	-0.002262977
142	0x3cf7aa15	0.030232469
143	0x3c22530b	0.009907494
144	0xbc9b1691	-0.018931659
145	0x3b8a4196	0.0042192442
146	0xbc70bb73	-0.014693129
147	0xbd0dee3d	-0.03465103
148	0x3d037de0	0.032102466
149	0xbdad93a5	-0.084754266
150	0x3baf3c6f	0.0053477804
151	0x3ce09a38	0.027417287
152	0xbd43abe6	-0.047771357
153	0x3c511904	0.012762312
154	0xbcac9f89	-0.021072166
155	0x3c827ce5	0.015928695
156	0x3d05106f	0.032486375
157	0x3c3f7aa6	0.0116869565
158	0xbc25e8ad	-0.010126275
159	0xbd1288ca	-0.035774983
160	0x3c1fc914	0.009752531
161	0xb4d5a2b1	-3.9792715e-07
162	0xbcb7728c	-0.022393487
163	0x3cd16149	0.025559084
164	0x3c5e609e	0.01357284
165	0x3ce59de6	0.028029393
166	0xbc5a2dba	-0.013316566
167	0x3d19a239	0.037508223
168	0x3d3307eb	0.043708723
169	0x3c4346be	0.011918722
170	0xbbd42dad	-0.0064751715
171	0xbc25233d	-0.010079202
172	0xbcb64982	-0.022251848
173	0xbcc45ab9	-0.023969041
174	0xbcae14de	-0.021250185
175	0xbd0913be	-0.033466093
176	0xbc069c79	-0.008216017
177	0xbc5862fa	-0.013207192
178	0xbcd9afcd	-0.026573086
179	0x3c162f08	0.009166487
180	0x3c9b95d7	0.018992348
181	0xbc8fe508	-0.017565265
182	0x3c05c568	0.008164741
183	0x3c8a6472	0.0168936
184	0x3ab10177	0.0013504465
185	0xbd15f817	-0.03661355
186	0x3b7309c5	0.003708468
187	0x3cee127e	0.029061552
188	0x3d007313	0.031359743
189	0x3abb2fd3	0.001428122
190	0xbb332833	-0.0027337193
191	0xbcb852be	-0.022500392
192	0x3c742210	0.014900699
193	0x3d129da7	0.03579488
194	0xbc664c9e	-0.014056353
195	0x3c7b9574	0.015355457
196	0xbd3e2281	-0.046419624
197	0xbd7620d3	-0.060089897
198	0x3d260aa1	0.04053748
199	0x3d2e79a8	0.04259649
200	0x3d112a83	0.035440933
201	0x3c5e9eb5	0.013587643
202	0xbcb2535c	-0.021768264
203	0xbd15479a	-0.036445238
204	0xbc2997cc	-0.010351133
205	0x3c708b50	0.014681652
206	0x3d18c1a1	0.037294034
207	0x3d18bf02	0.037291534
208	0x3d585247	0.05281284
209	0xbd1aa9f8	-0.03775975
210	0xbcab1741	-0.020885112
211	0xbcdfecf4	-0.027334668
212	0x3c69f48a	0.014279494
213	0xbc7f7728	-0.015592374
214	0x3ca0c376	0.019624453
215	0xbcb3f6f9	-0.021968352
216	0xbc63e357	-0.0139091825
217	0x3cf100fd	0.029419417
218	0xbc4866e1	-0.0122315595
219	0xbcd0013a	-0.02539121
220	0x3bae10c2	0.0053120563
221	0xbcbf234d	-0.023332262
222	0x3c58d632	0.013234662
223	0x3d0eedb3	0.034894656
224	0xbd8dcd71	-0.069239505
225	0xbc5ecf4a	-0.013599226
226	0xbc2cd729	-0.010549345
227	0x39c979e7	0.00038428532
228	0xbc8f8263	-0.017518228
229	0xbd23bd62	-0.03997553
230	0xbd2e0478	-0.04248473
231	0x3c849b49	0.016187327
232	0xbc645028	-0.013935126
233	0xbba4e3b4	-0.005032027
234	0x3d04a751	0.032386128
235	0xbd01e5a2	-0.031713136
236	0xbc19cb50	-0.009386852
237	0x3cfad2b0	0.030618042
238	0xbc773176	-0.015087476
239	0x3d6124ae	0.05496662
240	0x3d21b4c6	0.03947904
241	0xbc0b0ddb	-0.00848719
242	0xbc97d8b7	-0.018535955
243	0xbc0f8665	-0.0087600695
244	0xbbeb44fd	-0.007179855
245	0x3c71a4dd	0.014748779
246	0x3cbef5f6	0.023310643
247	0x3c579989	0.013159164
248	0xbc7872df	-0.015164106
249	0xbd060895	-0.03272303
250	0xbcb99556	-0.022654217
251	0xbc0d491b	-0.008623387
252	0xbd1fb910	-0.03899485
253	0x3bb514b4	0.0055261496
254	0xbcdc0200	-0.026856422
255	0x3c88c542	0.016695622

action_model._continuous_distribution.mu.bias f4 [2]
0	0x3c369713	0.011144417
1	0x3b18bc66	0.0023305654

action_model._discrete_distribution.branches.0.weight f4 [2, 128]
0	0x3d136c34	0.035991862
1	0x3c6fc74d	0.014634919
2	0x3ca45d10	0.020063907
3	0xbcfe6ce3	-0.03105778
4	0xbc924d5d	-0.017859155
5	0xbd0593d3	-0.03261168
6	0x3c12b440	0.008954108
7	0xbc41dd7a	-0.011832589
8	0xbc7ccb5b	-0.015429343
9	0x3d1d2c59	0.03837237
10	0xbb508c7c	-0.0031822016
11	0x3d0fb38d	0.035083342
12	0xbbd51055	-0.006502191
13	0x3c01db09	0.007925757
14	0xbbc044c9	-0.005867575
15	0x3d6a9e0a	0.057279624
16	0x3d1b4169	0.037904177
17	0xbc7519d2	-0.014959769
18	0x3c450fa6	0.012027657
19	0x3c0fcb73	0.008776533
20	0x3c1ba36d	0.009499413
21	0x3bd17dc8	0.006393168
22	0xbb841b04	-0.004031541
23	0xbb9728c6	-0.004613015
24	0x3c3ea6d5	0.011636456
25	0xbd12751c	-0.035756215
26	0x3c5a1e2e	0.013312859
27	0xbd07a5f1	-0.03311724
28	0xbbcf7a5a	-0.006331724
29	0xbc2220ac	-0.009895485
30	0xbc3e170e	-0.011602176
31	0xbd293a75	-0.041315515
32	0xbce562c8	-0.028001204
33	0x3c5fb794	0.013654608
34	0x3d3874b7	0.045033183
35	0xbc8401d0	-0.016114146
36	0xbd02af56	-0.031905495
37	0xbabe19bc	-0.0014503519
38	0xbbeb482a	-0.0071802335
39	0xbb8d7f8f	-0.0043181847
40	0x3d423de0	0.04742229
41	0x3d826f78	0.06368917
42	0x3d1dbc6a	0.038509764
43	0x3b81eb5a	0.0039648237
44	0x3a1f7328	0.0006082528
45	0xbb94c912	-0.004540571
46	0x3aeb8f6d	0.0017971821
47	0x3c4192be	0.011814771
48	0xbc91b6b8	-0.017787322
49	0xbd0e08fd	-0.03467654
50	0xbcb578a1	-0.022152247
51	0xbbf03678	-0.007330712
52	0xbc415915	-0.011801024
53	0xbaa6c63f	-0.0012723877
54	0xbc9fe994	-0.019520558
55	0x3bfca112	0.0077096308
56	0xbb7c4aad	-0.0038496659
57	0xb8ac8b17	-8.2275066e-05
58	0xbcaab506	-0.020838272
59	0x3c43e206	0.011955744
60	0x3c7682f1	0.015045867
61	0x3bde6b0f	0.0067876647
62	0xbcc8ea59	-0.024525808
63	0x3d9db39a	0.07700272
64	0x3d7fc017	0.06243905
65	0x3c00f050	0.007869795
66	0xbc22cc82	-0.009936454
67	0x3c630106	0.0138552245
68	0xbd1bc68c	-0.038031146
69	0xbc1136e3	-0.008863184
70	0xbc80cfba	-0.015724052
71	0x399a2846	0.00029403175
72	0xbb4034b4	-0.0029328289
73	0xba86f464	-0.0010296223
74	0xbcf024eb	-0.029314479
75	0xbba11b27	-0.004916567
76	0xbd089ee3	-0.03335465
77	0x3d579753	0.05263455
78	0x3d1e5193	0.038652014
79	0xb9e474ff	-0.00043574718
80	0xbac9ed1b	-0.0015405746
81	0x3d69402d	0.05694597
82	0x3ab0365a	0.0013443932
83	0x3c607321	0.013699324
84	0x3c7b1868	0.015325643
85	0x3cc591f5	0.02411745
86	0x3da39ffc	0.07989499
87	0xb7b96a6e	-2.2103279e-05
88	0x3cc56a2b	0.024098476
89	0xbd42856b	-0.04749052
90	0x3c6f383f	0.014600812
91	0xbc1e08b1	-0.009645627
92	0xbcfef126	-0.031120848
93	0x3c518727	0.0127885705
94	0x3ddc1a90	0.10747254
95	0x3d557893	0.05211694
96	0x3c0b3800	0.008497238
97	0xbb359572	-0.0027707485
98	0x3c9cc52f	0.019136993
99	0x3d31f6ab	0.04344813
100	0x3d664de8	0.05622664
101	0x3cae3115	0.021263639
102	0xbbc5e66f	-0.0060394327
103	0xbc4d3834	-0.012525607
104	0x3dde9a86	0.10869317
105	0x3a0dd176	0.0005409935
106	0x3d6df5ab	0.058095615
107	0x3d544d14	0.05183132
108	0x3d65dfbb	0.05612157
109	0xbb0075b6	-0.0019601411
110	0xbd3416d1	-0.043967072
111	0x3b1865bb	0.0023253995
112	0xbb6f8d52	-0.003655274
113	0x3c62fc25	0.013854061
114	0xbd026b7a	-0.03184078
115	0x3c2c09c8	0.010500379
116	0x3bd5560d	0.006510502
117	0xbb9246a5	-0.004463988
118	0xbc762492	-0.0150233675
119	0x3c284926	0.010271346
120	0x3c5daeb6	0.013530424
121	0xbb541ed5	-0.003236701
122	0xbc3c6706	-0.011499172
123	0x3c61a716	0.013772747
124	0xbc52e3f4	-0.012871731
125	0x3ca6629c	0.020310692
126	0x3881704a	6.172115e-05
127	0xbcd9a4f2	-0.02656791
128	0xbd179527	-0.037007477
129	0xbd26f404	-0.040760055
130	0xbd1842ae	-0.037172966
131	0x3d0b0db0	0.0339486
132	0x3b368eca	0.0027856105
133	0x3cfd3019	0.030906724
134	0xbb5a2bd0	-0.0033290274
135	0x3ca6c642	0.020358209
136	0xbc1c888d	-0.009554041
137	0xbd04766b	-0.032339495
138	0xbcae416e	-0.021271434
139	0xbd49fefe	-0.049315445
140	0x3c3c983c	0.011510905
141	0x3c865607	0.016398443
142	0x3c78260e	0.015145792
143	0xbd8a7a37	-0.06761592
144	0xbca79fab	-0.020461878
145	0x3bea9b70	0.007159643
146	0xbb7460cb	-0.0037289138
147	0xbcb6eba1	-0.022329153
148	0xbb4b6596	-0.0031035892
149	0xbca7a6c9	-0.020465272
150	0xbc2a1377	-0.010380617
151	0x3bb7b965	0.0056068175
152	0xbbdddc90	-0.006770678
153	0x3cb5c0e9	0.022186713
154	0xbccdf4eb	-0.0251412
155	0x3c86c31b	0.016450455
156	0x3afc004a	0.001922616
157	0x3c4020ec	0.011726599
158	0x3b828a31	0.003983759
159	0x3d2a3700	0.04155636
160	0x3c9002ba	0.017579425
161	0xbd1ba79a	-0.038001634
162	0xbd274735	-0.040839393
163	0x3c8dac44	0.017294057
164	0x3cf84df3	0.030310607
165	0x3b7ca5ba	0.003855093
166	0xbb6d5822	-0.0036215861
167	0x3c110948	0.0088523105
168	0xbd60975e	-0.054831855
169	0xbdab9d7d	-0.08379648
170	0xbcc97e67	-0.024596406
171	0xbc81c370	-0.015840262
172	0x3bc07a9b	0.0058739907
173	0x3c6e35ba	0.014539177
174	0x3c279c50	0.010230139
175	0xbcee662e	-0.029101457
176	0x3cf5ab12	0.0299888
177	0x3d15b0d5	0.036545593
178	0xbb1e301a	-0.0024137557
179	0xbbbe08cc	-0.0057993885
180	0x3c4bf5f2	0.012448775
181	0xbc25e683	-0.010125759
182	0x3b968ce4	0.004594432
183	0xbd12f35b	-0.035876613
184	0xbb9da19d	-0.0048105256
185	0x3aaec622	0.0013334195
186	0x3c10f762	0.008848043
187	0xbae7c6ad	-0.0017683111
188	0x3afc9bd0	0.001927251
189	0x3cc1800f	0.023620633
190	0x3bd2dcb1	0.006435
191	0xbda5cdfd	-0.0809593
192	0xbd5e360a	-0.054250754
193	0xb7866fc7	-1.6026095e-05
194	0xb8bb4bdc	-8.930985e-05
195	0xbc279ffa	-0.0102310125
196	0x3ced2e89	0.028952854
197	0x3cacb85a	0.021084
198	0x3c4167a8	0.011804499
199	0x3b7aff5e	0.0038299183
200	0x3baf941e	0.005358233
201	0x3c9210e6	0.017830323
202	0x3c9d5d4b	0.019209525
203	0xbc3b06d4	-0.011415202
204	0x3d1f7378	0.03892848
205	0xbd49531f	-0.049151536
206	0xbd1f980f	-0.038963374
207	0xbc70a00f	-0.014686598
208	0x3c1115ac	0.008855265
209	0xbd2bec42	-0.04197336
210	0x3958753f	0.00020643043
211	0x3a92f1ea	0.0011211012
212	0xbc3a4ea7	-0.011371291
213	0xbc56baaa	-0.013106028
214	0xbd9a7607	-0.07542043
215	0xbc4e1ce2	-0.012580128
216	0xbca1fad6	-0.019772928
217	0x3d6c5956	0.057702385
218	0xbca5aa2a	-0.020222742
219	0xbc68b541	-0.014203371
220	0x3d47dc38	0.048794
221	0xbbdf680f	-0.0068178247
222	0xbdc8348b	-0.09775647
223	0xbd5e78db	-0.054314476
224	0xbc80356b	-0.015650472
225	0x38c0cec2	9.193785e-05
226	0xbc27bc74	-0.010237802
227	0xbd22434f	-0.03961497
228	0xbda6c900	-0.081438065
229	0xbcf7be2c	-0.030242048
230	0x3c2659ef	0.010153278
231	0xbaab0fe5	-0.0013051002
232	0xbdd85b47	-0.10564285
233	0xbbef7f6a	-0.00730889
234	0xbd565575	-0.052327592
235	0xbd85633f	-0.0651307
236	0xbd74360e	-0.059621863
237	0x3c388902	0.011263134
238	0x3d33a4e8	0.04385844
239	0x3bf90be2	0.0076002935
240	0x3c46f85e	0.012144176
241	0xbcb850b7	-0.022499425
242	0x3c8b4769	0.017001824
243	0xbb6a3866	-0.0035739182
244	0xbc3c7442	-0.011502327
245	0x3ca11047	0.019661082
246	0x3c4b6ea5	0.012416516
247	0xbc7bcb03	-0.015368226
248	0xbc9b8681	-0.018985035
249	0x3bb5f16b	0.005552461
250	0x3ca16070	0.019699305
251	0xbc3557e7	-0.011068321
252	0x3cc7f40f	0.024408368
253	0xbc052c94	-0.008128304
254	0xbb1705f6	-0.0023044324
255	0x3a84819e	0.001010943

action_model._discrete_distribution.branches.0.bias f4 [2]
0	0x3ac69cc4	0.0015152921
1	0xbac69cc0	-0.0015152916

exp_avg f4 [128, 8]
0	0xba76a16c	-0.0009408209
1	0xb99ab1d6	-0.00029505667
2	0x36516e76	3.1207724e-06
3	0xbaf4fcbc	-0.0018691043
4	0x00000000	0.0
5	0x3888c86c	6.522317e-05
6	0xb8563e51	-5.1079613e-05
7	0xb76a9f17	-1.3984528e-05
8	0xb98b3e2d	-0.0002655847
9	0xb874ed33	-5.8395042e-05
10	0x37b1784f	2.1156067e-05
11	0xba1262d5	-0.0005584185
12	0x00000000	0.0
13	0xb9162cfb	-0.00014321871
14	0xb7b66937	-2.1745085e-05
15	0x379bd168	1.8574952e-05
16	0x39964c42	0.00028667046
17	0x39152186	0.00014222236
18	0xb88c69f2	-6.695454e-05
19	0x3a4212a4	0.00074032904
20	0x00000000	0.0
21	0xb8bdf7ed	-9.058402e-05
22	0xb7e3e719	-2.7168122e-05
23	0xb74d9503	-1.2253647e-05
24	0xba9efa8f	-0.0012129116
25	0xb92d4e1a	-0.00016527661
26	0x3986c592	0.00025705673
27	0xbaf0bcf5	-0.001836686
28	0x00000000	0.0
29	0x38706b68	5.732049e-05
30	0xb84ffc06	-4.958736e-05
31	0xb7b8bceb	-2.2022481e-05
32	0xba3c1401	-0.00071746117
33	0x391f6f6b	0.00015204928
34	0x38696477	5.5645094e-05
35	0xba2eed98	-0.00066729775
36	0x00000000	0.0
37	0x397e964d	0.00024279319
38	0xb8e1f10c	-0.000107737345
39	0xb6e42be4	-6.800039e-06
40	0x3a961efc	0.0011453326
41	0x39032b3e	0.00012509243
42	0xb894d80f	-7.097434e-05
43	0x3ac2e1f0	0.001486836
44	0x00000000	0.0
45	0xb95cac7a	-0.00021045087
46	0x388436d5	6.304464e-05
47	0xb7d4504f	-2.5309766e-05
48	0xb9155dbc	-0.00014244666
49	0x38c75120	9.50417e-05
50	0x3748efc8	1.1976757e-05
51	0x384ea52a	4.926805e-05
52	0x00000000	0.0
53	0x381dabe4	3.7591803e-05
54	0xb7aa3888	-2.0291904e-05
55	0x35dbb2d0	1.6368813e-06
56	0xb793c91b	-1.7617413e-05
57	0xb7210692	-9.597878e-06
58	0x359735da	1.126605e-06
59	0xb92ecd2a	-0.00016670363
60	0x00000000	0.0
61	0x36ef835f	7.1380487e-06
62	0xb75d805f	-1.3202515e-05
63	0xb3905007	-6.7200794e-08
64	0x3aa3ef39	0.0012507207
65	0x39a3c444	0.00031236012
66	0xb946d3a9	-0.00018961601
67	0x3b0d2b34	0.0021540644
68	0x00000000	0.0
69	0xb9f0984f	-0.00045889846
70	0x384cd8ef	4.8839425e-05
71	0x3924d328	0.0001571892
72	0xba15664f	-0.0005699144
73	0x37e51245	2.7307435e-05
74	0xb610e3a7	-2.1590183e-06
75	0xb9c9ce1f	-0.0003849128
76	0x00000000	0.0
77	0xb77f8ede	-1.5232448e-05
78	0xb84346da	-4.655761e-05
79	0x380dfced	3.3852575e-05
80	0x399ad270	0.00029529957
81	0x3788033f	1.6213975e-05
82	0xb8b0cf5b	-8.430957e-05
83	0xba086543	-0.00052030775
84	0x00000000	0.0
85	0xb831dfaa	-4.2408392e-05
86	0xb83019c9	-4.1985684e-05
87	0x3870f0cf	5.744473e-05
88	0xb89eef8f	-7.5786484e-05
89	0xb735a6f8	-1.0827316e-05
90	0x38d07745	9.9404286e-05
91	0xb9278f4f	-0.00015979748
92	0x00000000	0.0
93	0x3801925f	3.0892315e-05
94	0xb731e3cf	-1.0603063e-05
95	0xb78f7e55	-1.7105756e-05
96	0x3a1ed9b7	0.0006059664
97	0x3982f47d	0.0002497769
98	0xb896d4b2	-7.192175e-05
99	0xba2566d8	-0.00063095754
100	0x00000000	0.0
101	0x3980a51d	0.00024537081
102	0xb9855cba	-0.00025436823
103	0x38ce8eec	9.849467e-05
104	0xb8d3f060	-0.000101060374
105	0xb78e6be8	-1.6977967e-05
106	0xb800cf0d	-3.071041e-05
107	0xb943b2f8	-0.0001866332
108	0x00000000	0.0
109	0x383d3b29	4.511621e-05
110	0xb70b0276	-8.285619e-06
111	0xb71df8d2	-9.415862e-06
112	0xb8b10b0a	-8.442074e-05
113	0xb94a3ef7	-0.00019287677
114	0xb8e77b9a	-0.00011037961
115	0xbb1efb1a	-0.0024258555
116	0x00000000	0.0
117	0x373701af	1.0908042e-05
118	0xb92c3f5d	-0.00016426803
119	0xb886adbc	-6.4219785e-05
120	0xba6cac0b	-0.0009028322
121	0xb9448f64	-0.00018745434
122	0x39172551	0.00014414384
123	0xbab7971e	-0.0014006828
124	0x00000000	0.0
125	0x38bde652	9.055123e-05
126	0xb846e2e8	-4.74182e-05
127	0x37ed27a1	2.8271055e-05
128	0x3a003bdf	0.0004891734
129	0x37b4a55c	2.1534674e-05
130	0xb8dd3ba7	-0.00010549212
131	0xb9626c79	-0.00021593449
132	0x00000000	0.0
133	0x38907a98	6.88929e-05
134	0xb7dfe2f5	-2.6689357e-05
135	0xb8226b90	-3.8723985e-05
136	0xba6a0f50	-0.00089286733
137	0x390fdf83	0.00013720807
138	0x367cc0f9	3.766325e-06
139	0xba4ecbbb	-0.00078886346
140	0x00000000	0.0
141	0xb7d8dcec	-2.5852081e-05
142	0xb8ee4f67	-0.00011363514
143	0x36a9fc70	5.06598e-06
144	0x3addcca3	0.0016921948
145	0x398a36d3	0.00026362258
146	0xb985c122	-0.00025511632
147	0x3b2b2d9d	0.0026119717
148	0x00000000	0.0
149	0xb98c803f	-0.00026798432
150	0x383e90ae	4.5434273e-05
151	0x38bd80b1	9.036193e-05
152	0x3990de55	0.0002763147
153	0x38803036	6.1124956e-05
154	0xb827c79c	-4.0001803e-05
155	0x3a31c3bd	0.00067811814
156	0x00000000	0.0
157	0xb8815128	-6.166316e-05
158	0x372bb8da	1.0235433e-05
159	0x37ec8e10	2.8199545e-05
160	0x37988474	1.818149e-05
161	0x35e0ddeb	1.6753887e-06
162	0xb5a34689	-1.2164975e-06
163	0x369d2cc3	4.6841756e-06
164	0x00000000	0.0
165	0x34bfabf7	3.5701643e-07
166	0xb622cdcb	-2.4259668e-06
167	0x369a3017	4.595156e-06
168	0xb867daef	-5.527859e-05
169	0xb74abc75	-1.2084017e-05
170	0x362f424c	2.6115622e-06
171	0xb926736a	-0.00015873989
172	0x00000000	0.0
173	0x37302507	1.0499039e-05
174	0xb738ab22	-1.10071e-05
175	0xb6a39450	-4.8750444e-06
176	0xb92b727b	-0.00016350478
177	0x3982a787	0.0002492035
178	0xb85ff5b7	-5.3396183e-05
179	0x3a272d46	0.00063772907
180	0x00000000	0.0
181	0x3832edd4	4.266e-05
182	0xb88b02e0	-6.628572e-05
183	0x38e22a8d	0.000107844455
184	0xb912df2f	-0.00014006787
185	0xb79c735a	-1.8650364e-05
186	0x37157508	8.9083405e-06
187	0xb8dee237	-0.00010627921
188	0x00000000	0.0
189	0xb54b42db	-7.572068e-07
190	0xb5a13499	-1.2010743e-06
191	0xb6733021	-3.6237836e-06
192	0x3a518843	0.0007993022
193	0x39c59824	0.00037688122
194	0xb746c90a	-1.1848528e-05
195	0x3b20795a	0.0024486394
196	0x00000000	0.0
197	0xb81f8095	-3.8028305e-05
198	0x37870777	1.609673e-05
199	0x391d5722	0.00015005146
200	0xb808595f	-3.250816e-05
201	0xb74d4d5b	-1.2236963e-05
202	0xb6f3491f	-7.2504768e-06
203	0xb8ed261a	-0.000113081376
204	0x00000000	0.0
205	0x35ba4b1d	1.3879941e-06
206	0xb6d508b4	-6.348908e-06
207	0xb688b5cf	-4.074281e-06
208	0x37a6503e	1.9826108e-05
209	0x3718fdb4	9.118976e-06
210	0xb65a9317	-3.257015e-06
211	0x39257c71	0.00015781984
212	0x00000000	0.0
213	0x373e6778	1.1348973e-05
214	0x37438908	1.1654811e-05
215	0x3644e406	2.9339003e-06
216	0xb9a10af3	-0.0003071647
217	0x3873c229	5.811654e-05
218	0x39afba4a	0.00033517397
219	0x3a21e9b7	0.0006176489
220	0x00000000	0.0
221	0x38efb3bd	0.00011429887
222	0x38ab0528	8.154876e-05
223	0x374eaa37	1.2318188e-05
224	0x3b128307	0.002235593
225	0x39dd6d05	0.0004223363
226	0xb929fff5	-0.00016212447
227	0x3b829f9b	0.0039863116
228	0x00000000	0.0
229	0xb964a6fc	-0.00021805981
230	0x38b9d190	8.8605215e-05
231	0x38f54ee6	0.00011697206
232	0x3a7dde08	0.00096842693
233	0x3923f49c	0.00015636015
234	0xb8898ba2	-6.558678e-05
235	0x3acc434b	0.001558402
236	0x00000000	0.0
237	0xb8efe091	-0.00011438237
238	0x3874c300	5.835574e-05
239	0xb71103ce	-8.643559e-06
240	0x3aafbb01	0.0013407172
241	0x39174d46	0.00014429269
242	0xb94d44f4	-0.0001957601
243	0x3ad787b4	0.0016443641
244	0x00000000	0.0
245	0xb9ce5609	-0.00039355483
246	0x38c65f78	9.459158e-05
247	0xb8c9ffa6	-9.632045e-05
248	0xba117d4c	-0.0005549982
249	0xb8487423	-4.7791877e-05
250	0x38ff6932	0.00012178942
251	0xba6df53e	-0.00090773765
252	0x00000000	0.0
253	0x398d5e62	0.00026963936
254	0xb7c81438	-2.3851273e-05
255	0xb80a09ad	-3.2910775e-05

exp_avg_sq f4 [128, 8]
0	0x36815ca0	3.8552826e-06
1	0x348c4a45	2.613107e-07
2	0x34374c92	1.7071059e-07
3	0x37803053	1.5281292e-05
4	0x00000000	0.0
5	0x34551196	1.9843569e-07
6	0x3330217f	4.1008658e-08
7	0x33278c19	3.9010136e-08
8	0x373e8726	1.1356349e-05
9	0x34c3bb08	3.6457664e-07
10	0x34befbe0	3.557352e-07
11	0x381913bd	3.6496425e-05
12	0x00000000	0.0
13	0x35025abc	4.856081e-07
14	0x34029488	1.2161229e-07
15	0x3396d759	7.024091e-08
16	0x3418609a	1.4191247e-07
17	0x333eaadc	4.4393218e-08
18	0x32fb467f	2.9252304e-08
19	0x361211fc	2.1766164e-06
20	0x00000000	0.0
21	0x33398651	4.319583e-08
22	0x31f53298	7.1361903e-09
23	0x31521dda	3.057599e-09
24	0x36058fca	1.990224e-06
25	0x33ac18fa	8.013917e-08
26	0x33992715	7.131727e-08
27	0x36a43a8d	4.894397e-06
28	0x00000000	0.0
29	0x3392b698	6.8318684e-08
30	0x324ac1ef	1.1802043e-08
31	0x328c665d	1.6344694e-08
32	0x369cad06	4.669305e-06
33	0x338d9954	6.5937144e-08
34	0x338f2b5e	6.666845e-08
35	0x36aaa55d	5.0856456e-06
36	0x00000000	0.0
37	0x33d420c8	9.877982e-08
38	0x32aefa90	2.0370209e-08
39	0x308188bf	9.424851e-10
40	0x36109bdd	2.1548396e-06
41	0x340df08b	1.3219157e-07
42	0x33c7e7ee	9.3088474e-08
43	0x36d6bbda	6.399566e-06
44	0x00000000	0.0
45	0x33dd683a	1.0310073e-07
46	0x32710eae	1.4031384e-08
47	0x32cb9a03	2.3702347e-08
48	0x35da58c0	1.6268095e-06
49	0x33378ea2	4.273773e-08
50	0x3312e730	3.4203538e-08
51	0x361c4c97	2.3290393e-06
52	0x00000000	0.0
53	0x33430272	4.54042e-08
54	0x31f60ab4	7.160759e-09
55	0x312ef0a9	2.5457132e-09
56	0x3284e28b	1.5469842e-08
57	0x309b9e1a	1.132267e-09
58	0x308352c1	9.555025e-10
59	0x33993c75	7.135615e-08
60	0x00000000	0.0
61	0x30badd7b	1.359623e-09
62	0x2fc79849	3.6306094e-10
63	0x2f5c0795	2.0011577e-10
64	0x38071bfa	3.2212563e-05
65	0x35b1c3c4	1.3244503e-06
66	0x35737368	9.069249e-07
67	0x38b05bf4	8.4094616e-05
68	0x00000000	0.0
69	0x359da03a	1.1744044e-06
70	0x34410d69	1.7979404e-07
71	0x3475c248	2.2888082e-07
72	0x352f8eb7	6.540026e-07
73	0x3211f2a3	8.49528e-09
74	0x3297b44c	1.7660703e-08
75	0x35894b8b	1.0229281e-06
76	0x00000000	0.0
77	0x32bd43b0	2.2033277e-08
78	0x3182541a	3.793059e-09
79	0x315c6729	3.2072853e-09
80	0x34b597a4	3.382421e-07
81	0x32d8c8f0	2.5237085e-08
82	0x3368e21f	5.4222365e-08
83	0x36b5b472	5.415227e-06
84	0x00000000	0.0
85	0x33ad1ab6	8.060799e-08
86	0x3305db83	3.116612e-08
87	0x321c25f6	9.089026e-09
88	0x345fb4ce	2.083427e-07
89	0x33583125	5.0336116e-08
90	0x32a796bb	1.9509903e-08
91	0x3564e2c4	8.5266606e-07
92	0x00000000	0.0
93	0x329b7686	1.8098273e-08
94	0x3020fbc2	5.856543e-10
95	0x31e54d20	6.6735453e-09
96	0x352f37e9	6.527394e-07
97	0x33f111dd	1.1225686e-07
98	0x33e0058e	1.0431823e-07
99	0x37893190	1.6354752e-05
100	0x00000000	0.0
101	0x347ca351	2.3528743e-07
102	0x33d1e977	9.774788e-08
103	0x3247f44b	1.163887e-08
104	0x32cc3521	2.3772886e-08
105	0x31801b21	3.7283745e-09
106	0x3181f09f	3.7817496e-09
107	0x345f4205	2.0792511e-07
108	0x00000000	0.0
109	0x318c45d5	4.0824752e-09
110	0x307afbd5	9.1307345e-10
111	0x300839ca	4.9558635e-10
112	0x36d2fcfb	6.2879385e-06
113	0x34da4a99	4.065994e-07
114	0x3498805d	2.8405603e-07
115	0x37d4d858	2.5373112e-05
116	0x00000000	0.0
117	0x34a90988	3.1485638e-07
118	0x33a72c94	7.784652e-08
119	0x33842bf3	6.154723e-08
120	0x360620b7	1.9986599e-06
121	0x33e27d1b	1.0546702e-07
122	0x33b644cf	8.4875516e-08
123	0x36e212d3	6.7375163e-06
124	0x00000000	0.0
125	0x33b8ba99	8.6021096e-08
126	0x3285d2fd	1.5579184e-08
127	0x32ba36b2	2.1678122e-08
128	0x3688c4c7	4.0760237e-06
129	0x3406ed9f	1.2566169e-07
130	0x342480cf	1.532055e-07
131	0x378a3358	1.647479e-05
132	0x00000000	0.0
133	0x34632615	2.1154877e-07
134	0x33879491	6.3134515e-08
135	0x32e4d0b2	2.6637597e-08
136	0x360e0141	2.1160379e-06
137	0x3344a82a	4.578775e-08
138	0x333b18f5	4.356203e-08
139	0x36388799	2.7497065e-06
140	0x00000000	0.0
141	0x33948cd9	6.917407e-08
142	0x323587fb	1.0566505e-08
143	0x31a5e934	4.828644e-09
144	0x369a6b0e	4.6020205e-06
145	0x348ea612	2.6570393e-07
146	0x34362c65	1.6966221e-07
147	0x37a33685	1.9456502e-05
148	0x00000000	0.0
149	0x347a70a7	2.3324047e-07
150	0x3370facc	5.6107453e-08
151	0x3326a78c	3.880227e-08
152	0x3472286c	2.2552712e-07
153	0x334e4443	4.8025196e-08
154	0x32c4cc6c	2.2910363e-08
155	0x3624199f	2.4452818e-06
156	0x00000000	0.0
157	0x334198b6	4.5075204e-08
158	0x31a4c111	4.7949773e-09
159	0x3206ebe3	7.853461e-09
160	0x31a900dc	4.918645e-09
161	0x2f5272b4	1.914014e-10
162	0x2f67551e	2.1039567e-10
163	0x3240d393	1.1223977e-08
164	0x00000000	0.0
165	0x2f8f2c82	2.6043173e-10
166	0x2e87a40a	6.1682284e-11
167	0x2e24a966	3.743974e-11
168	0x3231bc69	1.03455955e-08
169	0x30e30bcc	1.6519777e-09
170	0x30edd758	1.7305224e-09
171	0x33f14dfc	1.1236622e-07
172	0x00000000	0.0
173	0x31188743	2.2195799e-09
174	0x30142205	5.389043e-10
175	0x2f38c12f	1.6803335e-10
176	0x3717c961	9.0471885e-06
177	0x344aeea5	1.8899534e-07
178	0x346525c8	2.1341032e-07
179	0x376e04f1	1.4187056e-05
180	0x00000000	0.0
181	0x3481a852	2.4150592e-07
182	0x332f8330	4.0864677e-08
183	0x332a1378	3.9598916e-08
184	0x33eef1c1	1.11267134e-07
185	0x320e2e9d	8.2760865e-09
186	0x3209e52a	8.026555e-09
187	0x3493af58	2.7508463e-07
188	0x00000000	0.0
189	0x323dd5a0	1.1049821e-08
190	0x304069e0	6.999965e-10
191	0x30f9dc6a	1.817978e-09
192	0x36642402	3.3995607e-06
193	0x346ebbd4	2.2233809e-07
194	0x3422fa86	1.5178566e-07
195	0x375a0afa	1.2996368e-05
196	0x00000000	0.0
197	0x344b8380	1.8953688e-07
198	0x33268f88	3.8780428e-08
199	0x331cc813	3.6503547e-08
200	0x3292186f	1.7007748e-08
201	0x30aa87e4	1.240775e-09
202	0x3058cc55	7.8870716e-10
203	0x331daa36	3.6709217e-08
204	0x00000000	0.0
205	0x307a0952	9.0962715e-10
206	0x2f25182b	1.5015249e-10
207	0x2f5bbfab	1.9986028e-10
208	0x317f53b4	3.7154964e-09
209	0x30a5fae1	1.2076634e-09
210	0x30776402	9.0000196e-10
211	0x336941d6	5.4309417e-08
212	0x00000000	0.0
213	0x307e105a	9.24279e-10
214	0x2f659ee8	2.0883884e-10
215	0x2dac7c66	1.960938e-11
216	0x37099ad4	8.201885e-06
217	0x347ee974	2.3740523e-07
218	0x3489158b	2.5533913e-07
219	0x3793270c	1.7541948e-05
220	0x00000000	0.0
221	0x34819f4f	2.4144035e-07
222	0x33828ac9	6.0788416e-08
223	0x334419f0	4.5658396e-08
224	0x369779ae	4.514316e-06
225	0x34f834b8	4.6231958e-07
226	0x349327a2	2.740972e-07
227	0x37e4be1b	2.7268243e-05
228	0x00000000	0.0
229	0x34d55d20	3.97421e-07
230	0x338ec7f8	6.6487644e-08
231	0x33c18e58	9.013155e-08
232	0x36553dc0	3.1775417e-06
233	0x344d160d	1.9100135e-07
234	0x3404e6e1	1.2377451e-07
235	0x37314914	1.0567037e-05
236	0x00000000	0.0
237	0x34100baa	1.3415288e-07
238	0x32d2eb05	2.4554092e-08
239	0x32eab157	2.732183e-08
240	0x368ce075	4.1984554e-06
241	0x348725e1	2.517327e-07
242	0x345e5f48	2.0710024e-07
243	0x376ed722	1.4235995e-05
244	0x00000000	0.0
245	0x3487e31b	2.531095e-07
246	0x3325b2c8	3.8579657e-08
247	0x33857249	6.2140835e-08
248	0x37181c0a	9.066434e-06
249	0x34c12a61	3.5979886e-07
250	0x34967e3d	2.8031528e-07
251	0x37fb11a7	2.9929752e-05
252	0x00000000	0.0
253	0x34d0ee80	3.891655e-07
254	0x33c4f9c3	9.1723926e-08
255	0x338b7d85	6.495524e-08
