results/ppo/My Behavior.onnx (onnx, 74134 bytes, 5 tensors)

network_body._body_endoder.seq_layers.0.weight f4 [128, 1]
0	0x40176235	2.365369
1	0x3fad2988	1.3528299
2	0x3ffc3f86	1.9706886
3	0xbec63ee5	-0.3871986
4	0xbe07bf89	-0.13256659
5	0x4001e8cb	2.0298336
6	0x3f9d34b9	1.2281715
7	0xbf06eb9d	-0.5270327
8	0xbedb8697	-0.4287612
9	0xbf9bba1b	-1.216617
10	0x3f969a45	1.1765829
11	0xbfa4ffc3	-1.2890552
12	0xbfc11b85	-1.5086523
13	0xbe9969f1	-0.2996364
14	0x3f9a206c	1.2041144
15	0x3efa93a7	0.48940775
16	0x3f82ab0d	1.020845
17	0x3e130610	0.14357781
18	0xbef8490d	-0.48493233
19	0xbe0b0b05	-0.13578422
20	0x3ee52305	0.4475328
21	0x3ef9cd65	0.48789516
22	0xbfd301a7	-1.6484879
23	0x3fcc6a61	1.5969964
24	0xbff43a2e	-1.9080255
25	0xbf3e8623	-0.74423426
26	0x3fae2870	1.360609
27	0xbf9fce89	-1.2484905
28	0x3effa86c	0.49933183
29	0xbf92719b	-1.144092
30	0x3de493c1	0.11160994
31	0x3fbecbca	1.4905941
32	0x3f50221a	0.81302035
33	0xbf272821	-0.65295607
34	0x3f911669	1.1334964
35	0xbfa57172	-1.2925246
36	0xbe1a5308	-0.15070736
37	0xbd0d396d	-0.034478594
38	0xbf249972	-0.6429664
39	0x3eba54f9	0.36392954
40	0xbfb36b44	-1.401711
41	0xbf64a1d3	-0.89309424
42	0x3f0cb198	0.54958487
43	0x3c047079	0.008083456
44	0xbe7b7884	-0.24557692
45	0xbfb5d4ea	-1.4205601
46	0xbf335174	-0.7004616
47	0xbf84b1c6	-1.0366752
48	0x3eac46e5	0.33647838
49	0x3c60e23c	0.0137258135
50	0x3ecadb72	0.39620548
51	0x3f2193fc	0.6311643
52	0x3f98588b	1.1902021
53	0xbfc6ad84	-1.5521703
54	0x3fa6e1a8	1.3037615
55	0x3fd641af	1.6738795
56	0x3df570c3	0.11984398
57	0x40370463	2.8596427
58	0x3f38a22f	0.7212247
59	0x3f6dfdf6	0.9296564
60	0xbf19d211	-0.6008616
61	0xc00dae71	-2.213772
62	0x3fa119e8	1.2586031
63	0x3e80685c	0.2507962
64	0x3f8d2343	1.1026386
65	0x3e91aaf1	0.2845073
66	0xbfe3f0f7	-1.7807912
67	0xbfb04251	-1.3770238
68	0xbf5fd042	-0.8742715
69	0x3f17f607	0.5935978
70	0xbe4a83ee	-0.1977689
71	0x3e92ae97	0.28648826
72	0xbf2a8023	-0.6660177
73	0x3de597f4	0.112106234
74	0xbeddd7b6	-0.43328637
75	0xbfe96229	-1.8233081
76	0xbf816d89	-1.0111552
77	0x3e838d89	0.2569392
78	0xbf4ad1d1	-0.79226404
79	0xbf686cfd	-0.907913
80	0x3f1b8b72	0.6075965
81	0xbe2560e1	-0.16150238
82	0x40266d51	2.6004221
83	0x3fc9ae8c	1.5756392
84	0xbe925858	-0.28583026
85	0xbf439aba	-0.7640797
86	0xbe5fd71a	-0.21859398
87	0x3dea8517	0.11451166
88	0x3f2d3c67	0.6767029
89	0x3ece286e	0.4026522
90	0xbe91b520	-0.284585
91	0xbf88c54c	-1.068521
92	0x3f1c840a	0.61138976
93	0x3f2e446b	0.6807315
94	0x3efb578f	0.4909024
95	0x3f5db7b5	0.8660844
96	0x3f21b900	0.6317291
97	0x3eb4a1d9	0.3527973
98	0x3d69866b	0.057012957
99	0xbd066a13	-0.032816004
100	0xbeb1ed42	-0.34751326
101	0x3f0a92b0	0.5413008
102	0x3f5ea2b5	0.8696702
103	0x3fa0c377	1.2559651
104	0xbf88d2f2	-1.0689375
105	0xbf8d7c81	-1.105362
106	0xbf3ed7e9	-0.745482
107	0xbfb63119	-1.4233733
108	0x3eb72f30	0.3577819
109	0xbf1490dc	-0.5803354
110	0x400d45f2	2.2073941
111	0xbfd04418	-1.627078
112	0xbfe2e4c7	-1.7726067
113	0xbf0588a5	-0.5216163
114	0x40163e60	2.347557
115	0x3f248d2b	0.64277905
116	0x3e6144c2	0.21998885
117	0x3e6aae34	0.22918016
118	0xbf3395e8	-0.70150614
119	0xbb2985a3	-0.0025867007
120	0xbfba2f15	-1.4545618
121	0x3f5abe79	0.8544689
122	0xbf0ea783	-0.5572435
123	0x3f4d0abf	0.8009452
124	0xc0017fa8	-2.0234165
125	0x3fb6ec3c	1.4290843
126	0xbcd12041	-0.025528075
127	0xbe083c35	-0.13304217

network_body._body_endoder.seq_layers.0.bias f4 [128]
0	0x00000000	0.0
1	0x00000000	0.0
2	0x00000000	0.0
3	0x00000000	0.0
4	0x00000000	0.0
5	0x00000000	0.0
6	0x00000000	0.0
7	0x00000000	0.0
8	0x00000000	0.0
9	0x00000000	0.0
10	0x00000000	0.0
11	0x00000000	0.0
12	0x00000000	0.0
13	0x00000000	0.0
14	0x00000000	0.0
15	0x00000000	0.0
16	0x00000000	0.0
17	0x00000000	0.0
18	0x00000000	0.0
19	0x00000000	0.0
20	0x00000000	0.0
21	0x00000000	0.0
22	0x00000000	0.0
23	0x00000000	0.0
24	0x00000000	0.0
25	0x00000000	0.0
26	0x00000000	0.0
27	0x00000000	0.0
28	0x00000000	0.0
29	0x00000000	0.0
30	0x00000000	0.0
31	0x00000000	0.0
32	0x00000000	0.0
33	0x00000000	0.0
34	0x00000000	0.0
35	0x00000000	0.0
36	0x00000000	0.0
37	0x00000000	0.0
38	0x00000000	0.0
39	0x00000000	0.0
40	0x00000000	0.0
41	0x00000000	0.0
42	0x00000000	0.0
43	0x00000000	0.0
44	0x00000000	0.0
45	0x00000000	0.0
46	0x00000000	0.0
47	0x00000000	0.0
48	0x00000000	0.0
49	0x00000000	0.0
50	0x00000000	0.0
51	0x00000000	0.0
52	0x00000000	0.0
53	0x00000000	0.0
54	0x00000000	0.0
55	0x00000000	0.0
56	0x00000000	0.0
57	0x00000000	0.0
58	0x00000000	0.0
59	0x00000000	0.0
60	0x00000000	0.0
61	0x00000000	0.0
62	0x00000000	0.0
63	0x00000000	0.0
64	0x00000000	0.0
65	0x00000000	0.0
66	0x00000000	0.0
67	0x00000000	0.0
68	0x00000000	0.0
69	0x00000000	0.0
70	0x00000000	0.0
71	0x00000000	0.0
72	0x00000000	0.0
73	0x00000000	0.0
74	0x00000000	0.0
75	0x00000000	0.0
76	0x00000000	0.0
77	0x00000000	0.0
78	0x00000000	0.0
79	0x00000000	0.0
80	0x00000000	0.0
81	0x00000000	0.0
82	0x00000000	0.0
83	0x00000000	0.0
84	0x00000000	0.0
85	0x00000000	0.0
86	0x00000000	0.0
87	0x00000000	0.0
88	0x00000000	0.0
89	0x00000000	0.0
90	0x00000000	0.0
91	0x00000000	0.0
92	0x00000000	0.0
93	0x00000000	0.0
94	0x00000000	0.0
95	0x00000000	0.0
96	0x00000000	0.0
97	0x00000000	0.0
98	0x00000000	0.0
99	0x00000000	0.0
100	0x00000000	0.0
101	0x00000000	0.0
102	0x00000000	0.0
103	0x00000000	0.0
104	0x00000000	0.0
105	0x00000000	0.0
106	0x00000000	0.0
107	0x00000000	0.0
108	0x00000000	0.0
109	0x00000000	0.0
110	0x00000000	0.0
111	0x00000000	0.0
112	0x00000000	0.0
113	0x00000000	0.0
114	0x00000000	0.0
115	0x00000000	0.0
116	0x00000000	0.0
117	0x00000000	0.0
118	0x00000000	0.0
119	0x00000000	0.0
120	0x00000000	0.0
121	0x00000000	0.0
122	0x00000000	0.0
123	0x00000000	0.0
124	0x00000000	0.0
125	0x00000000	0.0
126	0x00000000	0.0
127	0x00000000	0.0

network_body._body_endoder.seq_layers.2.weight f4 [128, 128]
0	0xbd032dc8	-0.032026082
1	0x3e147d6e	0.14500973
2	0xbcf16d6f	-0.029471127
3	0xbda1dbc7	-0.07903247
4	0xbb1e34bc	-0.002414032
5	0x3cb5f14e	0.02220979
6	0xbe05687f	-0.13028143
7	0xbe1e6111	-0.15466715
8	0xbe03c45c	-0.12867874
9	0x3e842dc8	0.25816178
10	0xbd910c72	-0.07082452
11	0x3cc6f664	0.02428741
12	0xbd9f32ec	-0.077733845
13	0xbd90ac7d	-0.070641495
14	0xbd86ed42	-0.06588222
15	0x3cfb032b	0.030641159
16	0xbc80bec7	-0.01571597
17	0xbcb36777	-0.021899922
18	0xbc94f360	-0.018182456
19	0x3da9d936	0.08293383
20	0x3d2a0ebc	0.041517958
21	0xbce17acf	-0.02752438
22	0xbcd02f1b	-0.025413087
23	0xbbaeefeb	-0.005338659
24	0x3e44af58	0.19207513
25	0x3e27fd49	0.16405214
26	0xbdcf743a	-0.1012959
27	0xbd887847	-0.06663566
28	0x3e42cf4f	0.19024394
29	0x3de0bd06	0.10973553
30	0xbdbefd3b	-0.09325644
31	0x3cd818bb	0.02637898
32	0x3cc6de53	0.024275934
33	0x3ced9848	0.029003277
34	0x3d97b81d	0.07408164
35	0x3e389960	0.18027258
36	0x3dcf82af	0.10132348
37	0x3e16244b	0.14662282
38	0xbd874411	-0.066047795
39	0x3d3c1aca	0.045923986
40	0xbbf61e67	-0.0075109485
41	0xbd9a3551	-0.075297005
42	0xbc989184	-0.018624075
43	0x3d33cd06	0.043896697
44	0xbdf877ac	-0.121322006
45	0x3d34817a	0.04406879
46	0xbc41c305	-0.011826281
47	0x3d2e4c93	0.042553496
48	0x3e1c3293	0.15253668
49	0xbb9205ec	-0.0044562723
50	0x3d4f5e9f	0.050627347
51	0x3df1e0e0	0.118104696
52	0xbe3a030e	-0.18165228
53	0xbcacc9cf	-0.021092324
54	0x3cefa461	0.029253187
55	0x3bf887fb	0.0075845695
56	0x3c822cbf	0.015890477
57	0x3d83192a	0.06401284
58	0x3d706056	0.058685623
59	0xbcad7ae1	-0.021176757
60	0xbda59be7	-0.08086377
61	0x3d8029e3	0.06257989
62	0x3e3d7a44	0.18503672
63	0x3ca422c7	0.020036114
64	0xbda3c4ca	-0.07996519
65	0x3be1e913	0.0068942397
66	0xbcab4d75	-0.020910958
67	0xbd638459	-0.05554614
68	0x3da57e3a	0.080807164
69	0x3e7c6d9b	0.24651186
70	0x3d845cfb	0.06463047
71	0x3c94de2a	0.018172342
72	0x3d2df3e2	0.042468913
73	0xbd29fa42	-0.04149843
74	0x3d806785	0.06269745
75	0x3d05a9bc	0.032632574
76	0xbd54e2ee	-0.05197423
77	0xbdcd9de8	-0.10039884
78	0xbaa276e8	-0.0012395056
79	0x3d8fc4bc	0.07019946
80	0xbdfc88f0	-0.12330806
81	0x3ddcecaa	0.107873276
82	0xbd020d2d	-0.031750847
83	0xbd7ecde7	-0.062208083
84	0x3b50c7da	0.0031857402
85	0xbd009fe0	-0.03140247
86	0x3d54862a	0.05188576
87	0x3dc1ea19	0.09468479
88	0x3d1a3524	0.037648335
89	0x37bc1ecb	2.2425686e-05
90	0xbd9fd1c9	-0.07803685
91	0x3d33e9a3	0.043923985
92	0xbdca4ea6	-0.09878282
93	0xbdc968de	-0.09834455
94	0xbdb52760	-0.08845401
95	0x3d6d8bc0	0.057994604
96	0x3dac1f75	0.084044375
97	0xbe4eaf52	-0.20184067
98	0x3e2a0663	0.16603999
99	0x3dadd04c	0.08486995
100	0xbb19bc16	-0.0023458055
101	0x3dbb2043	0.09137013
102	0x3c980a80	0.018559694
103	0x3d14eaec	0.03635685
104	0xbd8d03a5	-0.06885461
105	0xbc40c361	-0.011765332
106	0x3e1a6a79	0.15079679
107	0xbce1f18e	-0.027581003
108	0xbd47849f	-0.04871046
109	0xbd1fc205	-0.03900339
110	0xbe18cb4c	-0.14921302
111	0x3e71b0cf	0.23602603
112	0xbc09f7f6	-0.008420935
113	0x3e3fd4d6	0.18733534
114	0xbe3dbeb7	-0.18529783
115	0x3cee97e2	0.029125158
116	0xbd742802	-0.059608467
117	0x3d9a9a88	0.07549006
118	0xbe112655	-0.14174779
119	0xbd7c3383	-0.061572563
120	0xbca2a5ba	-0.019854415
121	0xbe03a741	-0.12856771
122	0x3ce49213	0.027901685
123	0x3cee8b69	0.02911921
124	0x3b2e390c	0.0026584296
125	0x3d3afbda	0.04565034
126	0xbcb5c171	-0.022186967
127	0x3c70076b	0.014650206
128	0xbdef0908	-0.116716444
129	0xbd043a91	-0.032282416
130	0xbd381ca5	-0.044949193
131	0x3bfd090f	0.007722027
132	0x3db995a6	0.09061746
133	0x3c96894c	0.018376015
134	0xbd99440c	-0.07483682
135	0x3cc3399b	0.02383118
136	0x3dd8bb1f	0.105825655
137	0xbd933bdd	-0.071891524
138	0xbde75acf	-0.11296617
139	0xbcf974b5	-0.030451158
140	0x3e248f74	0.16070348
141	0x3d999cec	0.075006336
142	0xbd96188f	-0.07328903
143	0x3db1833b	0.08667608
144	0xbd50ddb6	-0.05099269
145	0xbd2ec0a5	-0.04266419
146	0xbccdabac	-0.025106274
147	0xbd8d8e35	-0.069118895
148	0xbd7a2338	-0.061068743
149	0x3dde09e8	0.10841733
150	0xbdf73236	-0.12070124
151	0xbc77490a	-0.015093097
152	0x3a8ac6ac	0.0010587773
153	0xbd609995	-0.054833967
154	0xbca88c86	-0.02057482
155	0x3d81a09a	0.063294604
156	0xbd641d46	-0.05569198
157	0x3bc47df6	0.005996461
158	0xbbfda735	-0.00774088
159	0x3d0e9d5d	0.034818042
160	0x3d448be8	0.047984987
161	0x3e025ca8	0.12730658
162	0x3ceb07d8	0.028690264
163	0xbd846c83	-0.064660095
164	0xbd479a9d	-0.048731435
165	0xbdac4a89	-0.08412654
166	0x3e1df039	0.15423669
167	0x3c647ef4	0.013946284
168	0x3dcb0857	0.099137
169	0x3dacfc84	0.08446601
170	0xbdebcb13	-0.11513343
171	0x3d7549e9	0.05988494
172	0xbd88bd50	-0.066767335
173	0xbc8f80f2	-0.01751754
174	0x3d966402	0.07343294
175	0xbdb654f4	-0.08902922
176	0x3d9ec759	0.07752866
177	0x3e539360	0.20661688
178	0x3ba5625e	0.0050471267
179	0xbd00ec91	-0.031475607
180	0x3d84ad4f	0.064783685
181	0xbdc2718d	-0.09494314
182	0x3d280e36	0.041029178
183	0xbe025738	-0.12728584
184	0x3dac1bf2	0.08403768
185	0x3d229647	0.039694097
186	0xbd1fac82	-0.038982876
187	0x3dfcc202	0.123416916
188	0xbd78b7b7	-0.06072208
189	0xbd2e70a0	-0.042587876
190	0xbd9b2dd4	-0.075771004
191	0x3d8b1d30	0.067926764
192	0xbbbc12a0	-0.005739525
193	0x3e604d0b	0.2190439
194	0xbd488d1e	-0.048962705
195	0xbe263746	-0.16232023
196	0x3dfdaed1	0.12386859
197	0x3d3a0a00	0.045419693
198	0x3d97839f	0.073981516
199	0xbc8b6295	-0.017014781
200	0x3e5d4fdc	0.21612495
201	0xbcd12a73	-0.025532937
202	0x3dc747f8	0.09730524
203	0xbe07bf8b	-0.13256662
204	0xbb36f4ef	-0.0027916988
205	0x3cfba257	0.030717058
206	0xbd28e783	-0.04123641
207	0x3db9ce96	0.09072606
208	0x3d49155e	0.049092643
209	0x3cdeb4eb	0.027185878
210	0x3d809c27	0.06279784
211	0xbca63b5a	-0.020291973
212	0x3d37171c	0.044699773
213	0x3cc45c6a	0.023969848
214	0x3d84efba	0.06491037
215	0xbdcf50e0	-0.101228476
216	0x3dbd12b5	0.09232084
217	0xbd1dd667	-0.038534548
218	0xbc797f3f	-0.015228092
219	0xbdd92abc	-0.10603854
220	0x3d392655	0.045202572
221	0x3da2402d	0.07922397
222	0xbe409992	-0.18808582
223	0x3e481855	0.19540532
224	0x3d46a9c9	0.048501763
225	0xbe0a87cb	-0.13528363
226	0xbd7d7785	-0.06188156
227	0x3ce94bd7	0.028478546
228	0x3e216315	0.15760453
229	0xbda68e7f	-0.08132648
230	0xbd44143a	-0.047870852
231	0xbcde989e	-0.027172383
232	0xbd93f3b2	-0.072242156
233	0xbde6d26f	-0.11270606
234	0x3de2e3b2	0.11078586
235	0xbd225888	-0.03963521
236	0x3e2e4c1f	0.17021225
237	0xbd5681a4	-0.05236973
238	0xbd811eab	-0.063046776
239	0xbe016183	-0.12634854
240	0x3d169dab	0.036771458
241	0xba941b2d	-0.0011299603
242	0x3c89b1bd	0.016808385
243	0xbd7b420b	-0.06134228
244	0xbd77fd22	-0.06054414
245	0xbc73b70f	-0.014875188
246	0x3c10fae9	0.008848884
247	0xbd863b50	-0.06554282
248	0x3c8159b4	0.015789844
249	0xbcd370c1	-0.025810601
250	0xbe329c30	-0.17442393
251	0x3db0dc15	0.08635727
252	0x3d330161	0.043702487
253	0x3c9bdae9	0.019025283
254	0xbde9b678	-0.11411756
255	0x3d8997ec	0.0671843

action_model._discrete_distribution.branches.0.weight f4 [5, 128]
0	0x3ab0e528	0.0013496028
1	0xbc027058	-0.007961355
2	0x3bb08093	0.005386421
3	0xbc7a9e60	-0.015296549
4	0x395a7850	0.0002083492
5	0xbc987d03	-0.018614298
6	0x3b23adab	0.002497534
7	0xbbdea290	-0.0067942813
8	0x3b10b54d	0.002208072
9	0xbc9c50fb	-0.019081583
10	0x3b42d9c3	0.0029731847
11	0x3ab70366	0.0013962805
12	0x3c8c2d5f	0.017111478
13	0xbb604965	-0.0034223434
14	0x3c47b6e7	0.012189603
15	0xbc29d943	-0.010366741
16	0x3af44be5	0.0018638341
17	0x3c5f8a10	0.0136437565
18	0xbc71c000	-0.014755249
19	0x3c6a0be8	0.014285065
20	0x3b7a08b8	0.003815217
21	0x3bb09e5f	0.005389973
22	0xbbde670d	-0.006787187
23	0x3a492fa4	0.00076746405
24	0xb9db903a	-0.00041878392
25	0x3be7180a	0.007052426
26	0x3bfe1beb	0.007754793
27	0xbcc56b96	-0.024099153
28	0x3c0a5321	0.008442671
29	0xbb130ad6	-0.0022436879
30	0x39aee7b3	0.00033360496
31	0xbc79b862	-0.015241714
32	0x3cbc1c92	0.022962842
33	0xbccc5e1d	-0.02494722
34	0xba132fab	-0.0005614708
35	0x3b14e363	0.002271854
36	0x3be4b285	0.006979289
37	0xbac23821	-0.0014817753
38	0xbb9c72a0	-0.0047744066
39	0x3b205424	0.0024464214
40	0xbb7d7d10	-0.003867928
41	0x3b47b10b	0.0030470516
42	0x3c52a6a0	0.012857109
43	0x3ce57287	0.028008712
44	0x3bbd507d	0.005777417
45	0xbabaa263	-0.0014239069
46	0xbc191980	-0.009344459
47	0xbb945f93	-0.004527995
48	0x3a99b6cd	0.0011727453
49	0xbc400e6f	-0.011722191
50	0x3b100ae7	0.0021979155
51	0xbb881f8c	-0.0041541513
52	0xbaf86c8b	-0.0018953247
53	0xbc980a82	-0.018559698
54	0xbc71d827	-0.014761007
55	0x3b302a23	0.0026880584
56	0x3c85357b	0.016260853
57	0x3afdf08f	0.001937406
58	0x3aa67fb4	0.0012702853
59	0x3c0ebfff	0.008712768
60	0x3b5c2108	0.0033589024
61	0xbc3d212e	-0.011543555
62	0xbb990d6f	-0.004670791
63	0xba7cdd5d	-0.0009646023
64	0xbc765f1d	-0.015037325
65	0x3c59598d	0.0132659795
66	0x3b5faf13	0.0034131452
67	0x3c237826	0.009977376
68	0x3c64868b	0.013948093
69	0xbc117fe7	-0.008880592
70	0xbbeb8be5	-0.0071883076
71	0x3c8877ab	0.016658625
72	0xb9c1477a	-0.00036865083
73	0xbbc1f41c	-0.0059189927
74	0x3b8dca4b	0.0043270937
75	0x3c0f6a56	0.00875338
76	0xbc1e4309	-0.009659537
77	0x3ae3eac7	0.0017388695
78	0x3bf51068	0.0074787624
79	0xbc987ced	-0.018614257
80	0xbbc4a708	-0.006001357
81	0xb979f3ba	-0.00023837286
82	0xbc1eeaa4	-0.009699497
83	0xbc4b90fd	-0.012424705
84	0xbc53222f	-0.012886568
85	0x3b8f6b43	0.0043768003
86	0xbb330622	-0.0027316888
87	0x3be7b5ab	0.007071217
88	0x3c5bde7d	0.013419745
89	0xbc58a50d	-0.013222945
90	0x3bc911e4	0.006136166
91	0x3c1dc276	0.009628883
92	0x3b67bd27	0.0035360546
93	0x3bf623f3	0.0075116097
94	0x3c11009f	0.008850246
95	0xbc194d73	-0.009356844
96	0xbc1d0ccc	-0.009585571
97	0xbc8cea13	-0.017201459
98	0x3c936e5f	0.017996965
99	0x37a79652	1.997795e-05
100	0x3c12f737	0.008970073
101	0xba06913a	-0.0005133335
102	0xbb5f7c58	-0.0034101214
103	0x3bcac4af	0.0061879973
104	0xbbe41093	-0.0069599836
105	0xbb9963f3	-0.0046811043
106	0xbb0dbc94	-0.0021627294
107	0x3b966216	0.0045893295
108	0xbb79e733	-0.003813219
109	0x3b139595	0.0022519578
110	0xbbb3449a	-0.0054708244
111	0x3c93d653	0.018046534
112	0xbbd38a13	-0.0064556687
113	0xbc1f3a27	-0.009718454
114	0x3b601a73	0.0034195452
115	0xbbd86825	-0.006604212
116	0x3bdddb07	0.006770495
117	0xbab2bc43	-0.0013636429
118	0xbaf0a14d	-0.0018358618
119	0x3c223ae1	0.009901733
120	0x3bd7c15d	0.00658433
121	0xbb7bbfc0	-0.0038413852
122	0xbc287c05	-0.010283475
123	0xbbe3a76f	-0.00694745
124	0xbb7bfc55	-0.0038449962
125	0xbbcc7a72	-0.0062401826
126	0xbc1b54c5	-0.00948066
127	0x39f922d3	0.00047518927
128	0xbc522a9a	-0.01282754
129	0x3c235c29	0.009970703
130	0xbb6a011a	-0.0035706223
131	0xbba6e403	-0.005093099
132	0x3c01eb3f	0.007929622
133	0x3c08e578	0.008355491
134	0xbc7d9f37	-0.015479854
135	0xbad37b4d	-0.0016134769
136	0xbc66f8c2	-0.014097394
137	0xbc3ad79f	-0.011403947
138	0xbc318583	-0.010835054
139	0xbb0ad867	-0.0021186115
140	0x3b9a8f03	0.0047167554
141	0x3a626add	0.00086371397
142	0x3c107f2e	0.0088193845
143	0x3c360d68	0.011111595
144	0xbb6a2e68	-0.0035733227
145	0xbb30a35f	-0.0026952846
146	0x3b3fb29b	0.0029250744
147	0x39436e57	0.00018637754
148	0xbbdd8b7d	-0.006761013
149	0xbbaf245c	-0.0053449105
150	0x3a143592	0.00056537346
151	0x38c90871	9.585999e-05
152	0xbb2e6a03	-0.002661348
153	0xbc3bf3c3	-0.011471692
154	0xbbb98271	-0.005661302
155	0x3c1bfcc5	0.009520714
156	0x3a352591	0.00069102
157	0xbca0d138	-0.019631013
158	0x3c14291e	0.009043006
159	0xbb886acf	-0.004163123
160	0xbc0c41d5	-0.008560617
161	0xbadf892f	-0.0017054434
162	0x3bdeb5e8	0.0067965873
163	0xbbc2cfe0	-0.005945191
164	0xba0a2f20	-0.00052713044
165	0x3c601075	0.013675799
166	0x3c325717	0.010885022
167	0xbc59bc40	-0.013289511
168	0xbbcfd9d5	-0.0063431063
169	0xbc5c459f	-0.013444333
170	0x3be18c03	0.006883146
171	0x3ba3cec3	0.004999013
172	0xbbd3ba5f	-0.006461426
173	0x3c978353	0.018495237
174	0xbbc928b5	-0.006138886
175	0x3bdd63bf	0.0067562754
176	0x3b9f2d4e	0.0048576957
177	0x3c2de10b	0.010612736
178	0xbc21bff6	-0.009872427
179	0xbb6cbb20	-0.0036122277
180	0x3b450d0b	0.0030067589
181	0x3c98b757	0.01864211
182	0x3b49e2b7	0.0030805299
183	0xba9978f3	-0.0011709019
184	0x3bd2f5e0	0.006438002
185	0xbb1c1d58	-0.0023821201
186	0x3b935727	0.0044964734
187	0xbb2c1fab	-0.0026263993
188	0xbc89cba5	-0.016820738
189	0x38f1cb18	0.00011529605
190	0x3b680cc2	0.0035407995
191	0x3c2d5a8f	0.010580673
192	0x3c16f1ff	0.00921297
193	0xbbaba82b	-0.005238553
194	0x3c170684	0.009217862
195	0x3bf660ab	0.007518848
196	0xbae7b752	-0.0017678535
197	0xbbc397c2	-0.0059690187
198	0xbb7b2c6d	-0.003832604
199	0xbc6586f3	-0.014009225
200	0x3a94491c	0.0011313292
201	0xbbe0350d	-0.0068422616
202	0x3c2d0337	0.0105598485
203	0x3c620df8	0.013797276
204	0xba899002	-0.0010495188
205	0xbbc248a8	-0.0059290715
206	0xbc56aa82	-0.013102176
207	0x3baefac0	0.0053399503
208	0x3ca1de27	0.01975925
209	0xb91faf6b	-0.0001522877
210	0xbc81b3e3	-0.015832847
211	0xbabbde93	-0.00143333
212	0xbb14ed08	-0.002272429
213	0xbbe6b145	-0.007040175
214	0x3c9d3e4f	0.01919475
215	0xbaf2b76a	-0.0018517796
216	0xbb570f8f	-0.003281567
217	0xbb7d0fba	-0.003861411
218	0x3b8be37f	0.004269063
219	0xbc0d249b	-0.008614684
220	0x38ed7135	0.00011322127
221	0x3c62fcba	0.0138542
222	0xbaae7ea7	-0.0013312892
223	0x3b520495	0.0032046188
224	0x3b9a4774	0.004708225
225	0xbb552ca3	-0.0032527826
226	0x3caa6bf3	0.020803427
227	0xba225405	-0.00061923295
228	0x3b16b433	0.002299559
229	0xbb3dfcab	-0.0028989713
230	0xbbe5894d	-0.007004893
231	0x3c8189f8	0.015812859
232	0xbc504d7a	-0.012713784
233	0x3b007ea3	0.0019606731
234	0x3c53c01f	0.012924223
235	0xbc74a4e8	-0.014931895
236	0xbbdfb04d	-0.0068264366
237	0x3c03141d	0.008000401
238	0xbb63a8e3	-0.0034738116
239	0x3c4bb7a7	0.012433923
240	0x3c580417	0.013184569
241	0x3c0af930	0.0084822625
242	0xb7cc5e56	-2.4362624e-05
243	0x3c23ff43	0.01000959
244	0xbb030455	-0.0019991596
245	0x3c0a564e	0.008443428
246	0x3b8c7fb3	0.004287684
247	0x3c19831b	0.009369637
248	0xba8f1a2e	-0.0010917836
249	0xbb85bf55	-0.0040816464
250	0x3bf6db4d	0.007533467
251	0x3c7f74f2	0.015591847
252	0x3b8293a1	0.003984884
253	0xbbbea0a3	-0.0058174892
254	0xbbaf4b0d	-0.005349523
255	0x3c094403	0.008378032

action_model._discrete_distribution.branches.0.bias f4 [5]
0	0x00000000	0.0
1	0x00000000	0.0
2	0x00000000	0.0
3	0x00000000	0.0
4	0x00000000	0.0
