results/MoveToGoal2/MoveToGoal/MoveToGoal-4359.pt (torch, 442525 bytes, 36 tensors)

network_body._body_endoder.seq_layers.0.weight f4 [128, 6]
-0.085898325 0.5220522 0.21878977 -0.19146737 -0.41712204 0.013050761 0.1262356 -0.12406621
-0.27705097 0.64542073 -0.010510488 0.35731 0.11346892 -0.3393075 -0.22884364 0.5579938
0.06644055 0.3019803 0.14556219 0.5560785 0.6706377 -0.10412454 -0.12729995 -0.4953516
0.5670769 -1.0526596 0.5013219 0.20566925 -0.20779781 -0.40665555 -0.65114385 -0.49446684
-0.08911963 0.41315356 0.7260021 0.5505968 -0.69003123 0.1889579 -0.34114727 -1.0708182
0.17504969 0.41893542 0.46102104 -0.01407868 0.057730563 -0.0986113 -0.20208201 0.13945682
0.014950769 -0.647797 -0.70779467 0.1649199 -0.4582236 0.042910855 -0.012098419 1.0499161
-0.054109775 -0.6179262 -0.5829674 -0.60961515 -0.15308756 0.22587827 -0.10621907 0.81239754
0.5445009 0.083348736 -0.05630091 -0.16927215 -0.27920562 0.25282153 -0.342597 -0.21729425
0.030696485 -1.020795 -0.269427 -0.1650281 -0.07742214 0.14057614 -0.4151979 -0.24831691
0.26291236 -1.0095916 0.34443587 -0.6459398 0.18598674 0.078155376 0.28210554 -0.03575382
0.59237313 0.24989314 -0.3014717 0.048734616 -0.3033509 -0.68920845 -0.045153767 0.43946692
-0.36649916 0.35821372 0.2774531 0.2333249 -0.482844 -0.118944414 -0.16976883 0.23829845
-0.16758573 -0.39062586 -0.473957 0.6528413 0.09078453 -0.17130962 -0.09056191 -0.2471513
-0.62160933 0.6483254 -0.24359033 0.017665949 -1.0179533 0.30457154 0.13282683 0.37628993
0.15738724 -0.43100363 -0.44919553 -0.39779693 4.7335696e-05 0.6684462 -0.63874406 0.674419
-0.499554 0.22117181 -0.14656278 -0.015511311 -0.17603333 0.22394496 0.17667387 0.44456774
0.73501724 0.27811456 -0.12992828 -0.14360946 0.062057436 0.58709055 -0.070691116 -0.03364168
0.650694 -0.52870655 -0.6033422 -0.22233981 0.5108346 0.10674534 -0.26903284 0.41170603
0.16069317 0.56623805 -0.35839865 -0.42651346 -0.27398235 0.89518 1.2615037 -0.44306552
-0.44553855 0.6210599 -0.5662301 0.14597793 -0.1385659 0.6567185 0.045359932 0.061463915
-0.15336698 -0.7567427 -0.32644546 0.23957814 -0.3826094 -1.1185125 0.020021226 0.015416701
0.8554665 0.61385167 0.49052924 0.6280223 -0.6165702 0.20821594 0.47130823 0.05145959
-0.059491526 -0.15828806 -0.12466023 0.87045264 0.72093534 0.4165758 -0.9413999 -0.76087624
0.43152493 0.38814268 -0.4192703 -0.20192276 -1.0881531 -0.51485795 0.36437482 -0.17679897
-0.18807451 -0.13290289 -0.08140564 0.47383776 0.19484332 0.2102798 -0.40190023 -0.1789308
0.20185289 1.2261133 0.6481508 0.16536999 -0.3151855 0.34962577 0.94386446 0.20854504
-0.8096592 -0.5447977 0.29636857 -0.12083963 0.056463398 0.07326487 -0.09394337 0.7548612
-0.19641824 -0.45487356 0.46548662 -0.3950687 -0.5718724 -0.94126964 0.13367039 0.17201012
-0.054061618 -0.2679818 -0.017292703 0.06802927 0.1945397 0.14091371 -0.83370167 -0.25788653
1.0115455 -0.044541527 0.3148104 0.20280349 0.060451344 0.3761186 -0.296069 -0.27029166
0.63272893 -0.12505408 -0.63564056 1.070081 -0.38891095 0.04577321 -0.2817152 0.011767138
00000000: 76eb afbd 37a5 053f 6d0a 603e 0610 44be
00000010: 0591 d5be dcd2 553c e843 013e 6d16 febd
00000020: a0d9 8dbe 4b3a 253f 2f34 2cbc 56f1 b63e
00000030: 6562 e83d b6b9 adbe fd55 6abe afd8 0e3f
00000040: fc11 883d 299d 9a3e 410e 153e 295b 0e3f
00000050: eaae 2b3f 3f3f d5bd eb5a 02be ba9e fdbe
00000060: f42b 113f 8dbd 86bf a256 003f f69a 523e
00000070: f3c8 54be 2835 d0be 5db1 26bf c22a fdbe
00000080: 5a84 b6bd dd88 d33e 46db 393f e9f3 0c3f
00000090: e3a5 30bf 2e7e 413e dbaa aebe 9210 89bf
000000a0: 3a40 333e b47e d63e f30a ec3e 44aa 66bc
000000b0: e276 6c3d b9f4 c9bd 96ee 4ebe c5cd 0e3e
000000c0: 12f4 743c 06d6 25bf 0832 35bf c3e0 283e
000000d0: 499c eabe 4bc3 2f3d 7238 46bc a763 863f
000000e0: 36a2 5dbd 6930 1ebf 5a3d 15bf bd0f 1cbf
000000f0: fcc2 1cbe a24c 673e 6289 d9bd 49f9 4f3f
00000100: 6964 0b3f beb2 aa3d c89b 66bd ae55 2dbe
00000110: 0af4 8ebe d371 813e e068 afbe 6282 5ebe
00000120: 3277 fb3c 69a9 82bf 56f2 89be 20fd 28be
00000130: 808f 9ebd 31f3 0f3e d294 d4be ca46 7ebe
00000140: 739c 863e 4c3a 81bf e659 b03e 505c 25bf
00000150: 4f73 3e3e ed0f a03d 2370 903e 9972 12bd
00000160: c4a5 173f fde3 7f3e 805a 9abe f39d 473d
00000170: cf50 9bbe f76f 30bf 28f3 38bd cf01 e13e
00000180: c7a5 bbbe ca67 b73e 550e 8e3e b9ec 6e3e
00000190: 5437 f7be 2199 f3bd e1d7 2dbe 8204 743e
000001a0: 989b 2bbe 1d00 c8be 7eaa f2be 9c20 273f
000001b0: 3ded b93d ca6b 2fbe 8678 b9bd 3b15 7dbe
000001c0: ca21 1fbf a7f8 253f be6f 79be 2eb8 903c
000001d0: 4b4c 82bf cdf0 9b3e c203 083e 13a9 c03e
000001e0: 1f2a 213e 82ac dcbe f5fc e5be 0aac cbbe
000001f0: 518a 4638 4a1f 2b3f bb84 23bf b9a6 2c3f
00000200: 8bc5 ffbe dd7a 623e 8e14 16be 2723 7ebc
00000210: 1542 34be d451 653e ffe9 343e 629e e33e
00000220: 172a 3c3f 0865 8e3e eb0b 05be 5c0e 13be
00000230: f02f 7e3d 914b 163f 81c6 90bd dccb 09bd
00000240: e293 263f 5059 07bf a274 1abf 0cad 63be
00000250: 0ec6 023f 4d9d da3d acbe 89be 22cb d23e
00000260: c08c 243e faf4 103f 0780 b7be f95f dabe
00000270: 6a47 8cbe 842a 653f f478 a13f 7cd9 e2be
00000280: a11d e4be c8fd 1e3f 75f4 10bf 3d7b 153e
00000290: 38e4 0dbe b41e 283f 56cb 393d 96c1 7b3d
000002a0: 3c0c 1dbe e4b9 41bf dc23 a7be f953 753e
000002b0: 61e5 c3be 6b2b 8fbf 8e03 a43c 5596 7c3c
000002c0: daff 5a3f 6225 1d3f a626 fb3e 12c6 203f
000002d0: 8bd7 1dbf 8f36 553e 504f f13e 4bc7 523d
000002e0: 63ad 73bd 4416 22be dd4d ffbd fcd5 5e3f
000002f0: 388f 383f 6c49 d53e 95ff 70bf c9c8 42bf
00000300: d6f0 dc3e a3ba c63e 99aa d6be d7c4 4ebe
00000310: 9a48 8bbf bbcd 03bf 568f ba3e ca0a 35be
00000320: 9b96 40be b217 08be 00b8 a6bd dd9a f23e
00000330: 0285 473e 9753 573e dec5 cdbe a339 37be
00000340: 86b2 4e3e 48f1 9c3f 36ed 253f c056 293e
00000350: fe5f a1be 2602 b33e 1aa1 713f d58c 553e
00000360: d345 4fbf dd77 0bbf 9fbd 973e c57a f7bd
00000370: 2a46 673d e40b 963d 6265 c0bd 953e 413f
00000380: dd21 49be 30e5 e8be 4354 ee3e 7246 cabe
00000390: 3b66 12bf 0cf7 70bf e4e0 083e 6c23 303e
000003a0: b76f 5dbd e934 89be 6da9 8dbc ee52 8b3d
000003b0: 6a35 473e af4b 103e 796d 55bf b409 84be
000003c0: 537a 813f 2d71 36bd d42e a13e b8ab 4f3e
000003d0: d49b 773d 9e92 c03e 5b96 97be ab63 8abe
000003e0: 86fa 213f 2d0e 00be 57b9 22bf 6af8 883f
000003f0: 561f c7be b07c 3b3d fa3c 90be f4ca 403c

network_body._body_endoder.seq_layers.0.bias f4 [128]
0.0038964257 -0.008843766 0.0019289756 0.012606758 -0.008058009 0.015245212 -0.0074822595 0.0035294367
-0.020804498 -0.006032296 0.0028596248 -0.004205365 -0.010237144 -0.0021584455 0.0056713196 0.008110729
0.016391536 -0.0060673906 -0.016531315 0.008198853 -0.016259711 0.0035950101 0.013287336 0.008645356
-0.0057281204 0.012349961 0.035331752 0.018467508 -0.026805604 -0.0011890774 0.0034787243 0.0031406402
-0.007226807 0.0054511772 -0.006374249 0.0063971407 0.00046831422 -0.004606884 0.008805187 0.01172651
-0.012277382 -0.010492583 -0.015498778 -0.033420477 0.008052 0.016502786 0.01861271 0.007381156
-0.0062076505 0.00015781347 -0.003656344 0.0005159118 0.009662353 0.004786037 -0.014867942 0.010270975
-0.00896026 0.019819552 0.007451842 -0.010822505 -0.0005593821 0.0022314233 0.01425763 0.0043017995
-0.012949141 0.0053178007 -0.018832406 -0.012647573 -0.010068154 0.010102206 0.0048656585 0.0031185052
-0.0005179443 -0.017527694 0.026010087 -0.004742479 -0.010688822 0.00014467239 -0.011892268 0.0016384624
-0.008703682 -0.00032227303 -0.006847087 0.0010115611 -0.0064129755 -0.003961767 0.002543997 -0.009329199
-0.0068699857 -0.0042500366 0.017194469 0.008203806 -0.0022694604 0.011532507 -0.015281884 -0.0034194868
-0.0070168455 -0.0067457748 0.0030322615 -0.012718351 -0.0066247405 -0.015410765 0.020316912 -0.020463333
-0.0042826845 -0.0046668053 -0.0044479403 -0.00218017 0.018119598 0.0009730946 -0.009394233 -0.012293387
0.005253226 -0.0075039803 -0.0043818234 0.016751127 -0.008380107 -0.021175502 0.02088546 -0.00037537413
-0.015000553 0.0023237504 -0.011734767 -0.014421622 0.009630279 -0.004401711 0.0076449485 -0.00021988206
00000000: 2d5b 7f3b 71e5 10bc aed5 fc3a 938c 4e3c
00000010: bd05 04bc 0ec7 793c be2d f5bb 1f4e 673b
00000020: 326e aabc 91aa c5bb 8b68 3b3b 29cd 89bb
00000030: b2b9 27bc b574 0dbb 7ad6 b93b dde2 043c
00000040: 8b47 863c f6d0 c6bb ae6c 87bc 7b54 063c
00000050: 1633 85bc 439a 6b3b 20b3 593c 40a5 0d3c
00000060: f5b2 bbbb 7e57 4a3c 07b8 103d 2c49 973c
00000070: 6d97 dbbc d1da 9bba 4ffb 633b 33d3 4d3b
00000080: dace ecbb ca9f b23b 13df d0bb 1b9f d13b
00000090: 1288 f539 58f5 96bb a243 103c 8c20 403c
000000a0: 1327 49bc 15e9 2bbc 96ee 7dbc e9e3 08bd
000000b0: 89ec 033c da30 873c af79 983c a0dd f13b
000000c0: 8c69 cbbb bb7a 2539 469f 6fbb 413e 073a
000000d0: d94e 1e3c 30d4 9c3b ab98 73bc 9747 283c
000000e0: 0ece 12bc 9d5c a23c 952e f43b e050 31bc
000000f0: 7fa3 12ba 123d 123b d698 693c 1cf6 8c3b
00000100: a228 54bc f240 ae3b 6b46 9abc c437 4fbc
00000110: e6f4 24bc b983 253c 1a70 9f3b d65f 4c3b
00000120: a7c6 07ba 3d96 8fbc 1b13 d53c cc66 9bbb
00000130: 2b20 2fbc 33b3 1739 cad7 42bc adc1 d63a
00000140: e399 0ebc c1f6 a8b9 875d e0bb 5c96 843a
00000150: f023 d2bb b6d1 81bb 30b9 263b 7fd9 18bc
00000160: 9e1d e1bb e443 8bbb 6adb 8c3c 4269 063c
00000170: 3abb 14bb d7f2 3c3c de60 7abc 7819 60bb
00000180: 91ed e5bb a90b ddbb e8b8 463b a160 50bc
00000190: 5a14 d9bb 6f7d 7cbc a76f a63c b8a2 a7bc
000001a0: c355 8cbb 00ec 98bb 07c0 91bb 2fe1 0ebb
000001b0: 8d6f 943c 4617 7f3a 45ea 19bc 346a 49bc
000001c0: 4123 ac3b f3e3 f5bb 6695 8fbb a939 893c
000001d0: b74c 09bc 3f78 adbc fc17 ab3c ddcd c4b9
000001e0: e1c4 75bc 104a 183b 2e43 40bc ab48 6cbc
000001f0: 51c8 1d3c 3a3c 90bb 7a82 fa3b 2490 66b9

network_body._body_endoder.seq_layers.2.weight f4 [128, 128]
-0.08792554 -0.020154567 -0.001170481 -0.03284313 0.18537925 0.008615225 -0.2704845 -0.1200791
-0.033620153 -0.008017565 -0.03490777 0.004659198 -0.008339511 0.103727885 0.10682072 -0.05454663
0.1303092 -0.071348794 0.025906365 -0.20070538 0.10052895 0.11113163 -0.086297825 -0.011905806
-0.035904117 -0.15493873 0.034041457 0.18446587 -0.025428083 -0.0026974827 -0.2145065 0.055828124
0.16476467 -0.078571424 -0.019768689 0.015819274 -0.026089028 -0.009364168 -0.08640721 0.011176069
-0.041756496 -0.025271058 -0.028959466 -0.003815784 -0.060700104 0.056829974 -0.051049754 0.14868419
0.045816373 0.088395424 -0.1239534 -0.010502015 -0.16524306 -0.09776915 0.09441996 -0.010157112
0.14321648 -0.067061864 0.034713477 0.12386619 0.052183326 -0.052783772 0.015422425 -0.049444113
0.120473586 0.018267807 -0.008918363 0.0051220316 0.0074975886 -0.08078437 -0.1814191 0.08586285
-0.09187083 -0.09391291 -0.05316963 0.08070571 0.05842122 -0.037578072 -0.07798043 -0.045950737
0.020590879 0.14981432 -0.030441336 -0.122753754 0.024244417 -0.06536221 0.016009923 -0.04562309
-0.02271029 0.13390903 0.00967618 0.041467253 -0.026610633 0.083394185 -0.022677904 0.07280682
-0.063569665 -0.024981117 0.019946655 -0.043212146 0.05428156 -0.20341927 -0.06773315 0.020552987
-0.086114995 0.06844865 0.011690473 0.15501091 -0.029180162 -0.04303309 0.033836707 -0.018176455
-0.016435547 0.011883539 0.09922657 0.09409446 -0.052084047 -0.05337024 -0.041771453 0.03238069
0.009527572 -0.031249216 -0.028497053 0.0042808754 0.026235033 -0.09467716 -0.06772572 -0.081274405
0.05109205 -0.04149376 -0.10695121 0.03168672 -0.15475456 -0.119522914 0.058553778 0.069024175
0.0997483 -0.13316357 -0.10145248 -0.11884447 0.09739739 0.089571215 -0.021584334 -0.005045105
0.037098963 -0.14754255 -0.0944039 0.11358068 0.1067718 0.003911264 -0.097788244 -0.16773258
0.09542546 0.10500516 0.06896222 -0.15899839 0.013820075 -0.087248534 -0.048316736 -0.038834512
0.06580116 -0.037219167 0.06332183 0.019494185 0.056538563 -0.06624694 -0.09373046 -0.024748465
0.038289502 0.18126325 0.03404441 -0.048026614 -0.117748216 -0.0271128 0.10340779 -0.20852435
0.040812436 0.097643465 0.00428293 -0.008783144 0.05518641 0.0832343 0.084586985 -0.08977162
-0.04925032 -0.07235612 -0.10500975 -0.066948004 -0.10119442 0.08153474 0.07415403 -0.033186264
0.1041867 -0.08095747 -0.005307326 -0.119734585 -0.07103711 0.06740559 -0.0046771504 -0.16966398
0.12121373 0.032421328 0.033617288 -0.03892269 0.048623342 0.119072676 -0.21444277 -0.019872414
0.020080391 -0.057990413 0.032172628 0.014827753 0.06031702 0.038890786 0.00028139638 -0.13458866
-0.09260626 0.05449296 -0.06601273 -0.043673407 -0.04561819 0.025781924 -0.13453308 0.04092002
0.06733301 0.20255417 0.17934954 -0.09992451 -0.0574661 0.046642367 0.11864524 -0.05400578
0.10596322 0.0643376 -0.11828775 -0.09915237 -0.12248228 -0.00094401184 0.021775076 0.017888412
0.020622812 -0.13745384 -0.06393617 0.18269967 0.012431498 -0.11537269 0.1045987 0.026852721
-0.1345075 0.09504957 0.069635704 -0.054154593 -0.03252657 0.12342996 0.032521073 0.047228258
00000000: 4e12 b4bd 311b a5bc d36a 99ba 8586 06bd
00000010: 0fd4 3d3e df26 0d3c f27c 8abe 08ec f5bd
00000020: 49b5 09bd 1b5c 03bc 73fb 0ebd 30ac 983b
00000030: 72a2 08bc 496f d43d d2c4 da3d 496c 5fbd
00000040: c66f 053e 511f 92bd 9639 d43c b685 4dbe
00000050: 1fe2 cd3d fb98 e33d eabc b0bd 9210 43bc
00000060: 3210 13bd 42a8 1ebe 0e6f 0b3d 9fe4 3c3e
00000070: 8e4e d0bc 40c8 30bb 98a7 5bbe 08ac 643d
00000080: 12b8 283e 0eea a0bd f2f1 a1bc 6c97 813c
00000090: a8b8 d5bc 2b6c 19bc 43f6 b0bd d51b 373c
000000a0: dc08 2bbd 4005 cfbc 673c edbc 3b12 7abb
000000b0: aca0 78bd 8cc6 683d 8c19 51bd ab40 183e
000000c0: f3a9 3b3d a908 b53d 48db fdbd a510 2cbc
000000d0: 7a35 29be 313b c8bd 415f c13d 046a 26bc
000000e0: 57a7 123e bb57 89bd b82f 0e3d 8fad fd3d
000000f0: 2fbe 553d cc33 58bd 57ae 7c3c e985 4abd
00000100: dbba f63d 5ea6 953c 531e 12bc b7d6 a73b
00000110: 55ae f53b 4772 a5bd eec5 39be ddd8 af3d
00000120: c626 bcbd 6955 c0bd 66c8 59bd 0949 a53d
00000130: 174b 6f3d 77eb 19bd 34b4 9fbd d736 3cbd
00000140: 34ae a83c ed68 193e 1c60 f9bc 5266 fbbd
00000150: 3a9c c63c 9fdc 85bd 3e27 833c 47df 3abd
00000160: ee0a babc 731f 093e d788 1e3c 91d9 293d
00000170: 8bfe d9bc 92ca aa3d 03c7 b9bc be1b 953d
00000180: d030 82bd 33a5 ccbc 2b67 a33c 38ff 30bd
00000190: 5756 5e3d 244d 50be aeb7 8abd bd5e a83c
000001a0: 0f5d b0bd ce2e 8c3d 6689 3f3c 2ebb 1e3e
000001b0: 3c0b efbc 7743 30bd 5c98 0a3d cae6 94bc
000001c0: d7a3 86bc 2db3 423c 4d37 cb3d 99b4 c03d
000001d0: 1556 55bd c19a 5abd 8b18 2bbd 9da1 043d
000001e0: 8919 1c3c 5bfe ffbc a772 e9bc 9646 8c3b
000001f0: daea d63c 19e6 c1bd c8b3 8abd 3273 a6bd
00000200: e645 513d 5cf5 29bd 3c09 dbbd efc9 013d
00000210: fb77 1ebe 6ec8 f4bd 16d6 6f3d 8c5c 8d3d
00000220: d648 cc3d 085c 08be 51c6 cfbd bb64 f3bd
00000230: 4878 c73d 1d71 b73d a1d1 b0bc 6851 a5bb
00000240: 15f5 173d 6515 17be d556 c1bd fd9c e83d
00000250: 2cab da3d 0f2a 803b 3445 c8bd 17c2 2bbe
00000260: 6c6e c33d f20c d73d 103c 8d3d 79d0 22be
00000270: 996d 623c 5caf b2bd c5e7 45bd f010 1fbd
00000280: c2c2 863d 2073 18bd e0ae 813d 45b2 9f3c
00000290: fb94 673d 7aac 87bd c1f5 bfbd 4bbd cabc
000002a0: 74d5 1c3d 139d 393e 2772 0b3d 8eb7 44bd
000002b0: fa25 f1bd aa1b debc 77c7 d33d 6887 55be
000002c0: f12a 273d 4cf9 c73d d257 8c3b 2de7 0fbc
000002d0: 250b 623d bf76 aa3d f13b ad3d 2fda b7bd
000002e0: b4ba 49bd 722f 94bd 5a0f d7bd 091c 89bd
000002f0: 053f cfbd b0fb a63d 11de 973d 52ee 07bd
00000300: d65f d53d 08cd a5bd 14e9 adbb 6837 f5bd
00000310: e87b 91bd f10b 8a3d c842 99bb 65bc 2dbe
00000320: e73e f83d 3acc 043d 48b2 093d 666d 1fbd
00000330: 4529 473d 60dc f33d e396 5bbe 79cb a2bc
00000340: a27f a43c 5b87 6dbd 72c7 033d 1bf0 723c
00000350: fb0e 773d f24b 1f3d 6288 9339 9cd1 09be
00000360: 5aa8 bdbd 0334 5f3d af31 87bd e3e2 32bd
00000370: 24da 3abd 9d34 d33c 0ac3 09be c09b 273d
00000380: e4e5 893d 5c6a 4f3e 68a7 373e 39a5 ccbd
00000390: 9361 6bbd 110c 3f3d 47fc f23d 2a35 5dbd
000003a0: 3f03 d93d 6ec3 833d d940 f2bd 6610 cbbd
000003b0: fdd7 fabd 9077 77ba a561 b23c b88a 923c
000003c0: 2cf1 a83c b3c0 0cbe f7f0 82bd 9f15 3b3e
000003d0: 7bad 4b3c 8448 ecbd d837 d63d 3dfa db3c
000003e0: 56bc 09be 59a9 c23d 2a9d 8e3d 35d1 5dbd
000003f0: 953a 05bd d9c8 fc3d d134 053d 6b72 413d

network_body._body_endoder.seq_layers.2.bias f4 [128]
-0.018798204 0.0029352873 -0.0021103192 -0.0019527808 0.0031045259 -0.010716717 -0.02106437 -0.007030004
0.00647616 -0.024996376 -0.0062650563 0.011809079 -0.00058201054 0.001715062 -0.011217558 -0.0063664443
0.024886083 0.0089313295 0.005228196 0.0053460635 -0.009885202 0.024464734 0.010763226 -0.009224084
0.002737776 -0.012487955 0.0022011239 -0.011945574 -0.010740199 0.0010632465 0.008845327 0.0042118914
0.0064282226 -0.0047959024 -0.0061431974 -0.012533236 -0.012472337 -0.014685128 0.020177115 -0.009181322
-0.007287118 0.02227721 -0.015113351 -0.013285226 0.009990217 -0.018124668 -0.009332839 -0.01190065
-0.02083478 -0.0015609929 -0.015307979 -0.020239674 0.0049354853 -0.0017971133 0.01019543 -0.013592125
-0.004875565 -0.012297635 0.014111474 0.0030144167 0.011378203 0.0069210576 -0.017284311 0.00028744573
0.02519767 -0.025819357 0.0034840712 -0.0011619165 0.007583635 -0.0037669032 -0.013471966 -0.012152726
0.020161172 -0.016861673 0.004029397 -0.014696537 -0.007020293 0.0050437036 -0.0127347885 -0.01633075
-0.020352552 0.011989592 -0.018961301 -0.003965269 0.00327395 0.00014185783 0.0107154595 0.0042944415
-0.017855661 -0.0021381883 -0.0009547247 0.014545341 -0.0076706028 -0.0008988302 -0.018594652 -0.012339389
0.00501826 0.0055435915 -0.01721802 0.01886204 0.016178716 -0.018800663 0.008433687 0.0032183668
-0.0038952956 -0.024953563 -0.0117322095 0.011201692 0.02956148 0.0135400435 -0.0039929743 -0.006931781
-0.01036843 -0.011305896 0.012384088 0.0041109473 -0.005803085 -0.0016301562 0.0146605335 0.023285534
0.00045714137 0.0037533224 -0.0115259 0.004492308 0.023050489 0.019184258 0.007966753 -0.0008267668
00000000: b1fe 99bc f35d 403b 484d 0abb 73f4 ffba
00000010: 4d75 4b3b 2b95 2fbc 308f acbc f35b e6bb
00000020: f835 d43b 33c5 ccbc 1a4b cdbb de7a 413c
00000030: 1192 18ba eecb e03a d9c9 37bc 9b9d d0bb
00000040: e6dd cb3c b654 123c 4951 ab3b 082e af3b
00000050: 8bf5 21bc 446a c83c 3e58 303c 9d20 17bc
00000060: 426c 333b 489a 4cbc bb40 103b 5eb7 43bc
00000070: a9f7 2fbc a25c 8b3a feeb 103c e803 8a3b
00000080: d7a3 d23b f226 9dbb e04c c9bb 3458 4dbc
00000090: c658 4cbc e499 70bc 7a4a a53c 416d 16bc
000000a0: c7c8 eebb b27e b63c fd9d 77bc 47aa 59bc
000000b0: 02ae 233c 2f7a 94bc c4e8 18bc f2fa 42bc
000000c0: b3ad aabc 3b9a ccba 51ce 7abc accd a5bc
000000d0: dab9 a13b 1e8d ebba bc0a 273c 81b1 5ebc
000000e0: 34c3 9fbb 057c 49bc d033 673c 858d 453b
000000f0: a46b 3a3c 0aca e23b d497 8dbc 50b4 9639
00000100: 586b ce3c 1e83 d3bc 0455 643b 734b 98ba
00000110: 2480 f83b 26de 76bb 85b9 5cbc 3a1c 47bc
00000120: 0b29 a53c 7e21 8abc 0809 843b bec9 70bc
00000130: 7c0a e6bb a745 a53b 93a5 50bc 11c8 85bc
00000140: 65ba a6bc fe6f 443c bb54 9bbc 16ef 81bb
00000150: c48f 563b acbf 1439 e58f 2f3c 63b8 8c3b
00000160: 0946 92bc d920 0cbb 7d46 7aba 954f 6e3c
00000170: ae59 fbbb 799f 6bba d053 98bc 262b 4abc
00000180: 3770 a43b 04a7 b53b ce0c 8dbc 9184 9a3c
00000190: 3a89 843c d903 9abc 722d 0a3c 3ceb 523b
000001a0: 3748 7fbb 6a6b ccbc 7438 40bc 4d87 373c
000001b0: eb2a f23c 0fd7 5d3c 7fd7 82bb fe23 e3bb
000001c0: 59e0 29bc 5d3c 39bc a1e6 4a3c 20b5 863b
000001d0: ce27 bebb f7aa d5ba bc32 703c 4ec1 be3c
000001e0: 7aac ef39 4dfa 753b 21d7 3cbc 3634 933b
000001f0: 61d4 bc3c 4e28 9d3c fc86 023c 61bb 58ba

action_model._continuous_distribution.log_sigma f4 [1, 2]
0.037190665 0.000831577
00000000: 3d55 183d 30fe 593a

action_model._continuous_distribution.mu.weight f4 [2, 128]
-0.02535823 0.014847155 0.021197513 -0.0083506005 0.009095202 -0.049932275 -0.049166087 0.008127616
-0.0032836737 -0.032173764 0.0029247329 0.007977307 -0.022417512 0.014955706 -0.003793512 -0.02420981
0.01549905 -0.0033273688 0.00883622 -0.009657276 -0.0031198813 0.014825768 0.02001369 -0.0012603939
0.010561779 -0.019925416 -0.025039425 -0.027978001 -0.024563322 0.008380437 0.011173795 0.0057308353
0.009472815 0.008016045 -0.004133388 -0.00029554285 0.0018210169 -0.021008933 0.036827702 -0.057533383
-0.05120065 0.023946546 -0.013272426 -0.046778288 0.019086752 -0.010601939 -0.005153888 -0.0050056768
-0.037580185 -0.022057025 -0.02459028 0.005573533 -0.02747673 0.003999918 0.022468774 -0.023840077
-0.0077520274 -0.019349648 0.03594642 -0.034570318 0.0055481456 0.009090367 -0.029345267 0.0059218057
0.03127444 -0.03193945 0.011361602 -0.049202222 -0.010900737 -0.0018394648 -0.040350832 -0.04274637
0.051231515 -0.030858891 0.0057606883 -0.03739757 -0.03554373 -0.001122191 -0.017075881 -0.019188838
-0.015899321 0.02075939 -0.024556264 -0.007230968 0.0012065315 -0.006434407 0.02156195 0.017855506
-0.0068119625 -0.014615782 -0.028715039 0.018858636 0.010972055 0.020464936 -0.018201927 -0.022185866
-0.0018323942 0.0023675524 -0.03557501 0.008076783 0.022948187 -0.022774406 0.014985412 0.040195543
-0.029076137 -0.019430274 -0.035988923 0.016034512 0.013551979 0.015683426 -0.025585935 -0.030353928
-0.003820679 0.0069266027 0.043659337 0.019272229 0.00033105543 -0.011180875 0.032130945 0.02334523
0.0067666466 -0.024065696 -0.009534267 0.006215391 0.014850428 0.027307885 0.036743652 -0.0053144586
-0.01406507 -0.014435982 -0.025531199 0.029312165 0.0017325138 0.02215891 -0.0059003555 -0.035020664
0.021048715 -0.006677329 -0.0043402147 0.009265021 0.017745707 -0.005903494 -0.008059106 0.021212313
-0.039092995 0.04229831 0.0017444771 0.0432327 0.006573168 -0.024400631 0.015326428 -0.00898417
-0.0050846566 0.00062410615 0.024033481 0.01106692 -0.012083572 -0.01094444 -0.0333568 8.142184e-05
0.009039099 -0.03864888 -0.01121713 -0.0018814126 -0.0047008023 -0.022873526 -0.019527448 0.0025403502
-0.008262722 0.035129674 -0.0038181455 -0.0045479243 -0.004557027 -0.0033004007 0.0006593092 -0.023777753
-0.001787996 0.0045064995 -0.0049466044 -0.0057704137 0.021272257 0.0041127633 -0.019568324 -0.020128706
0.022264346 0.0072709545 0.004897993 0.028236665 0.0023904622 -0.025584009 -0.008022358 -0.007322629
0.046172276 -0.019867614 -0.022554915 0.009258186 0.020384185 0.019308249 0.003965327 -0.019936223
0.016896337 -0.0004124896 0.0065787663 -0.014157894 0.004908988 -0.040221225 -0.0032282565 -0.021155518
-0.0031637407 0.021991309 0.00048752155 -0.01976145 0.012933178 0.029122755 0.027586283 -0.024288727
0.001979467 0.0022113135 0.023913534 -0.010477328 -0.012976675 -0.023359824 0.0015190492 0.029144688
0.012093789 0.031240612 -0.005457209 0.013835419 -0.0035223325 -0.009891327 -0.0018739388 -0.016198197
0.0036208993 -0.007820491 -0.006544288 0.008679554 0.057593737 -0.006740592 0.012160545 0.018742878
-0.02946243 -0.00949471 -0.020481095 0.051067103 -0.039818443 0.0113442205 -0.054970153 0.019469356
-0.02623484 0.0070103677 0.00687665 -0.0059336824 -0.00096601475 0.02709798 -0.007133341 0.007489894
00000000: 10bc cfbc 7b41 733c 68a6 ad3c f5d0 08bc
00000010: 0b04 153c c985 4cbd 6162 49bd b129 053c
00000020: e732 57bb a3c8 03bd e0ac 3f3b 40b3 023c
00000030: eea4 b7bc c708 753c 929c 78bb a753 c6bc
00000040: baef 7d3c fc0f 5abb cbc5 103c 8d39 1ebc
00000050: ec76 4cbb c7e7 723c c0f3 a33c cd33 a5ba
00000060: 500b 2d3c a03a a3bc 7b1f cdbc 1f32 e5bc
00000070: 0539 c9bc 1a4e 093c 4b12 373c bbc9 bb3b
00000080: de33 1b3c bb55 033c 5f71 87bb 17f3 9ab9
00000090: 30af ee3a ed1a acbc a5d8 163d 20a8 6bbd
000000a0: c6b7 51bd 8c2b c43c 9774 59bc 979a 3fbd
000000b0: d25b 9c3c c1b3 2dbc f2e1 a8bb a906 a4bb
000000c0: aeed 19bd efb0 b4bc 8e71 c9bc 2fa2 b63b
000000d0: e116 e1bc be11 833b 6f10 b83c 444c c3bc
000000e0: b804 febb 2783 9ebc 8e3c 133d 9b99 0dbd
000000f0: 38cd b53b c3ef 143c 7c65 f0bc b50b c23b
00000100: a119 003d f1d2 02bd 0326 3a3c 4588 49bd
00000110: 0199 32bc 321a f1ba ea46 25bd d116 2fbd
00000120: 23d8 513d c9cb fcbc 28c4 bc3b 322e 19bd
00000130: 4d96 11bd 7b16 93ba b8e2 8bbc e931 9dbc
00000140: 4b3f 82bc 990f aa3c 382a c9bc c2f1 ecbb
00000150: 7b24 9e3a b8d7 d2bb b0a2 b03c b645 923c
00000160: e236 dfbb 0877 6fbc cd3b ebbc 6d7d 9a3c
00000170: 22c4 333c 15a6 a73c 351c 95bc 22bf b5bc
00000180: f22c f0ba f028 1b3b 1ab7 11bd 7c54 043c
00000190: d6fd bb3c 6491 babc 6085 753c 15a4 243d
000001a0: 1431 eebc 3d2c 9fbc 1f69 13bd cf5a 833c
000001b0: 1f09 5e3c 877a 803c 9899 d1bc cda8 f8bc
000001c0: 5b64 7abb 8ef8 e23b 22d4 323d cbe0 9d3c
000001d0: 8291 ad39 fd2f 37bc bd9b 033d 7f3e bf3c
000001e0: bfba dd3b 6c25 c5bc 9d35 1cbc 7baa cb3b
000001f0: 364f 733c c9b4 df3c 8380 163d e924 aebb
00000200: 2e71 66bc e684 6cbc ce26 d1bc 1120 f03c
00000210: 8415 e33a 9a86 b53c c557 c1bb d471 0fbd
00000220: 5b6e ac3c 7fcd dabb 5c38 8ebb 51cc 173c
00000230: 725f 913c 1972 c1bb 570a 04bc 72c5 ad3c
00000240: fa1f 20bd fe40 2d3d f0a6 e43a c614 313d
00000250: bb63 d73b d5e3 c7bc b31b 7b3c 5732 13bc
00000260: 319d a6bb 0e9b 233a dde1 c43c 0752 353c
00000270: 2dfa 45bc 4f50 33bc 24a1 08bd 04c1 aa38
00000280: bb18 143c 4a4e 1ebd 0ec8 37bc bb99 f6ba
00000290: 3009 9abb 4361 bbbc 07f8 9fbc 017c 263b
000002a0: 5e60 07bc 22e4 0f3d da39 7abb c106 95bb
000002b0: 1d53 95bb 894b 58bb 7ed5 2c3a 90c9 c2bc
000002c0: 315b eaba 42ab 933b 2017 a2bb bd15 bdbb
000002d0: 2843 ae3c 5cc4 863b c04d a0bc f5e4 a4bc
000002e0: b863 b63c 3041 ee3b 587f a03b 9450 e73c
000002f0: 4da9 1c3b 8e95 d1bc 3570 03bc aaf2 efbb
00000300: 241f 3d3d 68c1 a2bc 16c5 b8bc a6af 173c
00000310: bcfc a63c 552c 9e3c 93ef 813b 4a51 a3bc
00000320: 306a 8a3c 6b43 d8b9 b192 d73b 83f6 67bc
00000330: 93db a03b 03bf 24bd 2891 53bb 564e adbc
00000340: c356 4fbb 1e27 b43c 099a ff39 c4e2 a1bc
00000350: aee5 533c d892 ee3c a1fc e13c 27f9 c6bc
00000360: f2b9 013b afeb 103b 51e6 c33c 19a9 2bbc
00000370: 1f9c 54bc 1a5d bfbc d51a c73a d7c0 ee3c
00000380: 0725 463c 50ec ff3c 63d2 b2bb f4ad 623c
00000390: efd6 66bb 3b0f 22bc f49e f5ba 15b2 84bc
000003a0: 9c4c 6d3b 8421 00bc 7771 d6bb b034 0e3c
000003b0: 69e7 6b3d 2fe0 dcbb 063d 473c aa8a 993c
000003c0: 325b f1bc b38f 1bbc f8c7 a7bc bd2b 513d
000003d0: aa18 23bd 1cdd 393c 6228 61bd 337e 9f3c
000003e0: 72ea d6bc 3ab7 e53b 8555 e13b 566f c2bb
000003f0: 273c 7dba 95fc dd3c cdbe e9bb c96d f53b

action_model._continuous_distribution.mu.bias f4 [2]
0.013838878 0.009062644
00000000: 76bc 623c 7c7b 143c

exp_avg f4 [128, 6]
-1.9987335e-11 2.371517e-12 -9.277982e-12 -1.3666923e-11 0.0 -6.4650095e-12 0.00014982554 0.022265472
0.00024649224 -7.4930554e-06 0.0 3.0575159e-06 -6.954792e-05 -0.010183932 -0.00011513453 3.6265712e-06
0.0 -1.4796667e-06 2.213115e-10 8.681473e-12 -2.081212e-12 2.7023572e-10 0.0 -1.904424e-10
0.00046986408 0.06958236 0.00077444746 -2.3795248e-05 0.0 9.709297e-06 -0.00019456395 -0.028857863
-0.0003205542 9.825303e-06 0.0 -4.009025e-06 1.3580158e-12 -5.525224e-15 3.2173507e-13 -3.4274137e-12
0.0 1.101926e-12 -8.143987e-05 -0.012043485 -0.00013426713 4.1316925e-06 0.0 -1.6859192e-06
0.00074159406 0.10973534 0.001222618 -3.7618505e-05 0.0 1.5349786e-05 1.06161295e-11 -9.3419284e-14
1.1881493e-12 5.6895764e-12 0.0 -5.591003e-12 -2.0677986e-12 -1.7089581e-11 6.568203e-11 -2.8073913e-10
0.0 1.6893405e-10 -0.00040744126 -0.060178135 -0.00067221903 2.0771215e-05 0.0 -8.475403e-06
0.0001640115 0.02430718 0.0002701795 -8.274927e-06 0.0 3.3764877e-06 0.0007862839 0.11633569
0.0012962377 -3.987345e-05 0.0 1.6269885e-05 1.2456e-10 -9.61688e-11 -2.2181404e-12 8.9880464e-11
0.0 -5.5550328e-11 7.011449e-12 -6.7326575e-13 5.5883176e-12 -9.039746e-12 0.0 1.3255506e-11
-6.1017263e-12 -8.959471e-13 4.8850063e-11 -2.105775e-10 0.0 1.0893671e-10 2.7800193e-12 -3.8603016e-13
1.3962524e-12 -9.053215e-12 0.0 4.5368258e-12 0.00036827842 0.054592136 0.0006066821 -1.8582752e-05
0.0 7.5824514e-06 -0.00038339777 -0.056693383 -0.00063239125 1.951203e-05 0.0 -7.961606e-06
0.0001538405 0.022892486 0.00025320498 -7.715752e-06 0.0 3.1483232e-06 9.7505067e-11 -3.5532876e-14
3.886708e-11 -7.158852e-11 0.0 2.5946835e-11 9.253977e-11 2.0197911e-11 -3.0810558e-12 1.2947614e-10
0.0 -1.3128229e-10 4.968994e-06 0.0007766572 8.006603e-06 -2.135319e-07 0.0 8.71426e-08
0.0010363577 0.15336823 0.0017085131 -5.2557854e-05 0.0 2.144562e-05 1.01213135e-11 4.990014e-12
5.5988558e-11 -2.5586988e-10 0.0 1.2206051e-10 -1.2145462e-10 3.9842408e-13 -4.21432e-11 -2.0897939e-10
0.0 -1.6694427e-11 7.356043e-11 -1.0519053e-11 9.843726e-11 -3.2571662e-10 0.0 2.0751131e-10
0.0005014076 0.074271575 0.00082622253 -2.5347954e-05 0.0 1.0342935e-05 2.0067319e-10 -8.463587e-11
-2.5497255e-11 2.0284303e-10 0.0 -1.4739895e-10 -1.05678605e-10 2.5558529e-12 -2.1129562e-11 5.994554e-11
0.0 -2.9811223e-11 2.9081541e-11 8.490331e-12 -4.9944677e-11 1.4189237e-10 0.0 -1.623081e-10
-1.1693298e-10 5.225818e-11 -2.508388e-11 -5.463916e-11 0.0 2.9781098e-11 -0.00043370042 -0.06406827
-0.0007157064 2.214412e-05 0.0 -9.035507e-06 1.2835282e-11 1.2861762e-12 5.1267376e-12 1.8825963e-11
0.0 3.7793926e-12 4.982428e-11 1.6827327e-09 1.7082107e-10 5.273343e-11 0.0 -1.3776474e-10
0.0004923359 0.07297222 0.0008112987 -2.4893965e-05 0.0 1.0157708e-05 7.057535e-12 -4.350902e-14
6.515035e-13 1.4725204e-11 0.0 -7.292831e-12 -0.0005470741 -0.0808906 -0.00090193126 2.7752867e-05
0.0 -1.1324242e-05 1.5610711e-10 -3.599899e-10 8.138581e-12 -9.8549946e-11 0.0 1.7510184e-11
0.00015820708 0.023440897 0.0002607669 -8.012885e-06 0.0 3.2695755e-06 0.0004699214 0.0696326
0.00077422475 -2.3732613e-05 0.0 9.683792e-06 1.7014576e-11 3.9301496e-11 3.244926e-11 -1.7406719e-10
00000000: 7acf afad 74e1 262c 5138 23ad 596e 70ad
00000010: 0000 0000 a177 e3ac 7d1a 1d39 1466 b63c
00000020: a13b 8139 db6c fbb6 0000 0000 b92f 4d36
00000030: 41da 91b8 82da 26bc 6174 f1b8 0560 7336
00000040: 0000 0000 f698 c6b5 a655 732f e1b9 182d
00000050: c873 12ac 4c90 942f 0000 0000 c564 51af
00000060: 1758 f639 3281 8e3d 4a04 4b3a e89b c7b7
00000070: 0000 0000 1de5 2237 dd03 4cb9 5367 ecbc
00000080: 0e10 a8b9 5bd7 2437 0000 0000 4385 86b6
00000090: ad1f bf2b 3211 c7a7 e91e b52a cc2e 71ac
000000a0: 0000 0000 1115 9b2b b3ca aab8 0a52 45bc
000000b0: 0fca 0cb9 f8a2 8a36 0000 0000 be47 e2b5
000000c0: 8967 423a ecbc e03d 4140 a03a 90c8 1db8
000000d0: 0000 0000 6ac3 8037 ccc2 3a2d 8d5c d2a9
000000e0: 9737 a72b 262f c82c 0000 0000 47b7 c4ac
000000f0: 2682 11ac 5152 96ad b26f 902e 8556 9aaf
00000100: 0000 0000 b5be 392f d79d d5b9 597d 76bd
00000110: db37 30ba d83d ae37 0000 0000 9431 0eb7
00000120: 80fa 2b39 da1f c73c e1a6 8d39 8ad4 0ab7
00000130: 0000 0000 9e97 6236 9f1e 4e3a 6841 ee3d
00000140: 85e6 a93a ca3d 27b8 0000 0000 507b 8837
00000150: 86f4 082f 397a d3ae 7716 1cac 34a6 c52e
00000160: 0000 0000 1c50 74ae 85b1 f62c e981 3dab
00000170: 179f c42c 6607 1fad 0000 0000 7e31 692d
00000180: 77af d6ac cb2f 7cab 48d8 562e 4c88 67af
00000190: 0000 0000 ea8d ef2e 60a0 432c cf50 d9aa
000001a0: 4b81 c42b 0e44 1fad 0000 0000 18a0 9f2c
000001b0: 7e15 c139 019c 5f3d bf09 1f3a 28e2 9bb7
000001c0: 0000 0000 c36c fe36 c702 c9b9 5237 68bd
000001d0: 0fc7 25ba c4ad a337 0000 0000 d692 05b7
000001e0: 3f50 2139 0689 bb3c 99c0 8439 e772 01b7
000001f0: 0000 0000 c847 5336 796a d62e 9e06 20a9
00000200: 71f0 2a2e c16c 9dae 0000 0000 143b e42d
00000210: 427f cb2e a7a9 b12d 5ecf 58ac 4b5c 0e2f
00000220: 0000 0000 ae58 10af 55bb a636 9598 4b3a
00000230: 1954 0637 3447 65b4 0000 0000 2723 bb33
00000240: 65d6 873a 900c 1d3e 30f0 df3a 9171 5cb8
00000250: 0000 0000 1ee6 b337 580e 322d 0d92 af2c
00000260: 833d 762e 7caa 8caf 0000 0000 fb34 062f
00000270: 708a 05af f64a e02a 0659 39ae 78c6 65af
00000280: 0000 0000 82d8 92ad d7c2 a12e 9a0d 39ad
00000290: 4077 d82e 8a10 b3af 0000 0000 3e29 642f
000002a0: e570 033a b21b 983d db96 583a 51a2 d4b7
000002b0: 0000 0000 9186 2d37 7ba4 5c2f c21d baae
000002c0: b746 e0ad 3d07 5f2f 0000 0000 1e11 22af
000002d0: c463 e8ae 27da 332c 8bdb b9ad 57d2 832e
000002e0: 0000 0000 741c 03ae cfcd ff2d 0d5d 152d
000002f0: b5a8 5bae 2703 1c2f 0000 0000 ab75 32af
00000300: b591 00af 7bd5 652e e0a3 dcad 3a4e 70ae
00000310: 0000 0000 89fa 022e 4962 e3b9 3a36 83bd
00000320: 3e9e 3bba 23c2 b937 0000 0000 3597 17b7
00000330: f9cc 612d 6203 b52b 8c61 b42c 4d98 a52d
00000340: 0000 0000 bef9 842c 2721 5b2e e545 e730
00000350: dbd1 3b2f 90ec 672e 0000 0000 5479 17af
00000360: 1a10 013a 7672 953d 56ad 543a 62d3 d0b7
00000370: 0000 0000 066b 2a37 a050 f82c 7cf2 43a9
00000380: c661 372b 3686 812d 0000 0000 fe4b 00ad
00000390: 8569 0fba f9a9 a5bd 956f 6cba d4ce e837
000003a0: 0000 0000 40fd 3db7 3fa4 2b2f 13e8 c5af
000003b0: e92c 0f2d b0b6 d8ae 0000 0000 6e05 9a2d
000003c0: 64e4 2539 2007 c03c 8ab7 8839 146f 06b7
000003d0: 0000 0000 e16a 5b36 c85f f639 899b 8e3d
000003e0: 58f5 4a3a 6615 c7b7 0000 0000 9277 2237
000003f0: 6ba9 952d 8dd9 2c2e 9eb6 0e2e 8f63 3faf

exp_avg_sq f4 [128, 6]
6.589649e-07 4.974314e-09 2.012963e-07 4.5564647e-07 0.0 1.2963251e-07 0.0005557809 0.6291796
0.00014840561 1.4502065e-05 0.0 2.335415e-06 0.0009198237 0.79137033 0.00011999898 4.9694972e-05
0.0 6.975589e-06 2.3560031e-05 1.6012768e-07 4.0573477e-06 2.117479e-05 0.0 2.6895257e-06
0.00039056834 0.8602405 0.00018094853 2.353226e-05 0.0 3.7295606e-06 0.000162941 0.2861829
7.94655e-05 1.431538e-05 0.0 2.2811273e-06 4.6098344e-06 2.8816516e-05 6.7574155e-07 1.4163037e-06
0.0 3.6102935e-07 3.788816e-05 0.07669464 1.828674e-05 1.2727315e-06 0.0 2.3967382e-07
0.0009274628 2.4419973 0.00046060365 1.3899596e-05 0.0 2.5895517e-06 1.5378203e-06 3.747443e-10
7.06686e-07 1.5787452e-06 0.0 3.1600806e-07 8.127667e-06 5.8109174e-07 1.2764281e-06 1.4435077e-05
0.0 2.2649685e-06 0.00031313355 0.8568917 0.00015507932 1.4103631e-05 0.0 2.2518213e-06
0.00088226167 0.732505 0.00015807721 1.2086757e-05 0.0 3.4455434e-06 0.0012966346 3.263285
0.0007348817 1.333284e-05 0.0 3.641767e-06 8.580386e-06 1.3305531e-06 1.249605e-06 5.6844915e-06
0.0 1.2232749e-06 1.7547074e-05 0.00077767455 2.780114e-06 8.0058305e-07 0.0 2.7854975e-07
3.792026e-06 6.7794495e-08 1.3996345e-06 1.4847445e-05 0.0 2.0279226e-06 9.249743e-06 5.2659825e-06
1.5219769e-06 6.3092325e-06 0.0 2.6049172e-06 0.0003050496 0.66357344 0.000121793164 6.8333347e-06
0.0 2.015654e-06 0.00092696026 1.153895 0.00029179786 1.9033843e-05 0.0 2.6801015e-06
0.00029791315 0.48760065 0.00020680408 8.84811e-06 0.0 1.9692202e-06 1.6016683e-06 2.3315122e-08
5.662553e-07 6.7161145e-06 0.0 9.862023e-07 1.3667217e-05 2.7783898e-07 2.4812894e-06 2.5723504e-05
0.0 3.5822866e-06 0.00012731385 0.024624301 1.2970718e-05 2.5104699e-05 0.0 3.396158e-06
0.0029053898 5.094173 0.0010148105 4.5845558e-05 0.0 9.398255e-06 1.00268335e-05 9.1174336e-08
2.1410856e-06 1.9988624e-05 0.0 2.346954e-06 5.8938595e-06 3.2225774e-08 3.3947742e-06 1.2285773e-05
0.0 2.6999303e-06 9.090292e-06 2.8697672e-05 1.6662011e-06 1.8950112e-05 0.0 2.9423977e-06
0.0003485224 1.2804127 0.00024230672 9.63161e-06 0.0 1.8183531e-06 1.1834484e-05 2.3318866e-05
1.3302539e-06 1.0020455e-05 0.0 1.5505295e-06 6.4733e-06 2.3375134e-05 1.3400579e-06 6.5773434e-06
0.0 1.1027217e-06 1.1573239e-05 4.7169795e-08 2.217196e-06 1.6487662e-05 0.0 1.7415528e-06
5.4899454e-05 1.6081767e-06 7.3220926e-06 4.115234e-05 0.0 5.603988e-06 0.0031142335 3.276213
0.0007070595 6.378636e-05 0.0 1.3733303e-05 1.5233736e-06 9.230536e-07 3.3120884e-07 1.2688465e-06
0.0 3.057576e-07 3.138731e-05 0.00014880019 5.461329e-06 3.504342e-05 0.0 4.615108e-06
0.000564786 1.2009066 0.00028802038 2.1461017e-05 0.0 3.867752e-06 8.918031e-07 7.6359885e-10
4.8534025e-07 8.963751e-07 0.0 8.6139906e-08 0.0018556757 3.1496491 0.0010405015 6.4056614e-05
0.0 1.1654897e-05 2.0168256e-05 5.3606987e-06 4.154827e-06 3.2833417e-05 0.0 3.9943793e-06
0.0003790306 0.5154298 8.654605e-05 4.8486813e-06 0.0 8.4434873e-07 0.0008930002 1.5770341
0.0002943382 8.845546e-06 0.0 2.1968572e-06 1.1198382e-05 0.00024065029 1.1000614e-06 2.7081308e-06
00000000: b9e3 3035 87ea aa31 e823 5834 939f f434
00000010: 0000 0000 1d31 0b34 d3b1 113a ea11 213f
00000020: 549d 1b39 e54d 7337 0000 0000 20ba 1c36
00000030: 5320 713a 3f97 4a3f f6a7 fb38 926f 5038
00000040: 0000 0000 da0f ea36 c8a2 c537 90ef 2b34
00000050: 5a24 8836 84a0 b137 0000 0000 b37d 3436
00000060: 32c5 cc39 b938 5c3f 00bd 3d39 2567 c537
00000070: 0000 0000 5d49 7a36 24db 2a39 9186 923e
00000080: b7a6 a638 172c 7037 0000 0000 7815 1936
00000090: 2dae 9a36 ffba f137 9b64 3535 d317 be35
000000a0: 0000 0000 7fd3 c134 1aea 1e38 1412 9d3d
000000b0: 7a66 9937 b9d2 aa35 0000 0000 85ac 8034
000000c0: fa20 733a af49 1c40 2d7d f139 4f32 6937
000000d0: 0000 0000 29c8 2d36 1a67 ce35 9204 ce2f
000000e0: 18b3 3d35 46e5 d335 0000 0000 d1a7 a934
000000f0: 105c 0837 52fc 1b35 bc51 ab35 2f2e 7237
00000100: 0000 0000 ddff 1736 132c a439 415d 5b3f
00000110: ca9c 2239 a29e 6c37 0000 0000 ff1d 1736
00000120: 9447 673a 7385 3b3f 87c1 2539 3ac8 4a37
00000130: 0000 0000 fc39 6736 d6f3 a93a a9d9 5040
00000140: 13a5 403a 1db0 5f37 0000 0000 1565 7436
00000150: 7af4 0f37 7595 b235 1ab8 a735 69bd be36
00000160: 0000 0000 682f a435 0e32 9337 dbdc 4b3a
00000170: ff91 3a36 a6e7 5635 0000 0000 968b 9534
00000180: 837a 7e36 6b96 9133 13db bb35 4a19 7937
00000190: 0000 0000 7217 0836 582f 1b37 72b2 b036
000001a0: ba46 cc35 e5b3 d336 0000 0000 23d0 2e36
000001b0: 10ef 9f39 f3df 293f 356b ff38 e649 e536
000001c0: 0000 0000 ac44 0736 40ff 723a d5b2 933f
000001d0: 72fc 9839 deaa 9f37 0000 0000 cbdb 3336
000001e0: 3a31 9c39 cba6 f93e 8cd9 5839 5872 1437
000001f0: 0000 0000 f226 0436 e7f8 d635 7f46 c832
00000200: c500 1835 fc5a e136 0000 0000 a75d 8435
00000210: 404c 6537 e629 9534 3a84 2636 cec8 d737
00000220: 0000 0000 3767 7036 8d7f 0539 e7b8 c93c
00000230: cf9c 5937 ee97 d237 0000 0000 8de9 6336
00000240: 5a68 3e3b 7703 a340 6403 853a 4b4a 4038
00000250: 0000 0000 33ad 1d37 ec38 2837 9fcb c333
00000260: 92af 0f36 3ead a737 0000 0000 5d80 1d36
00000270: dec3 c536 9d68 0a33 c7d1 6336 fe1e 4e37
00000280: 0000 0000 7330 3536 8282 1837 c8bb f037
00000290: 3ca2 df35 0ef7 9e37 0000 0000 0276 4536
000002a0: e2b9 b639 90e4 a33f b713 7e39 7397 2137
000002b0: 0000 0000 230e f435 b98c 4637 e29c c337
000002c0: 2d8b b235 871d 2837 0000 0000 ca1b d035
000002d0: 3935 d936 b815 c437 0adc b335 f3b2 dc36
000002e0: 0000 0000 3b01 9435 af2a 4237 bd97 4a33
000002f0: 23cb 1436 fc4e 8a37 0000 0000 4cbf e935
00000300: d743 6638 88d8 d735 4cb0 f536 fd9a 2c38
00000310: 0000 0000 e409 bc36 2b18 4c3b 79ad 5140
00000320: f659 393a 0bc5 8538 0000 0000 1668 6637
00000330: b876 cc35 c3c7 7735 ffd0 b134 3c4d aa35
00000340: 0000 0000 0127 a434 dea5 0338 3f07 1c39
00000350: 7540 b736 96fb 1238 0000 0000 7adb 9a36
00000360: 260e 143a 4fb7 993f 7101 9739 2f07 b437
00000370: 0000 0000 bdc7 8136 3e64 6f35 7ee5 5130
00000380: 5448 0235 6e9e 7035 0000 0000 eafb b833
00000390: 253a f33a da93 4940 7061 883a 2256 8638
000003a0: 0000 0000 6789 4337 002f a937 0de0 b336
000003b0: b169 8b36 9db6 0938 0000 0000 7507 8636
000003c0: a0b8 c639 35f3 033f 0f80 b538 dbb1 a236
000003d0: 0000 0000 34a7 6235 3b18 6a3a 41dc c93f
000003e0: 6851 9a39 5567 1437 0000 0000 b86d 1336
000003f0: afe0 3b37 1257 7c39 d2a5 9335 55bd 3536

exp_avg f4 [128]
-3.739483e-12 -1.5605771e-06 7.5531585e-07 5.0336117e-11 -4.955851e-06 2.0463244e-06 -7.358269e-13 8.6050693e-07
-7.834824e-06 9.424868e-13 -5.44364e-11 4.3260325e-06 -1.723422e-06 -8.304457e-06 1.73197e-11 -1.1731804e-12
-4.2150367e-11 -1.8230114e-12 -3.870239e-06 4.063783e-06 -1.6069628e-06 -1.51518e-11 2.114768e-11 -4.4471335e-08
-1.0946243e-05 -5.1980562e-11 -5.1086305e-11 -6.2303884e-11 -5.279227e-06 3.7453166e-11 1.2087975e-11 2.180848e-11
-1.0824813e-11 4.611975e-06 4.7708885e-12 2.3618978e-12 -5.184674e-06 2.9715763e-12 5.7801017e-06 -2.2208634e-11
-1.6688452e-06 -4.9428013e-06 -3.6904934e-11 -8.009936e-13 -1.851566e-11 -6.7567943e-12 -2.4053006e-06 6.860818e-11
-5.7207744e-06 -2.8839904e-12 5.1979137e-12 -1.4293512e-06 2.8513746e-06 6.218579e-11 -2.7126246e-12 -3.1798547e-06
2.2181216e-06 -1.1646029e-11 3.385835e-06 -1.0850116e-05 1.0067618e-11 -9.164289e-12 -1.1289274e-06 -7.001534e-13
-1.0668665e-05 -7.4084315e-11 2.5893974e-11 2.7017865e-12 2.582258e-11 -5.724999e-07 6.6706593e-12 3.4295235e-06
-3.428581e-07 7.921436e-12 1.2736893e-11 -1.0062192e-05 6.5405294e-12 2.0806818e-12 -4.1780017e-06 -9.354766e-07
-7.232331e-06 -1.9294525e-06 -2.2181573e-12 6.9029205e-12 -6.2206927e-06 -1.2379724e-06 2.2613692e-06 -8.12028e-06
-7.570405e-07 -2.8387646e-07 -5.8596177e-11 2.9403143e-11 4.2529387e-12 -9.880954e-12 3.0563805e-12 -7.710979e-06
5.243607e-11 1.0605681e-06 1.9757923e-11 1.3633934e-11 -9.70743e-06 1.2998419e-12 -2.6032678e-11 2.0233403e-11
-9.336538e-07 3.6343326e-12 -1.8413334e-06 -5.1063057e-06 4.2616393e-06 -8.89831e-06 -3.65483e-06 1.4566213e-11
3.863894e-06 2.27411e-07 -4.343439e-06 -7.47579e-12 -8.053131e-12 2.6422188e-07 -7.961222e-11 -3.917891e-06
2.0593274e-11 2.2693722e-11 2.2179272e-12 -6.475377e-06 4.8896013e-12 8.812129e-12 5.9330175e-12 -5.83168e-11
00000000: 4592 83ac 0575 d1b5 e9c0 4a35 6e61 5d2e
00000010: 704a a6b6 9653 0936 eb1d 4fab 96fd 6635
00000020: 5072 03b7 aaa4 842b f069 6fae 5628 9136
00000030: 5450 e7b5 5f53 0bb7 7f58 982d 471c a5ab
00000040: 1861 39ae 7448 00ac 1add 81b6 a15b 8836
00000050: d2ae d7b5 d246 85ad 5804 ba2d c000 3fb3
00000060: c1a5 37b7 e99c 64ae 11ae 60ae f801 89ae
00000070: 3724 b1b6 84b8 242e 66a7 542d 55d4 bf2d
00000080: a06e 3ead 90c0 9a36 58dc a72c 2b34 262c
00000090: 03f8 adb6 291b 512c b2f2 c136 6659 c3ad
000000a0: 16fd dfb5 57da a5b6 434f 22ae ac75 61ab
000000b0: 8fdd a2ad cbbb edac c06a 21b6 f9de 962e
000000c0: 14f5 bfb6 5af1 4aac a5e2 b62c 22d8 bfb5
000000d0: 3e5a 3f36 7dbf 882e 4de2 3eac 7d65 55b6
000000e0: 0adb 1436 0de1 4cad 3438 6336 e508 36b7
000000f0: 851c 312d 4a38 21ad a685 97b5 5f13 45ab
00000100: 91fd 32b7 c3e9 a2ae 0cc4 e32d 0f1f 3e2c
00000110: 4823 e32d e5ad 19b5 f5b3 ea2c c426 6636
00000120: 0f12 b8b4 fa5a 0b2d de11 602d c9d0 28b7
00000130: da1f e62c 3b6a 122c c330 8cb6 761d 7bb5
00000140: 40ad f2b6 be7b 01b6 c516 1cac fbdf f22c
00000150: 58bb d0b6 6828 a6b5 07c2 1736 563c 08b7
00000160: 6d37 4bb5 af67 98b4 b7da 80ae ff50 012e
00000170: 11a3 952c dcd3 2dad db12 572c 675e 01b7
00000180: c49d 662e d858 8e35 e3ca ad2d c8d9 6f2d
00000190: 18dd 22b7 bdef b62b 61fc e4ad 93f9 b12d
000001a0: 33a0 7ab5 51be 7f2c bc23 f7b5 d556 abb6
000001b0: 34ff 8e36 f349 15b7 8045 75b6 3220 802d
000001c0: 99a6 8136 422e 7434 dbbd 91b6 f783 03ad
000001d0: 14ac 0dad 61da 8d34 b211 afae 6d76 83b6
000001e0: ee23 b52d b89d c72d a012 1c2c 1147 d9b6
000001f0: 9d09 ac2c 4d06 1b2d dfbf d02c 713d 80ae

exp_avg_sq f4 [128]
1.325193e-07 1.1023786e-06 4.6982336e-06 2.1080095e-06 1.9711813e-06 1.3590778e-06 4.0176073e-07 1.3530396e-07
1.6385875e-06 3.6020583e-07 1.1562207e-06 1.2249781e-06 1.8466876e-06 1.4291633e-06 7.399253e-07 2.2987226e-07
1.5139008e-06 1.3350393e-06 1.023092e-06 1.5754107e-06 6.9428035e-07 5.517265e-07 2.283268e-06 2.1343335e-06
5.12202e-06 1.7212401e-06 2.080556e-06 1.4448681e-06 9.112109e-07 1.0097581e-06 8.023861e-07 1.911084e-06
4.367736e-06 6.903617e-06 2.0609836e-07 3.1084148e-06 2.4381038e-06 2.0201341e-07 6.6146786e-06 3.1460133e-06
7.2235053e-07 8.7698476e-07 2.8560007e-07 7.633164e-08 1.3012838e-06 8.6280147e-07 8.5112936e-07 3.951118e-06
2.4778623e-07 4.404134e-08 6.936708e-07 1.3619756e-06 6.155263e-06 2.1412056e-06 6.000121e-07 2.784978e-06
2.4765088e-06 5.1490895e-07 2.8847637e-06 5.62091e-06 3.149461e-07 3.3108188e-06 3.4322293e-06 5.199644e-07
1.9816905e-06 1.5458841e-06 2.8720228e-07 1.7029515e-07 3.335078e-07 6.679095e-07 2.046928e-07 1.0594503e-06
4.137604e-07 2.1911067e-06 4.1427e-06 3.1298696e-06 8.3694187e-07 2.3002376e-07 9.013516e-07 5.604336e-07
1.2318815e-06 1.0936042e-06 2.8562187e-07 2.3000587e-07 8.623653e-07 4.220737e-07 1.3135813e-06 1.0550491e-06
1.3140908e-06 3.8794525e-07 3.6732135e-06 1.0508928e-06 1.739394e-07 5.3227063e-07 1.5989795e-06 1.4553418e-06
1.4757638e-06 4.0557288e-07 7.98938e-07 4.4683983e-07 2.26478e-06 1.742954e-07 7.1609355e-07 3.1943384e-07
2.555098e-06 6.6359775e-07 2.6642658e-06 7.080943e-07 2.3420178e-05 1.7258895e-06 4.932095e-07 7.209136e-07
7.6047144e-07 1.9359797e-07 7.3641127e-07 1.0337262e-06 2.4282597e-06 1.6275106e-06 7.21394e-06 7.1148054e-07
8.652685e-07 7.151243e-07 1.8766448e-06 1.234329e-06 2.2283743e-06 5.711945e-07 1.0959096e-06 5.4742395e-07
00000000: a14a 0e34 71f5 9335 85a5 9d36 5477 0d36
00000010: a348 0436 8f69 b635 93b1 d734 1248 1134
00000020: 70ed db35 5062 c134 712f 9b35 ed69 a435
00000030: b4db f735 add1 bf35 489f 4635 ced2 7634
00000040: 3c31 cb35 9a2f b335 2c51 8935 b372 d335
00000050: 955e 3a35 5b1a 1435 3f3a 1936 923b 0f36
00000060: d1dd ab36 5c05 e735 ae9f 0b36 4aed c135
00000070: f099 7435 0687 8735 8e63 5735 2c40 0036
00000080: 918e 9236 9ea5 e736 e34b 5d34 299a 5036
00000090: 4e9e 2336 06e9 5834 a8f3 dd36 1920 5336
000000a0: 8de7 4135 ef69 6b35 9354 9934 c3eb a333
000000b0: c5a7 ae35 449b 6735 2a79 6435 d893 8436
000000c0: 7b07 8534 f727 3d33 b234 3a35 20cd b635
000000d0: 4e89 ce36 a2b1 0f36 8410 2135 8fe5 3a36
000000e0: 1932 2636 4638 0a35 dd97 4136 409b bc36
000000f0: dd15 a934 6f2f 5e36 4055 6636 ae93 0b35
00000100: 2ffd 0436 2c7c cf35 c830 9a34 60da 3634
00000110: f70c b334 644a 3335 87c9 5b34 6f32 8e35
00000120: cc22 de34 ed0a 1336 8601 8b36 c00a 5236
00000130: 35aa 6035 73fc 7634 69f4 7135 b470 1635
00000140: 2057 a535 f4c7 9235 9257 9934 88f7 7634
00000150: 4b7d 6735 5e99 e234 4f4e b035 369b 8d35
00000160: d15f b035 ca46 d034 5481 7636 670c 8d35
00000170: 19c4 3a34 5ce1 0e35 849c d635 2a55 c335
00000180: dc12 c635 83bd d934 9a76 5635 33e5 ef34
00000190: a0fc 1736 f425 3b34 9339 4035 a77e ab34
000001a0: 4078 2b36 1722 3235 bdcb 3236 df13 3e35
000001b0: 7376 c437 1da5 e735 1965 0435 ce84 4135
000001c0: 3323 4c35 cedf 4f34 ccad 4535 90be 8a35
000001d0: 2ff5 2236 d770 da35 460f f236 92fc 3e35
000001e0: cc44 6835 f8f6 3f35 06e1 fb35 39ab a535
000001f0: 2e8b 1536 3054 1935 2b17 9335 b0f2 1235
