results/MoveToGoal2/MoveToGoal/MoveToGoal-81844.pt (torch, 442588 bytes, 36 tensors)

network_body._body_endoder.seq_layers.0.weight f4 [128, 6]
0	0x3ed3ba7a	0.41353208
1	0x3e161c34	0.14659196
2	0xbeee9388	-0.46596932
3	0xbefd264c	-0.4944328
4	0xbf418765	-0.7559722
5	0x3f2ea87f	0.68225855
6	0xbc10a82c	-0.008829158
7	0x3ed8c7ae	0.42339844
8	0xbe8bc2b6	-0.2729699
9	0xbc2b436f	-0.010453089
10	0xbf087066	-0.53296506
11	0x3ed598f2	0.4171825
12	0xbebef9eb	-0.37300047
13	0x3d46aa06	0.04850199
14	0x3e211f4e	0.15734598
15	0xbf652bec	-0.89520144
16	0x3da3f12b	0.080049835
17	0xbd3329c3	-0.043741
18	0xbe96a75c	-0.2942456
19	0x3e93866a	0.28813487
20	0x3f08a2b6	0.5337328
21	0xbf157131	-0.5837584
22	0x3ef8a663	0.48564443
23	0xbeb28a5d	-0.34871188
24	0xbccd1fd6	-0.025039595
25	0x3f179dd4	0.592252
26	0x3edc7ad0	0.43062449
27	0xbe8a781f	-0.2704477
28	0xbf3d5686	-0.7396015
29	0x3efc0ee5	0.49230114
30	0xbe9879d3	-0.29780445
31	0xbe62276a	-0.22085348
32	0x3f040bd2	0.51580536
33	0x3e94c473	0.2905613
34	0xbf2b30c1	-0.6687127
35	0xbdafe872	-0.08589257
36	0x3cfdc963	0.030979818
37	0x3f0e829a	0.5566803
38	0xbf18f7e6	-0.59753263
39	0x3ec198c6	0.3781187
40	0xbe3735c0	-0.17891598
41	0x3ee60524	0.44925797
42	0x3f25d93b	0.6478459
43	0x3df5a7d8	0.11994904
44	0x3ef3376e	0.47503227
45	0x3eb80ccb	0.3594726
46	0x3d3048c5	0.04303815
47	0xbead9514	-0.339028
48	0x3db87310	0.090063214
49	0xbe25c1cd	-0.1618721
50	0x3eb21225	0.34779468
51	0x3ed7520a	0.42054778
52	0x3ee89df0	0.45432997
53	0xbd49a868	-0.04923287
54	0xbe946dc3	-0.28989992
55	0x3df47590	0.11936486
56	0x3edbfcb4	0.42966235
57	0xbf0f000b	-0.5585944
58	0xbe2ce106	-0.16882715
59	0xbe6508db	-0.2236666
60	0xbe8264da	-0.2546757
61	0xbf30cd7e	-0.69063556
62	0x3dc7b0aa	0.09750493
63	0x3cd2b846	0.025722634
64	0x3f70e43a	0.94098246
65	0x3f378def	0.7170095
66	0x3e4b37a4	0.19845444
67	0x3ed2987e	0.41131967
68	0xbf2a9ae6	-0.66642606
69	0x3f0348d3	0.51282996
70	0x3eb9fff6	0.36328095
71	0x3f2c8804	0.67395043
72	0xbe5a1b98	-0.21299589
73	0xbeaf1479	-0.34195307
74	0xbe854ba0	-0.2603426
75	0xbea99153	-0.33118686
76	0xbdfe735f	-0.12424349
77	0x3be24aa0	0.0069058686
78	0xbe10a987	-0.1412717
79	0xbe5d9d9e	-0.21642157
80	0x3ee936c9	0.4554961
81	0xbd0a7e95	-0.033812124
82	0xbf38323f	-0.7195167
83	0x3f61c8b6	0.88196886
84	0x3e1f0983	0.15530972
85	0x3e518923	0.2046247
86	0x3d48c826	0.049019
87	0xbee90889	-0.45514324
88	0xbe090477	-0.1338061
89	0xbd9a567a	-0.07536025
90	0x3dd1194c	0.10209903
91	0x3d586c70	0.05283779
92	0xbecb3e19	-0.39695814
93	0xbe7449db	-0.23856299
94	0x3d0a53c1	0.03377128
95	0xbeea32f1	-0.4574199
96	0xbf078328	-0.52934504
97	0xbef93ca5	-0.4867908
98	0xbea0e5bb	-0.3142527
99	0xbd9ecdb1	-0.07754076
100	0x3f10856d	0.5645359
101	0x3e9b827b	0.30372986
102	0x3d0131c9	0.03154162
103	0xbebd91c1	-0.37025264
104	0xbeb40569	-0.35160378
105	0x3f2fd114	0.686784
106	0xb9e84886	-0.00044304522
107	0x3f73039a	0.9492737
108	0x3ea19a46	0.31563014
109	0xbeb0506d	-0.3443636
110	0x3d272acd	0.040812302
111	0x3ece8a3f	0.40339848
112	0x3f309e7b	0.6899182
113	0xbf4354ba	-0.7630116
114	0xbece1995	-0.40253893
115	0xbe8c014b	-0.27344736
116	0x3e31a5e8	0.17348444
117	0x3e25f5e5	0.16207083
118	0x3ecd77b7	0.40130398
119	0xbd153ea1	-0.03643668
120	0xbec284ad	-0.3799185
121	0xbebd4256	-0.36964673
122	0xbe06a152	-0.13147476
123	0x3edae45d	0.42752352
124	0xbd6fac07	-0.058513667
125	0xbe826574	-0.25468028
126	0xbce9d2b0	-0.028542846
127	0x3e19be67	0.15014039
128	0x3e195d63	0.1497703
129	0x3e860646	0.2617666
130	0x3e57a1fc	0.21057886
131	0xbd1643fd	-0.036685932
132	0x3f07051b	0.52742165
133	0x3d9fac66	0.07796554
134	0x3c163a98	0.009169243
135	0xbd7fa6fe	-0.062415116
136	0x3f199acd	0.6000183
137	0xbf910a93	-1.1331352
138	0xbee2c070	-0.44287443
139	0xbdbe113e	-0.092806324
140	0xbdac647c	-0.084176034
141	0x3ed37cd0	0.41306162
142	0xbeafd551	-0.34342435
143	0xbf6c4be5	-0.92303306
144	0xbf9483f5	-1.160277
145	0x3ee2dafc	0.44307697
146	0xbe6d8dc0	-0.23198605
147	0xbe059646	-0.13045606
148	0x3d8d9f2b	0.069151245
149	0x3ebc34da	0.36759073
150	0x3f15c2c5	0.5850032
151	0xbe7064ee	-0.23476002
152	0x3f128d2a	0.5724665
153	0x3e810c5c	0.25204742
154	0xbe67a654	-0.22622043
155	0xbe98b2c2	-0.2982388
156	0xbe8a5781	-0.27019885
157	0xbeeee4be	-0.4665889
158	0x3f306ee4	0.68919206
159	0x3db8f2e4	0.09030703
160	0xbea14cc8	-0.31503892
161	0xbd62f478	-0.055408925
162	0x3f0f65e2	0.56014836
163	0xbf48aeb4	-0.78391576
164	0xbe4e925f	-0.20173024
165	0x3dbdab2e	0.092611656
166	0xbe5ab7e1	-0.21359207
167	0x3e1d5ab4	0.15366632
168	0x3f43956d	0.7639988
169	0x3f136eeb	0.5759112
170	0xbd0eb8c2	-0.034844168
171	0x3f30e50c	0.690995
172	0xbdbd5715	-0.09245125
173	0x3f26280e	0.6490487
174	0x3f16598b	0.5873038
175	0xbde458fb	-0.11149784
176	0xbe69ac70	-0.22819686
177	0xbeef83e5	-0.46780315
178	0xbf3b9c9d	-0.7328585
179	0x3d7705e4	0.060308352
180	0xbe318339	-0.17335214
181	0x3eaac62a	0.33354312
182	0x3e07bee8	0.13256419
183	0x3d96b632	0.0735897
184	0x3f530125	0.8242362
185	0xbec428ce	-0.38312382
186	0x3c14a189	0.009071716
187	0x3f063e23	0.52438563
188	0xbe13e8e8	-0.14444315
189	0x3cdb686f	0.026783196
190	0xbe95503c	-0.29162776
191	0x3e1a58c7	0.15072928
192	0xbed37fc8	-0.41308427
193	0xbea5413d	-0.32276335
194	0xbe073304	-0.13203055
195	0xbe4bbbd7	-0.19895874
196	0xbd23701c	-0.039901838
197	0x3eb42c27	0.35189936
198	0x3f1b853c	0.60750175
199	0x3db6a30a	0.08917816
200	0xbf1b342c	-0.6062648
201	0x3eb866ca	0.36015922
202	0x3e589ab5	0.21152766
203	0x3ea72aff	0.3264999
204	0xbf48bb7e	-0.7841109
205	0xbf33fd4a	-0.70308363
206	0x3e5d7e28	0.21630156
207	0x3e0a247f	0.13490485
208	0x3e448479	0.1919116
209	0x3e8b6ab9	0.2722986
210	0x3e6a4b8d	0.22880383
211	0x3e1ee440	0.15516758
212	0x3f0701be	0.52737033
213	0xbd99f435	-0.07517282
214	0xbf6d6a4b	-0.92740315
215	0xbde2af30	-0.110685706
216	0x3f066282	0.5249406
217	0x3e21edda	0.1581339
218	0x3e3da8f3	0.1852148
219	0xbec4f6c9	-0.38469532
220	0x3d944db5	0.07241384
221	0x3d498c23	0.04920591
222	0x3e975d0b	0.29563174
223	0x3f16aac5	0.58854324
224	0x3f1772e4	0.59159684
225	0xbe3c3f20	-0.18383455
226	0x3f9c6a1b	1.2219881
227	0x3ebdeeb5	0.37096182
228	0xbefacce2	-0.48984438
229	0xbe974929	-0.29548004
230	0x3e70554d	0.2347004
231	0x3e2c74d0	0.16841435
232	0xbe06ce4a	-0.1316463
233	0x3e95d9e8	0.29267812
234	0x3ef7486d	0.48297444
235	0x3e854872	0.26031834
236	0xbdb7fd3c	-0.089838475
237	0x3f46f4c3	0.77717227
238	0xbddf267c	-0.10896012
239	0xbf5c680f	-0.8609628
240	0x3eb6a7fa	0.3567503
241	0xbd6e606c	-0.058197424
242	0xbd0956d0	-0.033530056
243	0x3f810df7	1.0082387
244	0xbef0d750	-0.4703927
245	0xbe67515b	-0.22589628
246	0x3dad74c7	0.08469539
247	0x3f01af24	0.5065787
248	0xbec656d9	-0.38738135
249	0x3e31a0dd	0.1734652
250	0x3ea593bf	0.32339284
251	0x3d5a1cd6	0.053250156
252	0x3e95b7a0	0.29241657
253	0xbd96ad18	-0.07357234
254	0x3e9aff38	0.3027284
255	0x3e8d9a98	0.27657008

network_body._body_endoder.seq_layers.0.bias f4 [128]
0	0x3dd0c472	0.10193719
1	0x3d7e7609	0.062124286
2	0x3de9e560	0.11420703
3	0xbd11cd39	-0.035596106
4	0xbd727eea	-0.059203066
5	0xbcaf6883	-0.02141214
6	0x3cffb885	0.031215915
7	0xbca6c69b	-0.020358374
8	0x3d259146	0.040421747
9	0xbdac9b72	-0.08428086
10	0xbce50e30	-0.027960867
11	0x3cfa92d2	0.030587588
12	0xbde1dc85	-0.11028389
13	0xbd1ae067	-0.037811663
14	0xbd8028ad	-0.06257758
15	0xbd58a861	-0.052894954
16	0xbd7f2009	-0.06228641
17	0x3ce55884	0.02799631
18	0xbd047b5b	-0.032344203
19	0xbc92f7fe	-0.017940518
20	0x3d446edd	0.04795729
21	0x3d2b9996	0.041894518
22	0x3c9e77f6	0.019344311
23	0x3d386cb8	0.045025557
24	0xbd679658	-0.056539863
25	0xbd38a310	-0.045077384
26	0xbca2aa79	-0.019856678
27	0xbd8c436f	-0.068487994
28	0x3c14559d	0.009053615
29	0x39bcafaa	0.00035989034
30	0x3d46a92c	0.04850118
31	0xbb991ee2	-0.004672871
32	0xbdcad1e6	-0.09903316
33	0xbc812be8	-0.015768006
34	0xbe09f200	-0.13471222
35	0x3c98a2eb	0.018632373
36	0xbd15fdb1	-0.036618892
37	0xbd7b7e20	-0.06139958
38	0x3cbaa8c6	0.022785556
39	0x3d47deff	0.04879665
40	0x3d6762ad	0.05649059
41	0xbd6405e5	-0.055669684
42	0xbba659a0	-0.005076602
43	0xbdeefb4e	-0.11669026
44	0x3d4463f9	0.047946904
45	0x3d6b9e3e	0.05752396
46	0x3a0bc8c4	0.00053323456
47	0xbcab1f51	-0.020888956
48	0x3d2b2fd5	0.041793663
49	0x3beef43b	0.007292298
50	0xbc86efcd	-0.016471768
51	0x3d962215	0.073307194
52	0xbd1dade0	-0.0384959
53	0xbdadcbd3	-0.08486142
54	0x3c3ed1d7	0.011646709
55	0xbd85c9fa	-0.065326646
56	0xbdd48676	-0.10377209
57	0xbd930caa	-0.0718015
58	0xbd0d49ca	-0.0344942
59	0x3dca6a7a	0.0988359
60	0x3a02d618	0.0004991009
61	0xbd505989	-0.050866637
62	0x3d77802b	0.060424965
63	0xbb4392b2	-0.0029842076
64	0x3d4f3714	0.050589636
65	0xbe0895f1	-0.13338448
66	0xbd47823a	-0.048708178
67	0x3d6f9864	0.05849494
68	0xbd3d7203	-0.04625131
69	0x3c9b28c3	0.018940335
70	0xbaf4efef	-0.0018687228
71	0xbd3fb8f9	-0.046807263
72	0x3d36c519	0.04462156
73	0xbca955d8	-0.020670816
74	0xbd93707a	-0.071991876
75	0x3d36555f	0.04451501
76	0x3d875d27	0.06609564
77	0xbd094b68	-0.03351918
78	0xbdcfa0d5	-0.10138098
79	0xbd33ecb5	-0.043926913
80	0xbc1eb931	-0.009687708
81	0xbcbe41e4	-0.023224778
82	0xbdefd4c8	-0.11710507
83	0xbd54772d	-0.051871467
84	0xbd9eed80	-0.07760143
85	0x3c55610a	0.013023624
86	0xbd0c3ac7	-0.034235742
87	0x3c838340	0.016053796
88	0x3d9615e6	0.073283955
89	0xbd4941f4	-0.049135163
90	0x3c3eb1f0	0.011639103
91	0xbc1005d6	-0.008790454
92	0xbdd3b10f	-0.103365056
93	0xbc6e6951	-0.014551477
94	0x3d0f97d8	0.03505692
95	0xbccbd584	-0.024882086
96	0x3d1370e0	0.035996318
97	0x3d8472e6	0.06467228
98	0xbc9dcef4	-0.019263722
99	0xbc67a571	-0.014138565
100	0xbd56456f	-0.05231231
101	0xbd15180f	-0.036399897
102	0xbcf59378	-0.029977545
103	0xbdb41cf7	-0.08794587
104	0xbc1fa1b0	-0.009743139
105	0xbdb286f6	-0.08717148
106	0xbd056ef7	-0.032576527
107	0xbcfec384	-0.031099088
108	0xbba31ab3	-0.004977548
109	0xbd1655a0	-0.036702752
110	0xbdd22858	-0.10261601
111	0xbdaad8f9	-0.083421655
112	0x3c7cdb31	0.015433119
113	0x3da1976a	0.07890208
114	0xb8f5cec3	-0.00011721023
115	0x3c05c1e1	0.0081639
116	0x3cea26bf	0.028582929
117	0x3d871471	0.06595696
118	0xbc515d6d	-0.012778622
119	0xbe2b98bd	-0.16757484
120	0xbd689352	-0.05678112
121	0x3d0f3db7	0.034970965
122	0x3ccdb7ce	0.025112059
123	0x3c47ad9f	0.012187391
124	0x3d69e683	0.0571046
125	0x3c436b64	0.011927459
126	0xbd89c5f8	-0.06727213
127	0x3d9b8d2a	0.07595284

network_body._body_endoder.seq_layers.2.weight f4 [128, 128]
0	0x3c9bd516	0.019022506
1	0x3db63d2e	0.08898388
2	0xbe01ec63	-0.1268783
3	0x3df3435d	0.11878083
4	0xbd808145	-0.06274656
5	0x3c72b91d	0.014814642
6	0xbd8ff614	-0.070293576
7	0x3a8e6773	0.001086457
8	0xbe5453dc	-0.20735115
9	0x3d8d21a4	0.06891182
10	0x3d4f78f3	0.050652456
11	0xbdb73a8c	-0.08946714
12	0x3ca176f2	0.019710038
13	0x3cc1b95b	0.023647955
14	0x3d1e86c8	0.038702756
15	0xbd28fdbe	-0.041257612
16	0xbe02848d	-0.12745877
17	0x3dbbc993	0.091693066
18	0xbe58d263	-0.21174006
19	0xbd338030	-0.04382342
20	0xbd016058	-0.03158602
21	0x3cdb3329	0.026757794
22	0x3aee6e87	0.0018190899
23	0x3c756d6c	0.0149797015
24	0xbe09d1f2	-0.13458994
25	0xbe07d003	-0.13262944
26	0xbc697175	-0.014248242
27	0xbd3d1aa6	-0.046167992
28	0x3d7947cc	0.060859486
29	0xbda45335	-0.08023683
30	0x3d08e87c	0.03342484
31	0x3da6740b	0.08127602
32	0x3dd1242f	0.102119796
33	0x3d85cac1	0.06532813
34	0xbe06b142	-0.13153556
35	0xbdfab40e	-0.12241374
36	0xbde2dcd4	-0.11077276
37	0xbd82094c	-0.063494295
38	0x3c928e7f	0.017890213
39	0xbd8f7d0a	-0.07006271
40	0x3ca7e234	0.020493604
41	0xbd91928a	-0.07108028
42	0x3de71798	0.11283797
43	0xbd6836e6	-0.05669298
44	0xbcdd74b8	-0.027033195
45	0x3d85d508	0.06534773
46	0xbdcc5623	-0.09977367
47	0x3d867bef	0.06566607
48	0x396f18bb	0.00022802029
49	0x3e08a509	0.13344206
50	0xbc9b20b6	-0.018936496
51	0x3dd05660	0.10172725
52	0x3cd7855a	0.026308704
53	0xbe6572f7	-0.22407137
54	0x3adc9735	0.0016829731
55	0x3d8896bb	0.066693746
56	0xbe5efd35	-0.21776278
57	0x3d94fba7	0.072745614
58	0xbda1efbe	-0.07907055
59	0x3d49b5d2	0.049245663
60	0x3bb8e6c5	0.0056427442
61	0xbe13af81	-0.14422418
62	0xbe4e90df	-0.20172451
63	0xba975d56	-0.0011548202
64	0xbe0a2b28	-0.13493025
65	0x3de5efbc	0.11227366
66	0xbdb1948d	-0.08670912
67	0xbe4909c1	-0.19632627
68	0xbdc89087	-0.097931914
69	0x3da6c5b7	0.0814318
70	0xbcc14c0a	-0.023595829
71	0xbe2defa2	-0.16985944
72	0xbdc2043a	-0.094734624
73	0xbc617925	-0.013761793
74	0x3d3fdba9	0.046840344
75	0xbccd22bf	-0.025040982
76	0xbde73e3d	-0.11291168
77	0xbd582ad8	-0.052775234
78	0x3d73886d	0.059456278
79	0xbdeb5447	-0.11490684
80	0x3d235d33	0.039883804
81	0x3d0b208b	0.033966582
82	0xbe1757ab	-0.14779536
83	0x3bab2b46	0.0052236645
84	0xbda93d94	-0.08263698
85	0x3ccbba82	0.024869207
86	0x3cfdc207	0.030976309
87	0x3e0c896b	0.13724296
88	0xbd217f48	-0.039428025
89	0xbb8b3ef7	-0.0042494494
90	0x3d145a1e	0.036218755
91	0xbe1b8add	-0.15189691
92	0x3d94f83c	0.072739094
93	0x3c250670	0.010072336
94	0xbd97c0e2	-0.07409836
95	0x3d1b915a	0.037980415
96	0xbd5f9df3	-0.05459399
97	0x3cdee380	0.02720809
98	0xbdf71851	-0.12065185
99	0xbd7d4055	-0.06182893
100	0x3d9878f6	0.074449465
101	0x3bbc46c6	0.0057457415
102	0x3d83b37b	0.064307176
103	0xbd9f4d1e	-0.07778381
104	0x3cc25151	0.023720415
105	0xbd500237	-0.050783362
106	0xbd6b8aee	-0.05750554
107	0x3cd62d04	0.026144512
108	0x3e9162b3	0.28395614
109	0xbd467002	-0.048446663
110	0xbdf13057	-0.11776798
111	0xbe313b7e	-0.1730785
112	0x3d5f2fe7	0.054489043
113	0xbc8df259	-0.017327474
114	0xbd2741dc	-0.040834293
115	0xbe684bc7	-0.22685157
116	0xbd509ed3	-0.050932717
117	0xbdd033fb	-0.101661645
118	0x3cb6befb	0.022307863
119	0x3d93198a	0.071826056
120	0x3b98f532	0.0046679014
121	0xbdd7e92f	-0.10542523
122	0xbd1e4639	-0.03864119
123	0x3d31c76b	0.04340307
124	0xbdbdb670	-0.09263313
125	0xbbaab3a5	-0.0052094036
126	0x3caece99	0.021338748
127	0x3d4bc873	0.04975171
128	0xbd096dd6	-0.033552013
129	0x3db70a5b	0.08937522
130	0xbcee437f	-0.029084919
131	0xbce663e4	-0.028123803
132	0x3c6894bf	0.01419562
133	0xbde4d081	-0.111725815
134	0xbd9546dd	-0.07288907
135	0xbdd86bd3	-0.10567441
136	0xbd099ef8	-0.03359887
137	0x3ded0363	0.115729116
138	0xbb5a49dc	-0.0033308184
139	0xbd320bb6	-0.0434682
140	0xbba97c07	-0.005172256
141	0x3d0af267	0.03392258
142	0xbd6577f3	-0.056022596
143	0xbdd460ba	-0.10370012
144	0xbccf7e43	-0.025328761
145	0xbdd553de	-0.10416387
146	0x3df9d372	0.12198533
147	0x3e1699cd	0.14707108
148	0xbe2858fd	-0.16440196
149	0xbce30330	-0.02771148
150	0xbd3689c7	-0.04456499
151	0xbbe69918	-0.007037293
152	0x3de0fa87	0.10985284
153	0xbd874b82	-0.06606199
154	0x3e060229	0.13086762
155	0x3c972a6d	0.018452847
156	0x3d2e28f1	0.042519514
157	0xbd969f79	-0.07354636
158	0x3d27b654	0.040945366
159	0x3d88b128	0.06674415
160	0xbd4fd78b	-0.050742667
161	0xbdc16d32	-0.094446555
162	0x3c235000	0.009967804
163	0x3d925bd0	0.07146418
164	0xbba5a9b6	-0.0050556315
165	0xbc16add1	-0.0091967145
166	0xbda82a47	-0.08211189
167	0x3d637b7b	0.055537682
168	0xbdb3d433	-0.08780708
169	0x3db6dde9	0.08929045
170	0xbd9ea874	-0.07746974
171	0x3e1ebf12	0.15502575
172	0x3b9f5071	0.0048618843
173	0xbe27145c	-0.1631636
174	0xbcc282e3	-0.023744052
175	0x3cde3c03	0.027128225
176	0x3d84dfb9	0.06487984
177	0xbdd28530	-0.1027931
178	0xbbcea919	-0.006306779
179	0xbd998d2d	-0.0749763
180	0x3dc36991	0.095416196
181	0x3d9d675d	0.076857306
182	0x3df523f7	0.119697504
183	0x395408d1	0.0002022118
184	0x3e127726	0.14303264
185	0xbcbbdce5	-0.02293248
186	0xbda4ba87	-0.0804339
187	0xbd0e6f9b	-0.034774404
188	0x3c286e6d	0.010280234
189	0xbca672c4	-0.020318396
190	0xbd683e2b	-0.056699913
191	0x3b7dd217	0.003872996
192	0x3e14a837	0.14517294
193	0xbded3811	-0.115829594
194	0x3e52af12	0.20574597
195	0xbd37a219	-0.044832323
196	0x3da0a0bb	0.07843157
197	0xbd781605	-0.060567874
198	0xbc856fc2	-0.016288642
199	0x3d398b75	0.045299012
200	0x3c13f997	0.009031675
201	0xbd72ee8b	-0.059309524
202	0xbe443b5b	-0.19163267
203	0x3e5b9f00	0.21447372
204	0x3dd2775c	0.10276672
205	0xbdd7bc38	-0.10533947
206	0xbdaa1c7c	-0.08306214
207	0xbd2cdd64	-0.042203322
208	0xbd848a04	-0.06471637
209	0x3d870622	0.065929666
210	0xbdd40a87	-0.103535704
211	0xbe23e999	-0.16007079
212	0xbde10579	-0.10987372
213	0xbd2858d3	-0.041100334
214	0x3c180b32	0.009280013
215	0xbdfe7fd9	-0.12426729
216	0xbe7e7d2e	-0.2485244
217	0xbd6a09b8	-0.057138175
218	0xbd9d7098	-0.07687491
219	0x3da678ec	0.08128533
220	0xbdb50fcf	-0.08840906
221	0x3d20900c	0.039199874
222	0xbd5a6fcc	-0.053329274
223	0x3c571639	0.013127857
224	0x3d31a5bb	0.043370944
225	0xbd75473c	-0.059882388
226	0xbdb710ed	-0.08938775
227	0x3d4a2fdc	0.04936205
228	0xbdcc7707	-0.0998364
229	0xbdda3643	-0.10654881
230	0xbd6552a4	-0.055987015
231	0xbd8251ea	-0.0636328
232	0xbb2f675e	-0.0026764493
233	0x3d60735d	0.05479752
234	0xbcee835d	-0.029115373
235	0xbc4dcb57	-0.012560687
236	0xbdb62d54	-0.088953644
237	0xbdafd9d3	-0.085864685
238	0x3d715f03	0.0589285
239	0xbe2ce9f2	-0.16886118
240	0xbd4a3358	-0.04936537
241	0x3d21f183	0.039536964
242	0xbe529438	-0.20564353
243	0x3d6e2138	0.05813715
244	0xbc791ce2	-0.01520464
245	0xbe2266f0	-0.1585958
246	0x3deb16bf	0.11478948
247	0xbe83cea0	-0.2574358
248	0xbdbc55f4	-0.09196082
249	0xbe3601e8	-0.17774165
250	0xbd8e96b8	-0.06962341
251	0xbe2379a6	-0.15964374
252	0xbcf170b2	-0.029472683
253	0xbd306be0	-0.043071628
254	0xbddf9138	-0.1091637
255	0x3e174424	0.14772087

network_body._body_endoder.seq_layers.2.bias f4 [128]
0	0xbcf97df5	-0.030455569
1	0x3d335984	0.04378654
2	0x3c4fbbf9	0.0126790935
3	0x3cdb69de	0.02678388
4	0xbd11dfc9	-0.03561381
5	0x3da353f5	0.07974998
6	0x3cc97961	0.02459401
7	0x3c8f78dd	0.017513687
8	0x3c9555c1	0.018229367
9	0x3d6ab875	0.05730482
10	0x3d820cef	0.06350123
11	0xbd917690	-0.07102692
12	0xbd67df9a	-0.056609727
13	0x3b2b1edb	0.002611092
14	0x3dcd5afc	0.100271195
15	0xbae4e6ad	-0.0017463766
16	0xbca0bf79	-0.019622551
17	0x3cdf5b14	0.02726511
18	0x3c2c5e4f	0.010520532
19	0xbc642c86	-0.013926631
20	0x3d599db1	0.053128902
21	0xbd0b7606	-0.034048103
22	0x3d5f56f7	0.054526296
23	0x3d16e468	0.03683892
24	0x3dcd0daa	0.10012372
25	0x3c952dd8	0.018210337
26	0xbd05a9a3	-0.03263248
27	0xbce1e9c3	-0.027577287
28	0xbbbc579a	-0.0057477476
29	0xbc005c4b	-0.007834504
30	0xbc91b7e9	-0.01778789
31	0x3942df62	0.00018584498
32	0x3d66848d	0.056278754
33	0xba4e88e8	-0.0007878677
34	0x3c8e1c17	0.017347379
35	0x3db0578b	0.086104475
36	0x3be74f35	0.0070590028
37	0xbaab55eb	-0.001307187
38	0xbc6e455b	-0.014542903
39	0xbcfbd4aa	-0.030741055
40	0xbd10872c	-0.03528516
41	0x3ce86494	0.028368272
42	0xbcb9ae46	-0.022666108
43	0x3d00597d	0.031335343
44	0x3d0fcc5e	0.03510701
45	0x3d71a5a0	0.058995843
46	0x3ca9a507	0.020708574
47	0xbc911b5e	-0.017713245
48	0x3cdca739	0.026935207
49	0xbd19e5f1	-0.037572805
50	0x3d6db8d1	0.058037583
51	0xbca216e7	-0.019786311
52	0x3c019dee	0.0079111885
53	0xbd5fb6e4	-0.054617777
54	0xbd18b712	-0.037283964
55	0xbd8be758	-0.06831235
56	0x3dc12f2b	0.09432825
57	0x3db66f81	0.089079864
58	0xbb0221d0	-0.001985658
59	0x3c4b113d	0.012394247
60	0x3c2df701	0.010617972
61	0xbbc4029c	-0.0059817564
62	0xbc8a4efc	-0.016883366
63	0xbb9372da	-0.0044997754
64	0xbc8badc2	-0.017050628
65	0x3d406d5b	0.04697929
66	0x3d208d11	0.03919703
67	0x3d049f18	0.032378286
68	0x3d3ffc5b	0.046871524
69	0x3dad4d68	0.0846203
70	0x3d80ba35	0.06285516
71	0x3d69a5d7	0.057042923
72	0x3da66104	0.08123973
73	0x3d204376	0.039126836
74	0x3cb50d9c	0.022101216
75	0x3c16cc17	0.009203932
76	0xbcc9a3a6	-0.024614166
77	0x3c8c058a	0.017092485
78	0xbd201512	-0.039082594
79	0x389d75eb	7.508307e-05
80	0x3d8c75eb	0.068584286
81	0xbd39bd33	-0.04534645
82	0xbaac34e1	-0.0013138318
83	0x3d79b671	0.060965005
84	0x3cc36148	0.023850098
85	0x3c925062	0.017860595
86	0x3cba14c8	0.022714987
87	0x3dc8341f	0.09775566
88	0x3cb761da	0.022385526
89	0x3bf6d1d4	0.0075323377
90	0xbc456e72	-0.012050258
91	0x3d3bd2bb	0.045855265
92	0xbd05fd0d	-0.03271203
93	0x3d5ce0ef	0.05392545
94	0x3d1076cb	0.03526954
95	0xbd3f6dd8	-0.046735615
96	0xbca4d928	-0.02012308
97	0x3aa46102	0.0012541118
98	0x3cfb00b1	0.030639978
99	0xbc7f393c	-0.015577611
100	0xbd54d0b3	-0.051956844
101	0xbc5c9717	-0.013463757
102	0x3d62457f	0.055242058
103	0x3bfcb009	0.0077114147
104	0xbd0ad84a	-0.033897676
105	0xbd213b6d	-0.039363313
106	0xbc7a2430	-0.015267417
107	0x3d1eb056	0.038742386
108	0x3d28e77d	0.04123639
109	0x3b7df376	0.003874985
110	0xbd13e2c9	-0.03610495
111	0x3b55d253	0.0032626584
112	0x3d815151	0.06314338
113	0x3cecd2b6	0.028909069
114	0xbc59b16b	-0.013286929
115	0xbd36d144	-0.044633165
116	0xbd379874	-0.044823125
117	0x3db41ec7	0.08794933
118	0xbd8622a1	-0.06549574
119	0xbbb13a5b	-0.005408568
120	0x3da04f35	0.078276075
121	0x3d84e03d	0.064880826
122	0xbc511f0a	-0.012763748
123	0x3d5837d1	0.052787606
124	0x3d38b2bd	0.045092333
125	0xbc933b8f	-0.017972736
126	0xbbac2bcb	-0.005254244
127	0x3cb862c1	0.022508027

action_model._continuous_distribution.log_sigma f4 [1, 2]
0	0xbe8aa182	-0.27076346
1	0xbdcb4b06	-0.09926419

action_model._continuous_distribution.mu.weight f4 [2, 128]
0	0xbdbcd273	-0.092198275
1	0x3d0009fe	0.03125953
2	0xbe1f7e7a	-0.1557559
3	0x3d141b87	0.036159065
4	0x39a6379b	0.00031703417
5	0x3d485bcb	0.048915666
6	0xbba9e571	-0.0051848223
7	0xbc020916	-0.007936737
8	0xbbd7080b	-0.006562238
9	0x3d7acc05	0.061229724
10	0x3cb9bbfc	0.022672646
11	0xbdbac004	-0.09118655
12	0xbd96a577	-0.07355779
13	0xbc08278d	-0.008310211
14	0x3da93a50	0.08263075
15	0x3c8bed4d	0.017080927
16	0xbd2f6fb5	-0.04283114
17	0xbb504f31	-0.0031785483
18	0xbbb9c86c	-0.005669644
19	0xbdfc916e	-0.12332426
20	0x3c69efe7	0.014278389
21	0xbdecde7f	-0.11565875
22	0x3bf2740e	0.0073990887
23	0xbe17deec	-0.14831132
24	0x3d91e6cb	0.071240984
25	0xbdb64371	-0.08899582
26	0xbdd69395	-0.10477368
27	0xbe053c45	-0.13011272
28	0xbe179869	-0.14804234
29	0xbe2e33aa	-0.17011896
30	0xbdf12c3d	-0.11776016
31	0xbd013fa7	-0.031554844
32	0x3c9c0b77	0.019048436
33	0x3c587a3f	0.0132127395
34	0xbbb1f44d	-0.0054307343
35	0x3d6f19d9	0.05837426
36	0xbdaca6bd	-0.0843024
37	0xbbee1e77	-0.0072668153
38	0xbde4e589	-0.11176593
39	0xbdf653f0	-0.120277286
40	0xbd91f70f	-0.07127201
41	0xbe1a9f13	-0.15099744
42	0xbdf36468	-0.11884385
43	0x3a4b8d08	0.0007764851
44	0x3c922f4c	0.017844819
45	0x3cf13ca1	0.029447855
46	0xbdf8375b	-0.12119933
47	0xbda76807	-0.081741385
48	0xbe21f9be	-0.15817925
49	0xbe152b92	-0.14567402
50	0x3ca4ea60	0.02013129
51	0xbdfeb636	-0.12437098
52	0xbd33f06e	-0.043930463
53	0xbc85369d	-0.016261393
54	0xbd87fdd9	-0.066402145
55	0xbd587cec	-0.05285351
56	0x3d66e6cb	0.056372445
57	0x3d24ddb9	0.040250514
58	0xbe20aa09	-0.15689863
59	0xbde5ce1e	-0.11220954
60	0xbe2e719c	-0.17035526
61	0xbe0b488e	-0.13601896
62	0xbda4aaca	-0.08040388
63	0xbe09aebc	-0.13445562
64	0xbca817fc	-0.02051925
65	0x3d4b9c6e	0.04970973
66	0x3d3c1b2c	0.04592435
67	0x3d02715e	0.031846397
68	0x3d470dcc	0.048597142
69	0x3d84f758	0.064924896
70	0x3d1bd748	0.038047105
71	0x3cd4495a	0.025913883
72	0x3d7b5a61	0.06136549
73	0x3d2fe465	0.042942423
74	0xbe1f92b7	-0.15583311
75	0xbc675858	-0.014120184
76	0xbdf43ecb	-0.11926039
77	0xbe1ffbb8	-0.15623367
78	0xbd9212dc	-0.071325034
79	0xbe1f5740	-0.15560627
80	0x3c674dce	0.014117671
81	0xbca28de1	-0.019843044
82	0xbe0ed261	-0.1394744
83	0x3ce82469	0.028337674
84	0x3c06df1e	0.008231906
85	0xbcc209c2	-0.023686294
86	0xbc697eec	-0.014251452
87	0x3d885df1	0.06658543
88	0xbb62dbbb	-0.0034615833
89	0xbdf929f5	-0.12166206
90	0xbc2cc825	-0.010545765
91	0x3cae4721	0.021274151
92	0xbdf63af2	-0.12022962
93	0x3cb7211b	0.022354653
94	0xbe22ac44	-0.15886027
95	0xbddca75d	-0.107741095
96	0xbddd0baa	-0.1079324
97	0xbd37becb	-0.04485969
98	0xbe36d8a0	-0.17856073
99	0xbd952007	-0.07281499
100	0xbde3680f	-0.11103832
101	0xbdf61b45	-0.1201692
102	0x3d0b1f35	0.03396531
103	0xbe20e909	-0.15713896
104	0xbdc0585c	-0.09391853
105	0xbdbee183	-0.09320357
106	0xbdd4aaaf	-0.10384118
107	0x3d35c3c4	0.04437615
108	0xbe1615b2	-0.14656714
109	0xbe109d13	-0.14122419
110	0x3c344fe6	0.011005377
111	0xbe083c47	-0.13304244
112	0x3cdfc1a9	0.027314024
113	0xbe222393	-0.15833883
114	0xbdd2578d	-0.10270605
115	0xbde7572c	-0.112959236
116	0xbdae3ca6	-0.085076615
117	0x3d9b05f6	0.07569496
118	0xbddc3035	-0.10751382
119	0xbe06b7cf	-0.13156055
120	0x3d05b983	0.03264762
121	0x3d685e2b	0.05673043
122	0xbdc5f8ab	-0.0966657
123	0x3d2239b2	0.039605804
124	0x3c99f256	0.018792313
125	0xbca69bda	-0.020337988
126	0x3b6e494d	0.0036359609
127	0xbd2b1a47	-0.041773107
128	0x3b1191f5	0.0022212241
129	0xbbc55693	-0.0060222833
130	0x3c2abf12	0.010421531
131	0xbd60cd43	-0.054883253
132	0xbd297401	-0.041370396
133	0xbc1ca4b2	-0.009560751
134	0x3d8cda86	0.068776175
135	0x3dbf1b6c	0.09331402
136	0xbb356142	-0.0027676378
137	0xbd977aec	-0.07396492
138	0x3b86d770	0.0041150376
139	0x3d6c50a1	0.05769408
140	0x3c101554	0.0087941475
141	0xbc926691	-0.017871173
142	0x3c17018b	0.0092166765
143	0xbdae7220	-0.08517861
144	0xb9f36019	-0.0004642017
145	0x3d0aa35e	0.033847205
146	0x3d44d93f	0.048058745
147	0x3c3b24c5	0.011422341
148	0x3d842701	0.06452752
149	0xbc05b475	-0.0081607
150	0x3da5afaf	0.080901496
151	0xbcf3dd63	-0.029768651
152	0x3c910c97	0.017706199
153	0xbdf51975	-0.11967746
154	0x3c872bb4	0.016500331
155	0xbb5ab16a	-0.0033369907
156	0xbcb1f984	-0.021725424
157	0xbc09d3c6	-0.008412307
158	0xbb85a6c0	-0.004078716
159	0x3d79dca4	0.061001435
160	0x3db1a105	0.0867329
161	0xbd9e0a92	-0.0771686
162	0xbbc120db	-0.0058938093
163	0xbc1334d6	-0.008984765
164	0xbc144109	-0.009048709
165	0x3cbdcfe5	0.02317042
166	0xbbdbdeba	-0.0067099007
167	0xbb761747	-0.0037550495
168	0x3c17c296	0.0092627015
169	0xbc890e8f	-0.016730575
170	0xb99b0c0c	-0.0002957288
171	0xbc26f42b	-0.01019005
172	0xbd41dc1f	-0.047329064
173	0x3dc03f54	0.09387079
174	0xbd894473	-0.06702509
175	0x3bceff5a	0.0063170614
176	0xbd307857	-0.043083515
177	0xbc3558fe	-0.011068581
178	0xbcc6d004	-0.024269111
179	0xbbfa8d77	-0.0076462585
180	0x3dc86570	0.09784973
181	0x3a2f0063	0.0006675778
182	0x3c64889d	0.013948587
183	0x3d643ab0	0.05572003
184	0xbb8a0af6	-0.0042127324
185	0x3bb2812f	0.005447529
186	0xbbef829a	-0.00730927
187	0xbdbe780e	-0.09300242
188	0xbb8df1dc	-0.0043318104
189	0xbce386a1	-0.027774157
190	0x3cc33c7e	0.023832556
191	0xbd40d859	-0.047081325
192	0x3d4182d7	0.04724392
193	0xbd97ed74	-0.074183375
194	0xbd10c067	-0.03533974
195	0xbd656e34	-0.0560133
196	0xbd376424	-0.044773236
197	0xbcc4f494	-0.024042405
198	0xbbda9a5a	-0.006671232
199	0x3d2f2515	0.042759974
200	0xbbec4260	-0.007210061
201	0xbd7187a7	-0.05896726
202	0xbc8e6c96	-0.017385762
203	0x3da70d8d	0.081568815
204	0x3c35a582	0.011086823
205	0x3a4d0ef2	0.00078223564
206	0x3c807ed8	0.015685484
207	0xbc889913	-0.016674554
208	0x3d1030bf	0.035202738
209	0x3d07ccf9	0.03315446
210	0xb9c02c26	-0.00036653987
211	0x3df7d9c3	0.121020816
212	0xbcc3b42e	-0.023889627
213	0x3db07940	0.086168766
214	0x3ddd9dbc	0.10821101
215	0x3c1ff7ac	0.009763639
216	0xbb96b986	-0.004599753
217	0x3c19d748	0.009389706
218	0xbd968b40	-0.073507786
219	0x3d9b96f9	0.07597155
220	0xbc1b5908	-0.009481676
221	0x3cbfb194	0.023400106
222	0xbd1df924	-0.038567677
223	0xbcc1b85f	-0.023647485
224	0x3c6f50f9	0.014606708
225	0x3dca4620	0.098766565
226	0x3bc543d6	0.0060200496
227	0x3d6a8c0f	0.057262477
228	0x3c4c726e	0.012478454
229	0xbcadaa9d	-0.021199519
230	0xbdbcc558	-0.09217328
231	0xbc811c5b	-0.015760591
232	0x3c6b17a4	0.014348898
233	0xbc798651	-0.015229777
234	0xbcbae432	-0.02281389
235	0xbd611915	-0.05495556
236	0xbcb1f5f7	-0.02172373
237	0xbcd3e260	-0.02586478
238	0x3dc4df30	0.09612882
239	0x3bca5d1d	0.0061756507
240	0x3d4b2d86	0.04960396
241	0xbcccbaec	-0.024991475
242	0xbd15c860	-0.036568046
243	0x3cb862a6	0.022507977
244	0xbd126a59	-0.035745952
245	0xbc9a29e4	-0.018818803
246	0x3c4c4c99	0.012469434
247	0xbb4c9db2	-0.0031221923
248	0x3cc575ea	0.024104077
249	0xbd934fd4	-0.071929604
250	0xbb3c6172	-0.0028744605
251	0xbd9f0a0c	-0.07765588
252	0x3d9c4cbb	0.07631823
253	0xbd96c304	-0.07361415
254	0xbda9aab2	-0.08284511
255	0xbe0e499f	-0.13895272

action_model._continuous_distribution.mu.bias f4 [2]
0	0x3de6a8a0	0.112626314
1	0x3cb712bf	0.022347806

exp_avg f4 [128, 6]
0	0x3c76f934	0.015074063
1	0xad34bf7a	-1.0274332e-11
2	0xbb91241b	-0.004429353
3	0x3c311960	0.0108092725
4	0x00000000	0.0
5	0xba0e739e	-0.00054340984
6	0x3c8a6e2e	0.01689824
7	0x2f4e9c5a	1.8791138e-10
8	0xbb8a03cb	-0.004211878
9	0xbc5dd3a9	-0.013539233
10	0x00000000	0.0
11	0xbb80b281	-0.0039275293
12	0xba8f60e8	-0.0010938914
13	0xac6bf6ed	-3.353258e-12
14	0xba522552	-0.00080164254
15	0xba74278b	-0.00093137537
16	0x00000000	0.0
17	0xba159c20	-0.00057071634
18	0xba94f644	-0.0011364897
19	0xacd7f7c9	-6.138177e-12
20	0xb9dda682	-0.00042276463
21	0xbae7ac64	-0.0017675278
22	0x00000000	0.0
23	0x3795b14b	1.7844743e-05
24	0x3aa304b5	0.0012437316
25	0x2cc59bdd	5.616381e-12
26	0x39a77e4a	0.00031946815
27	0x398af6da	0.0002650533
28	0x00000000	0.0
29	0x39816efa	0.0002468748
30	0xbb93082e	-0.004487059
31	0xae316101	-4.0331297e-11
32	0xbb576686	-0.0032867505
33	0x3965a4a8	0.00021900481
34	0x00000000	0.0
35	0xbb2751b4	-0.0025530877
36	0x3c611c68	0.013739683
37	0x2f7074f1	2.1869419e-10
38	0xbb4e84d3	-0.0031512275
39	0xbc838299	-0.016053485
40	0x00000000	0.0
41	0xbba4c8a8	-0.005028803
42	0xbc0f3e43	-0.008742872
43	0xaeb902e2	-8.413338e-11
44	0x3b7b2784	0.0038323114
45	0x3b78ff49	0.0037993959
46	0x00000000	0.0
47	0x3b76d950	0.003766615
48	0xbbe1e102	-0.006893278
49	0xae829f31	-5.9399936e-11
50	0xbb33ab62	-0.0027415385
51	0xbb3a639e	-0.0028440724
52	0x00000000	0.0
53	0xba88315e	-0.0010390689
54	0xbad1ee0f	-0.0016016382
55	0xaccfebd1	-5.9094747e-12
56	0xba156ad9	-0.00056998205
57	0xbb189de7	-0.0023287477
58	0x00000000	0.0
59	0xb9955e05	-0.00028489545
60	0xba47a87d	-0.0007616354
61	0x2e6dacfc	5.4041202e-11
62	0xbb94f786	-0.0045461087
63	0xbc81adff	-0.015830038
64	0x00000000	0.0
65	0xbb8c9874	-0.0042906348
66	0x3c8825f0	0.016619653
67	0x2f685b43	2.11327e-10
68	0xbbf219a5	-0.007388311
69	0xbc9c3ea4	-0.019072838
70	0x00000000	0.0
71	0xbbda2729	-0.0066575003
72	0x3a52420f	0.0008020708
73	0x2bf6ef5a	1.7545785e-12
74	0x38931116	7.012689e-05
75	0xbb165371	-0.0022937919
76	0x00000000	0.0
77	0xb957931c	-0.000205588
78	0xb997c1b3	-0.00028945282
79	0x2e04f824	3.023372e-11
80	0xbb595786	-0.003316374
81	0xbc3f1147	-0.011661834
82	0x00000000	0.0
83	0xbb41c943	-0.0029569424
84	0xbb1f9f5b	-0.0024356458
85	0xada8d348	-1.9193216e-11
86	0xba0a67c0	-0.0005279742
87	0xbaf5acb7	-0.001874349
88	0x00000000	0.0
89	0xb94150f4	-0.00018436072
90	0x3a44d27d	0.0007508172
91	0xad0ed783	-8.119619e-12
92	0xba43b280	-0.0007465258
93	0xba98e8a7	-0.0011666015
94	0x00000000	0.0
95	0xb9a03556	-0.00030557316
96	0x3aa629e7	0.0012677283
97	0x2d9811e5	1.7288346e-11
98	0x39e30af5	0.00043304978
99	0xbbc15f75	-0.005901272
100	0x00000000	0.0
101	0xba1b4ca4	-0.0005924201
102	0x3c537d8c	0.012908351
103	0x2f81dc4b	2.362149e-10
104	0xbbb1e9d9	-0.005429488
105	0xbca37802	-0.019954685
106	0x00000000	0.0
107	0xbbe83b18	-0.0070871226
108	0xbc2355c5	-0.0099691795
109	0xaf077026	-1.2318022e-10
110	0x3b91064b	0.004425799
111	0x3c4a7146	0.012356108
112	0x00000000	0.0
113	0x3b989060	0.0046558827
114	0xbad8f387	-0.0016552069
115	0xad5ee0ab	-1.2669125e-11
116	0xbb04a803	-0.0020241744
117	0x3b210788	0.002457114
118	0x00000000	0.0
119	0xbb0bbc1e	-0.0021321843
120	0xb9a1f6a2	-0.0003089207
121	0xad7596e2	-1.396014e-11
122	0xbad581a9	-0.0016289252
123	0x3af3bc47	0.001859554
124	0x00000000	0.0
125	0xbab847db	-0.00140595
126	0xbbe2dfde	-0.0069236597
127	0xae42de81	-4.4308116e-11
128	0xbb20c97a	-0.0024534152
129	0xbb2fef68	-0.0026845578
130	0x00000000	0.0
131	0xbb08eb93	-0.0020892366
132	0xbc265d6f	-0.010154112
133	0xae9985e0	-6.9814154e-11
134	0xbae95b31	-0.0017803666
135	0xbc009429	-0.007847824
136	0x00000000	0.0
137	0xba24f1d9	-0.00062921416
138	0xbb032fb7	-0.0020017454
139	0xaed4895d	-9.6650445e-11
140	0x3a4e7d4b	0.00078769465
141	0x3c8d40eb	0.01724287
142	0x00000000	0.0
143	0x3aaeea57	0.0013344985
144	0x3b19ee89	0.0023488125
145	0x2cca50ef	5.7501707e-12
146	0x3a99060d	0.0011674777
147	0xbb6dc650	-0.0036281534
148	0x00000000	0.0
149	0x39e3b9a6	0.00043435133
150	0xbc0250b0	-0.007953808
151	0xaf12dfa8	-1.3358081e-10
152	0x3b820e3e	0.003968983
153	0x3c2fc436	0.010727933
154	0x00000000	0.0
155	0x3b7e278a	0.0038780891
156	0xbb9c0ec7	-0.004762504
157	0xae8549cc	-6.061249e-11
158	0x38c3b7b0	9.332539e-05
159	0x3bbdab7b	0.0057882643
160	0x00000000	0.0
161	0x3a6c612e	0.00090171664
162	0x3a28e603	0.0006442966
163	0x2eb23fa7	8.10581e-11
164	0xb607d451	-2.0240152e-06
165	0xbbe30ff6	-0.006929393
166	0x00000000	0.0
167	0xba70ac27	-0.0009180926
168	0x3c35c90a	0.011095295
169	0x2f026188	1.1858081e-10
170	0xbb911aa7	-0.004428226
171	0xbc065074	-0.008197892
172	0x00000000	0.0
173	0xbb61fd13	-0.003448312
174	0xb963f1b4	-0.00021738448
175	0xae888db5	-6.209736e-11
176	0xb995611f	-0.00028491855
177	0x3b06c094	0.0020561563
178	0x00000000	0.0
179	0x3b046123	0.00201995
180	0xbbb83fc4	-0.005622836
181	0xaeaeb09e	-7.9439774e-11
182	0xbab405e6	-0.0013734668
183	0x3c109b36	0.008826068
184	0x00000000	0.0
185	0xba87cfa9	-0.001036157
186	0x3c20982d	0.0098019065
187	0x2efbfb1d	1.1458765e-10
188	0xbae9cdf5	-0.0017837869
189	0xbba7c78e	-0.0051202243
190	0x00000000	0.0
191	0xbb108508	-0.002205195
192	0x3a641483	0.0008700566
193	0x2d4d4e99	1.1670353e-11
194	0x3a0bd114	0.0005333584
195	0xbba1ce79	-0.0049379435
196	0x00000000	0.0
197	0xb720323b	-9.548438e-06
198	0x3c8ecd47	0.017431868
199	0x2f42ced4	1.7717677e-10
200	0xbba2d63c	-0.0049693864
201	0xbc322759	-0.010873639
202	0x00000000	0.0
203	0xbb8b995e	-0.004260226
204	0x3ae69ac5	0.0017593732
205	0x2dc60215	2.2510918e-11
206	0x39195b5a	0.00014625248
207	0xbb3d7743	-0.0028910197
208	0x00000000	0.0
209	0xb9c950ce	-0.00038397912
210	0xbc4fb59e	-0.012677578
211	0xaf1a53ec	-1.4036033e-10
212	0x3b7f7f81	0.003898591
213	0x3bd54b3e	0.0065092137
214	0x00000000	0.0
215	0x3b8bb060	0.004262969
216	0x3b07e9e7	0.0020738782
217	0xae82aa3b	-5.9419546e-11
218	0x3b2c1793	0.0026259169
219	0x3c195217	0.009357951
220	0x00000000	0.0
221	0x3b809e20	0.0039251
222	0x3b0c471d	0.0021404692
223	0x2d023180	7.400636e-12
224	0x3a90fdf1	0.0011062009
225	0x3b0c814b	0.002143937
226	0x00000000	0.0
227	0x3a81d151	0.00099043
228	0xba2f5a48	-0.0006689173
229	0x2e9fe499	7.27109e-11
230	0xbbc19d70	-0.0059086606
231	0xbc984858	-0.018589184
232	0x00000000	0.0
233	0xbbd9cdea	-0.0066468613
234	0xbc1a6d2d	-0.009425444
235	0xaea2fdb1	-7.411972e-11
236	0x39c71e18	0.0003797866
237	0x3b165afb	0.0022942412
238	0x00000000	0.0
239	0x3acd249c	0.0015651169
240	0xbbc29b21	-0.005938903
241	0xaba39b2d	-1.1624917e-12
242	0xbb919a9f	-0.004443481
243	0xbc106773	-0.008813727
244	0x00000000	0.0
245	0xbb6bb337	-0.0035964975
246	0x3c35fdcc	0.011107873
247	0x2ebdfbb4	8.6394364e-11
248	0xb8a47d74	-7.843497e-05
249	0xbb5e873b	-0.0033955115
250	0x00000000	0.0
251	0xb98252b2	-0.00024857145
252	0xbc530fe0	-0.012882203
253	0xaf0dc280	-1.2892976e-10
254	0x3b0a1266	0.0021068095
255	0x3b42904d	0.002968806

exp_avg_sq f4 [128, 6]
0	0x3ad3e52d	0.0016166322
1	0x1e2ae925	9.047938e-21
2	0x3995b72e	0.00028555974
3	0x3a0cd8c6	0.0005372878
4	0x00000000	0.0
5	0x3953e6d4	0.00020208518
6	0x3b0ff4e1	0.0021966028
7	0x1f4846c8	4.2410196e-20
8	0x3a2ad721	0.0006517042
9	0x3b9a3666	0.004706192
10	0x00000000	0.0
11	0x3a3436fd	0.0006874649
12	0x37a3c3c2	1.9522271e-05
13	0x1cf91922	1.6483934e-21
14	0x37121f7f	8.709611e-06
15	0x38acb61c	8.2355196e-05
16	0x00000000	0.0
17	0x37655b6f	1.3670752e-05
18	0x381ff63d	3.813788e-05
19	0x1d9e5cf6	4.191837e-21
20	0x38069a53	3.2091815e-05
21	0x390b0645	0.00013258409
22	0x00000000	0.0
23	0x380983ea	3.27862e-05
24	0x3812922c	3.4945246e-05
25	0x1cb51c5f	1.1984909e-21
26	0x37c50454	2.3486245e-05
27	0x390608fa	0.0001278258
28	0x00000000	0.0
29	0x37caa3a7	2.4156483e-05
30	0x392181e4	0.00015402545
31	0x1db7f069	4.8688275e-21
32	0x386fc842	5.7168545e-05
33	0x3a153617	0.0005691959
34	0x00000000	0.0
35	0x38892722	6.539958e-05
36	0x3b45efe6	0.0030202805
37	0x1f778960	5.241792e-20
38	0x3a552b55	0.0008131762
39	0x3bcca670	0.006245427
40	0x00000000	0.0
41	0x3a6ac3b1	0.0008955552
42	0x3a9c7a23	0.0011938255
43	0x1eb19d8c	1.8805764e-20
44	0x39958167	0.00028515907
45	0x3afb5448	0.0019174898
46	0x00000000	0.0
47	0x39c2cb20	0.00037153903
48	0x39a893e1	0.00032153635
49	0x1ea705f9	1.7684283e-20
50	0x391f3b9d	0.0001518563
51	0x3ab323f1	0.0013667328
52	0x00000000	0.0
53	0x39614f88	0.000214873
54	0x381772aa	3.6107995e-05
55	0x1d3084ca	2.3362056e-21
56	0x37a383e6	1.9492534e-05
57	0x38cc3669	9.737613e-05
58	0x00000000	0.0
59	0x379e8344	1.8896193e-05
60	0x395d0e5a	0.00021081549
61	0x1e592c26	1.1497014e-20
62	0x392ca47f	0.00016464478
63	0x3a92b235	0.0011192026
64	0x00000000	0.0
65	0x391e522e	0.00015098669
66	0x3b9fd9a8	0.0048782416
67	0x1fa3519c	6.9168197e-20
68	0x3a98f8fe	0.0011670885
69	0x3c02a098	0.007972859
70	0x00000000	0.0
71	0x3a9b588b	0.0011851949
72	0x3769c6bd	1.3934155e-05
73	0x1cbac3cb	1.2359059e-21
74	0x36d3754f	6.3019465e-06
75	0x3824b2e4	3.9267252e-05
76	0x00000000	0.0
77	0x37084401	8.122065e-06
78	0x3938f1d6	0.00017637698
79	0x1e1a9202	8.182886e-21
80	0x38dc585e	0.00010506877
81	0x3a624ec3	0.0008632952
82	0x00000000	0.0
83	0x3903e633	0.0001257889
84	0x39a09f04	0.00030636054
85	0x1d5aa9d5	2.893986e-21
86	0x38534054	5.036623e-05
87	0x38d91328	0.000103509345
88	0x00000000	0.0
89	0x383099c1	4.2104864e-05
90	0x397a0ec3	0.00023847357
91	0x1d44af6b	2.6031073e-21
92	0x38804584	6.116464e-05
93	0x392841fd	0.00016046311
94	0x00000000	0.0
95	0x386daa18	5.6663615e-05
96	0x3892470d	6.975057e-05
97	0x1de36732	6.01931e-21
98	0x380ac285	3.3082924e-05
99	0x39963bb6	0.00028654718
100	0x00000000	0.0
101	0x3841d20b	4.6210404e-05
102	0x3b693b3b	0.0035588283
103	0x1fada46b	7.3540357e-20
104	0x3a89d184	0.0010514711
105	0x3c04a5dd	0.0080961855
106	0x00000000	0.0
107	0x3a8db07a	0.001081004
108	0x3ab094f0	0.0013472121
109	0x1ef4cf04	2.5920125e-20
110	0x39c3c0e1	0.00037337004
111	0x3b413ca0	0.0029485598
112	0x00000000	0.0
113	0x39e19b47	0.00043031035
114	0x38445f25	4.681865e-05
115	0x1dd6f772	5.690118e-21
116	0x37f9c4cb	2.9774752e-05
117	0x399be9ca	0.0002973809
118	0x00000000	0.0
119	0x38574c39	5.1330982e-05
120	0x39ca50cd	0.00038588644
121	0x1e272dd6	8.850385e-21
122	0x38c96d19	9.604748e-05
123	0x3a3820d9	0.00070239377
124	0x00000000	0.0
125	0x390e5cc5	0.00013576735
126	0x39c9e1d7	0.0003850597
127	0x1e3ac02b	9.8864974e-21
128	0x38eafc74	0.000112050126
129	0x3a545b2e	0.0008100745
130	0x00000000	0.0
131	0x3900b3c9	0.00012274006
132	0x3b062453	0.0020468428
133	0x1f0ad55d	2.9399127e-20
134	0x39e617b8	0.0004388669
135	0x3b5c235b	0.003359041
136	0x00000000	0.0
137	0x3a23e7e0	0.00062525086
138	0x3abfcf83	0.0014633987
139	0x1f0da9da	2.999841e-20
140	0x39c2d568	0.00037161564
141	0x3b29111b	0.002579755
142	0x00000000	0.0
143	0x39ddfbdb	0.00042340052
144	0x38f43afc	0.00011645813
145	0x1e2eec4c	9.260348e-21
146	0x38738f10	5.8068952e-05
147	0x3a089f9a	0.0005211771
148	0x00000000	0.0
149	0x38a82371	8.017466e-05
150	0x3aafe070	0.0013418328
151	0x1ec1f602	2.0536416e-20
152	0x39b3b133	0.00034273564
153	0x3b27619c	0.0025540357
154	0x00000000	0.0
155	0x39c08d32	0.00036726292
156	0x390252a2	0.00012428549
157	0x1dd6d940	5.686996e-21
158	0x38938532	7.034316e-05
159	0x3a13f04f	0.0005643414
160	0x00000000	0.0
161	0x389a9831	7.37164e-05
162	0x3909d63a	0.00013145144
163	0x1da29443	4.303434e-21
164	0x384adb37	4.8364713e-05
165	0x3a050a5f	0.0005075093
166	0x00000000	0.0
167	0x387dc9d5	6.050787e-05
168	0x3afa6bc9	0.0019105609
169	0x1f08ae9c	2.8943554e-20
170	0x3a01c77b	0.00049506844
171	0x3b65fc10	0.0035092868
172	0x00000000	0.0
173	0x3a069fbe	0.0005135498
174	0x3b9efbf2	0.0048518116
175	0x1f5a32e4	4.620539e-20
176	0x3a543db2	0.00080963515
177	0x3b063dfb	0.002048372
178	0x00000000	0.0
179	0x3a356cbb	0.0006920804
180	0x39c1cccb	0.0003696441
181	0x1e51e3a3	1.1111442e-20
182	0x38ed4b35	0.00011315049
183	0x3a7d9ff6	0.000967502
184	0x00000000	0.0
185	0x39140380	0.00014115684
186	0x3ab6f569	0.0013958636
187	0x1eb574a1	1.9212357e-20
188	0x39ae7b05	0.00033279523
189	0x3b115556	0.0022176108
190	0x00000000	0.0
191	0x39bee7ff	0.00036412475
192	0x383c9683	4.4962868e-05
193	0x1da3e05e	4.337773e-21
194	0x37d4b4e0	2.5356596e-05
195	0x3928b883	0.00016090464
196	0x00000000	0.0
197	0x37edb611	2.8337383e-05
198	0x3b8468af	0.0040407996
199	0x1f87264e	5.7238094e-20
200	0x3a832af0	0.0010007303
201	0x3bf14d67	0.0073639634
202	0x00000000	0.0
203	0x3a8ef86a	0.0010907773
204	0x387f97d0	6.0938124e-05
205	0x1e16de09	7.98685e-21
206	0x3856294e	5.1060044e-05
207	0x39ed83b0	0.00045302277
208	0x00000000	0.0
209	0x38836aa3	6.2664294e-05
210	0x3aded27f	0.0016999989
211	0x1f27312b	3.5404296e-20
212	0x3a166221	0.0005736668
213	0x3b86e037	0.004116084
214	0x00000000	0.0
215	0x3a1fcce0	0.00060958974
216	0x3b92041e	0.004456057
217	0x1f59321f	4.5992997e-20
218	0x3a3906de	0.0007058213
219	0x3af7fe9b	0.0018920483
220	0x00000000	0.0
221	0x3a16c8d5	0.0005751972
222	0x38dad41c	0.000104345585
223	0x1d461d3b	2.6220194e-21
224	0x3817680c	3.6098107e-05
225	0x39834b82	0.00025042525
226	0x00000000	0.0
227	0x381135b1	3.4620698e-05
228	0x39b2e5da	0.00034122058
229	0x1edca7b7	2.3362771e-20
230	0x398fd4bb	0.00027433582
231	0x3b097c26	0.002097854
232	0x00000000	0.0
233	0x398ea0d2	0.0002720417
234	0x3a0e52f7	0.0005429233
235	0x1ea5f926	1.75731e-20
236	0x393945e1	0.00017669007
237	0x3abb22db	0.0014277356
238	0x00000000	0.0
239	0x398704a2	0.00025752658
240	0x39fdd452	0.0004841411
241	0x1ea63dae	1.7601444e-20
242	0x392c834b	0.00016452109
243	0x3a8b552d	0.0010630243
244	0x00000000	0.0
245	0x39352f73	0.00017279181
246	0x3a764714	0.0009394747
247	0x1e8c78d2	1.4873047e-20
248	0x397a2057	0.00023853905
249	0x3ad2d4fe	0.0016085205
250	0x00000000	0.0
251	0x398afb86	0.0002650881
252	0x3b0c4aad	0.0021406815
253	0x1f31679a	3.7566905e-20
254	0x3a108573	0.00055130495
255	0x3b8a240a	0.004215722

exp_avg f4 [128]
0	0x3b725379	0.0036976023
1	0xbaf990ca	-0.0019040343
2	0xb94b456e	-0.00019385453
3	0xb9fd486e	-0.00048309885
4	0x37965749	1.7922039e-05
5	0x39b506c4	0.0003452805
6	0xbb188553	-0.0023272827
7	0xb9a385a4	-0.00031189353
8	0xba35f313	-0.0006940823
9	0xba23447e	-0.00062281627
10	0xbb6a8d60	-0.0035789832
11	0xbb25aa22	-0.002527841
12	0xba42b4d9	-0.0007427461
13	0xbb2b59fe	-0.0026146169
14	0xba04295a	-0.0005041562
15	0xb92bb145	-0.00016373869
16	0xbaf87204	-0.0018954878
17	0xbb401e48	-0.0029314924
18	0x3adf7aea	0.0017050181
19	0x3a7bc7b1	0.00096046465
20	0x3a1895ac	0.00058206427
21	0xba68c200	-0.0008879006
22	0xbb4fc9d4	-0.0031705992
23	0x3b6c852a	0.0036090114
24	0xbacec300	-0.0015774667
25	0x3a8c2333	0.0010691643
26	0x3ac67348	0.0015140558
27	0xbaad1711	-0.0013205727
28	0xb9e6ead8	-0.0004404399
29	0x3a604096	0.0008554546
30	0x3b05d37d	0.0020420246
31	0xb9431240	-0.00018603448
32	0xbad4df18	-0.0016240804
33	0xba230a80	-0.0006219521
34	0xba59bdd6	-0.0008306181
35	0x39a9bdc0	0.00032375567
36	0x3b0415b2	0.0020154533
37	0x39d5311a	0.0004066311
38	0xbb889a41	-0.004168779
39	0x39383246	0.00017566336
40	0xbaf4b882	-0.001867071
41	0xb8df56eb	-0.00010649658
42	0xba4be54c	-0.00077780033
43	0x3a8dd073	0.0010819569
44	0xbb547e87	-0.003242405
45	0xb9269cf5	-0.00015889465
46	0x3a66703f	0.00087905297
47	0xb962d7e5	-0.00021633467
48	0xb90b3205	-0.00013274707
49	0xba9501ee	-0.0011368373
50	0x3a67a53f	0.0008836574
51	0xb9d0e7b5	-0.00039845487
52	0x3a4f278d	0.0007902317
53	0xbadcad51	-0.001683632
54	0x3a996a06	0.0011704571
55	0xb9e6aac7	-0.00043996258
56	0xba0c50d8	-0.0005352623
57	0x3b001e6f	0.001954939
58	0x3a6e2407	0.0009084348
59	0xbbc9788d	-0.006148404
60	0x39e92171	0.0004446614
61	0x39901504	0.00027481478
62	0x398b5c45	0.00026580892
63	0xba69837c	-0.00089078373
64	0x3b835764	0.0040082205
65	0xb98f19b4	-0.00027294236
66	0x38ec8b92	0.00011279354
67	0xb8b26346	-8.5061925e-05
68	0x3ae77c87	0.0017661013
69	0x3a0706c5	0.000515085
70	0x38f6365a	0.00011740318
71	0xb91ef451	-0.00015159069
72	0xb6124237	-2.1794237e-06
73	0xba623a52	-0.0008629906
74	0xb927e3d4	-0.00016011234
75	0x3b08127f	0.0020762978
76	0x3b2d1e0a	0.002641561
77	0x3b5fd537	0.0034154186
78	0x3a71c15d	0.0009222234
79	0x39b146da	0.0003381286
80	0xbb2de163	-0.0026532046
81	0xb906e3f6	-0.00012864158
82	0xb9e2d03e	-0.00043261232
83	0xba542c5d	-0.0008093769
84	0xb9ee225c	-0.00045420497
85	0xb96dbb1a	-0.00022671782
86	0xbaa912eb	-0.0012899315
87	0xb99e0d6d	-0.0003014611
88	0xb9c4c3bb	-0.00037529864
89	0x3b4c5233	0.0031176924
90	0xba931c33	-0.0011223614
91	0xba910eee	-0.0011067071
92	0xba35f711	-0.0006941418
93	0x3a646d43	0.0008713791
94	0xb9837d53	-0.0002507964
95	0x3a6594b3	0.00087578146
96	0x3ab776fd	0.0013997253
97	0xbb939be3	-0.004504667
98	0x3ac54d5e	0.0015052964
99	0xbb262fcf	-0.0025358086
100	0x3a24e169	0.0006289692
101	0x39e35aea	0.0004336455
102	0xba68fe1b	-0.00088879623
103	0xba262a7a	-0.0006338727
104	0xbaa87371	-0.0012851787
105	0xbafcbcc6	-0.0019282333
106	0xb9079d6a	-0.00012933245
107	0x3a2214d2	0.0006182912
108	0xb9edd4a2	-0.00045362586
109	0xb9d54e73	-0.00040684975
110	0xb9242891	-0.00015655371
111	0xba3faa4d	-0.00073114486
112	0x3a863cfd	0.0010241565
113	0xba988c3d	-0.0011638474
114	0xbac8cf6c	-0.0015320606
115	0x3a08d01c	0.0005218999
116	0xbaecb50d	-0.0018059328
117	0x3a9588b1	0.0011408535
118	0x3962028f	0.00021553993
119	0xb98a61b4	-0.00026394206
120	0x39ce3952	0.0003933409
121	0xbb1bcf7b	-0.002377479
122	0xbad7cd1f	-0.0016464329
123	0x398f73a7	0.00027361253
124	0xb9b892bd	-0.00035204543
125	0xbaed9cde	-0.0018128415
126	0x3afcfc5d	0.0019301284
127	0xb9a2a709	-0.000310235

exp_avg_sq f4 [128]
0	0x38b9ea7a	8.865162e-05
1	0x39c861d6	0.00038219866
2	0x37101b58	8.589435e-06
3	0x378e4ed8	1.6964434e-05
4	0x37211089	9.600198e-06
5	0x38233417	3.891074e-05
6	0x3a04c688	0.0005064984
7	0x394b734d	0.00019402542
8	0x39073086	0.0001289268
9	0x3730d31b	1.0539569e-05
10	0x38a7b92f	7.997674e-05
11	0x3a2f2d86	0.0006682504
12	0x369e5faf	4.719906e-06
13	0x387bdaf3	6.0046976e-05
14	0x378fb467	1.7130935e-05
15	0x37aec420	2.0833744e-05
16	0x37ded145	2.6561911e-05
17	0x3a2c7909	0.0006579315
18	0x3983fbca	0.00025173865
19	0x37ef82cc	2.8551927e-05
20	0x3891232c	6.92069e-05
21	0x3897a6b4	7.231292e-05
22	0x39ae0f41	0.0003319923
23	0x3979729a	0.00023789183
24	0x38418582	4.6139125e-05
25	0x39593270	0.00020713522
26	0x382b9877	4.091157e-05
27	0x381b0517	3.695962e-05
28	0x399d7306	0.00030031073
29	0x399ad6d2	0.00029533223
30	0x38a992d2	8.0858954e-05
31	0x3950786a	0.00019881284
32	0x378aa5ee	1.6528149e-05
33	0x3a2405d8	0.00062569743
34	0x381aff3f	3.6954178e-05
35	0x39b6424f	0.0003476315
36	0x398b0313	0.00026514436
37	0x379ad0cf	1.8455465e-05
38	0x39235c43	0.00015579262
39	0x391505d5	0.0001421192
40	0x38de4a0d	0.00010599578
41	0x39142a11	0.00014130051
42	0x39ca5766	0.0003859356
43	0x37693251	1.3899597e-05
44	0x3a03b216	0.000502379
45	0x368aedd0	4.1404055e-06
46	0x396e2272	0.0002271028
47	0x38c63573	9.4513314e-05
48	0x39e457d3	0.00043552983
49	0x383d3dda	4.5118715e-05
50	0x3836bb4e	4.3566622e-05
51	0x38ad695c	8.2689075e-05
52	0x3a15693e	0.0005699581
53	0x37b351e9	2.1376605e-05
54	0x3a2927d1	0.00064527715
55	0x389a54ad	7.359064e-05
56	0x36f9acbb	7.4408867e-06
57	0x39256c65	0.00015776006
58	0x373bd4c5	1.1195608e-05
59	0x3a6a2c75	0.0008933016
60	0x39352f67	0.00017279164
61	0x3828e3f6	4.0266626e-05
62	0x395347b8	0.00020149245
63	0x38ff74b9	0.00012181089
64	0x399ec3d2	0.00030282006
65	0x366121b5	3.3547233e-06
66	0x380b00c4	3.3140896e-05
67	0x39cf5192	0.0003954289
68	0x384742fa	4.7507674e-05
69	0x37baf452	2.2286698e-05
70	0x3902ea44	0.00012485037
71	0x37246b91	9.8002065e-06
72	0x39889009	0.00026047256
73	0x36e45324	6.8046083e-06
74	0x374d4dac	1.2237037e-05
75	0x3a2d8d0e	0.0006620445
76	0x3ac8f3a9	0.0015331405
77	0x39a7ddf0	0.00032018078
78	0x38e5c8fb	0.000109570065
79	0x38a9b8b1	8.0929494e-05
80	0x3841ee0f	4.6236495e-05
81	0x390c013c	0.000133519
82	0x365ac85c	3.2601156e-06
83	0x3836f501	4.362036e-05
84	0x367e2648	3.7871232e-06
85	0x38b2e96a	8.531178e-05
86	0x37ec061f	2.8136243e-05
87	0x37ba6a9d	2.2222574e-05
88	0x392ddacb	0.00016580072
89	0x398da98d	0.0002701994
90	0x3858a52d	5.1652245e-05
91	0x387669d7	5.874954e-05
92	0x36b5ccb9	5.418053e-06
93	0x3704283a	7.877179e-06
94	0x38364b57	4.3462347e-05
95	0x393303b7	0.00017072154
96	0x386aea09	5.600791e-05
97	0x3a25a6ef	0.00063191255
98	0x3908cc6e	0.00013046127
99	0x3876da36	5.8854195e-05
100	0x39bf5d94	0.0003650008
101	0x38da35b1	0.00010405051
102	0x390ce681	0.0001343731
103	0x386fd7fb	5.7183188e-05
104	0x37de5451	2.6503725e-05
105	0x3783e301	1.5722124e-05
106	0x3743d7be	1.1673137e-05
107	0x38d39a79	0.00010090037
108	0x374082fd	1.147459e-05
109	0x39ccd08f	0.000390653
110	0x384eeae2	4.933298e-05
111	0x3864eb7d	5.457875e-05
112	0x39377310	0.00017495104
113	0x39498dd1	0.00019221684
114	0x39d1e3cf	0.00040033317
115	0x395c9514	0.00021036371
116	0x39abf4fa	0.00032798183
117	0x39baad93	0.00035606007
118	0x37dfc682	2.6676109e-05
119	0x36404a69	2.8653542e-06
120	0x3723ade7	9.756047e-06
121	0x39c2932b	0.00037112212
122	0x38b68fac	8.705197e-05
123	0x36d426b0	6.322596e-06
124	0x398b6784	0.0002658927
125	0x3a40c912	0.00073541806
126	0x3897d967	7.2407354e-05
127	0x382781f3	3.9936927e-05
