results/LavaAgent/Lava/Lava-500005.pt (torch, 451049 bytes, 42 tensors)

network_body._body_endoder.seq_layers.0.weight f4 [128, 7]
00000000: 80f0 e3b8 246c a3be e1e9 583d 7d48 973e
00000010: 20b2 88be b561 be3e 83f5 033e 44c4 9ebe
00000020: 135b 9dbe 7602 09bd 4c84 ba3d ca70 d5bd
00000030: 49e3 053e acdf 4d3d afaf 10bf 5c48 43bf
00000040: bbd7 593e 3e34 4fbe a85d 90bd 5014 87be
00000050: f7ac a73d ea1b 60be c482 8abe fb27 dabb
00000060: 1061 9dbe 8baf 133f e402 a43e b75f 023f
00000070: 88a1 fa3e d65d 59be bdb9 edbe 860a 6fbe
00000080: f6ee 883d 3d82 373d 7ebb 67be b52a 9e3e
00000090: 4687 e73d aa53 203e 2a30 eabc 4b32 a5bf
000000a0: b82e 4cbd 45e6 2c3c b049 4f3f b1bd f53e
000000b0: 95a4 06be 2abf c9bd 9958 54bd a10c 9c3c
000000c0: 2ef7 4b3e cb47 29be 09a5 a13e 60a9 e83e
000000d0: c4eb c53e 3543 69bd 615e 213f 7fed 22be
000000e0: f06a 9bbe 6197 09bf fc5f a73e 7072 eebd
000000f0: 93e4 aebe 9efa 51be e817 05bf 093e 573e
00000100: 4b2c 46be 08d0 f83d 65f8 84bd eec0 dbbd
00000110: 9e53 e63e cfba 703e 745f c43e 233f c63e
00000120: 79c3 b33e 0e58 5cbd cb7d 9abe 2eef a3be
00000130: c61f 16bf 908c 35bf 6b5c 87be 32b9 1ebf
00000140: b375 3b3f 66bc 0cbe 8c24 b7be c63b a93e
00000150: a9d0 243f 7120 2bbe a1f1 7c3e 9248 823d
00000160: 78ad fb3e 16c7 ed3d fac5 14bf bc7c ccbd
00000170: 0063 113e aff2 9fbe b522 5e3e 12fd c63e
00000180: 665e 813d 5e50 d5be ab1f fd3d 9b11 033e
00000190: 8562 c73e 64fb 0a3d 357d bbbe b0a4 a3be
000001a0: dacd eb3e 1627 f03d cce6 f3be 8a59 193e
000001b0: fd79 3dbe 8997 25be 8831 ee3e 8e41 92be
000001c0: 8586 7fbd 43e2 ca3e 8136 313e 0e92 3e3f
000001d0: 7348 a1be f9e1 4b3f 4015 2a3e f2bc afbe
000001e0: 37cd a1be 5faf a33e 5257 1abf 503b b2bd
000001f0: 16d9 c6be df33 0ebf 9d5a 023e f0e8 81be
00000200: 0daa c83e ac25 6abf f4c0 e93e b8f0 733d
00000210: 3025 29bf 5f25 cdbe 9e5e ffbe 08b5 c5bc
00000220: d958 ad3e 23ec 8d3d 44bf 19bc 9cb9 ba3e
00000230: 8e2a 303e adca ee3d 838f 2f3e f002 febd
00000240: 3724 9bbe 7bda 18bf 6f7f 0cbf 592d 88be
00000250: 36c7 cdbd 053d f43e bb5d 35bf 78ae 8d3d
00000260: 669a 02be e362 01be 8cdd 3f3e de6c bb3d
00000270: 0b8d 293e 275a 37bd 8e6b e83e 0bbc bcbd
00000280: 95e6 64bf ca3c 1cbf bf62 773e 8b59 393e
00000290: 4ec4 67bd 1374 a63d c4df f23d 93eb 13bf
000002a0: e486 e13d 43b8 04b8 5ba5 3f3c 95cb 69bb
000002b0: bc89 e6bc da0c e5be 2e41 acbe affe 9f3e
000002c0: bb67 5f3e cd21 ca3d 545b bbbe 40c9 4abc
000002d0: bc4c 0abe 3980 a3bd c0b0 503e 416f 84be
000002e0: b0a8 1abf de91 7b3e 37ab 8dbe aa2f 063e
000002f0: 9c89 c3be f2f5 a53e b53b 913e ae92 4c3e
00000300: a3bc b0be 2508 ef3e 9db6 39be a389 853e
00000310: d50e c9bd 7d1e 8dbe 8298 193d b85f 8c3e
00000320: 6965 9ebe 6053 ea3e 1192 6fbe c7fd 28be
00000330: c54c 3b3f 7d2a 5cbe 2f13 ec3d b2ad 073f
00000340: 8de3 2d3f a45e 243e e4e1 4f3f 71f0 13bf
00000350: 8643 853e d463 203f aed0 dc3c 56d7 993e
00000360: 6186 f93e d664 28bf 4be0 69bc 9b43 803d
00000370: 1d0b d53e e54a 3c3e 1e46 ca3d 73ac a8bd
00000380: 4363 3d3f 73ad 013f 4610 d43e c274 ac3b
00000390: 81ec 33be 861c 42be ee45 933a 4cc1 a5bd
000003a0: b19f ef3d a4f2 4abe 760a 293e 0cab 923a
000003b0: e2a1 2dbe 66c1 39bd f2c2 153f 48eb 9bbe
000003c0: 4835 c43e 03b8 4abe 63fc e2bd 51ee fabe
000003d0: 6da2 c13d 3b37 97be 5ee6 e0bc 1c96 4abe
000003e0: 3626 bb3e 5334 2c3f 08e8 2a3e 7dc9 44bf
000003f0: bd59 f73c df73 06bd cfe5 a5be a3b7 43bd
-0.00010869 -0.31918442 0.05295742 0.29547492 -0.266984 0.3718392 0.12886624 -0.31009114
-0.30733547 -0.033449613 0.09107265 -0.104219034 0.13074984 0.05026214 -0.5651807 -0.76282287
0.21273701 -0.20234773 -0.070491135 -0.26382685 0.08187287 -0.21885648 -0.2705289 -0.006657598
-0.30738115 0.5768973 0.32033455 0.509273 0.48951364 -0.21227202 -0.4643077 -0.23343858
0.06686203 0.04480194 -0.22630116 0.30891958 0.11305098 0.15656915 -0.02858742 -1.2905973
-0.049849242 0.010552947 0.80971813 0.47996286 -0.1314872 -0.09850915 -0.051842306 0.01904899
0.1991851 -0.16531293 0.31571224 0.45441723 0.38656437 -0.05694886 0.63034636 -0.1591091
-0.30355024 -0.5374661 0.32690418 -0.11642921 -0.34158763 -0.20505759 -0.51989603 0.21019758
-0.19352834 0.12149054 -0.0649269 -0.10730158 0.4498567 0.23508762 0.38354075 0.38720044
0.3511007 -0.053794913 -0.30174097 -0.32018417 -0.5864223 -0.70917606 -0.26437697 -0.62001336
0.7322647 -0.13743743 -0.3577007 0.33053416 0.6438089 -0.16711594 0.24701549 0.06361498
0.49155784 0.11610238 -0.5811459 -0.09984729 0.14197922 -0.3123984 0.21692927 0.38864952
0.06316833 -0.41662878 0.12359556 0.12799685 0.38942352 0.03393115 -0.36618963 -0.31961584
0.4605549 0.11726205 -0.47637022 0.14975563 -0.18503566 -0.16171087 0.46522164 -0.2856564
-0.062384147 0.3962575 0.17305948 0.7444161 -0.31500587 0.7964168 0.16609669 -0.3432384
-0.3160188 0.31969735 -0.6028949 -0.08702719 -0.38837498 -0.555479 0.12729879 -0.2537303
0.39192238 -0.9146373 0.45655024 0.05955574 -0.6607237 -0.40067574 -0.49876875 -0.024134174
0.33856848 0.06929805 -0.00938398 0.36469734 0.17203733 0.11659751 0.17144589 -0.12402904
-0.30301067 -0.59708375 -0.5488195 -0.26597098 -0.10047762 0.47702804 -0.70846146 0.06918043
-0.12754211 -0.12635379 0.18736857 0.09151624 0.1655771 -0.04476371 0.45394558 -0.09215554
-0.8941434 -0.61030257 0.24158762 0.18100564 -0.056583695 0.08127608 0.11859086 -0.5778133
0.110120565 -3.164286e-05 0.011697139 -0.0035674323 -0.028141849 -0.44736367 -0.33643478 0.31248996
0.21816914 0.09869728 -0.36593115 -0.012377083 -0.13505834 -0.07983441 0.20379925 -0.2586613
-0.60413647 0.24567363 -0.2766969 0.1310412 -0.38190925 0.32414204 0.28365865 0.19977829
-0.34518918 0.466859 -0.18136068 0.2608157 -0.09817282 -0.27562323 0.03749896 0.27416778
-0.30936745 0.45766735 -0.23395564 -0.16503058 0.73164016 -0.21500583 0.115270965 0.52999413
0.6792534 0.16051728 0.81204057 -0.5778876 0.2602808 0.62652326 0.026954975 0.300471
0.48735335 -0.65778863 -0.014274667 0.06262895 0.4161004 0.18387945 0.09876655 -0.08236017
0.73979586 0.5065529 0.41418666 0.005262942 -0.17570688 -0.18956193 0.0011236051 -0.08093509
0.117003806 -0.19819123 0.16507897 0.0011189892 -0.16956285 -0.045350455 0.5850059 -0.30452943
0.383219 -0.19796757 -0.11083295 -0.49009946 0.094548084 -0.29534325 -0.027453598 -0.19783825
0.3655259 0.6726734 0.16690075 -0.76869947 0.030194158 -0.032825347 -0.32401893 -0.04778255

network_body._body_endoder.seq_layers.0.bias f4 [128]
00000000: 5eb7 053c bfc1 81bc 01de cbbb 052b 4b3d
00000010: b410 62bc 2526 463b dab5 16bc 2470 d8bb
00000020: 3253 efbc 2e66 b63c ae7f ebbb 0fc9 053d
00000030: d270 99bc 80d9 d0bb ca15 cb3c 0011 253c
00000040: 4cb1 0e3c d9e2 173d 8dd5 bd3c 371a 443d
00000050: 8f1f c03a 389b 8c3d 6e3e 41bb 52c6 8d3c
00000060: 0088 0c3b f57f 1e3d 17cb 97bc 7525 333d
00000070: 88fb 21bc cbe9 9d3b cfdc e83b a930 6fbc
00000080: 685a 57bc 06c6 0abc ad2b a7bc 573d b53b
00000090: 0b85 ef3b 6920 003d 5e91 ae3c e11c 513a
000000a0: 7f89 5f3c 04e8 0c3c b2e3 af3c cbf4 823d
000000b0: b477 0cbc ff6f ac3b 5e30 513c fb86 b03c
000000c0: 55de 753d 1efe 143d 8930 263c fb7c 18bc
000000d0: 3ca6 be3c 797e 9cbc a9d3 82bc 3cd8 c13c
000000e0: 3217 b9ba d133 753c 24cb 133d 8ee9 86ba
000000f0: 2092 373d 7fd5 bb3d 1cf9 903c bfb1 573c
00000100: 783c d13c 0a04 b03c 36a3 863b 9b9b c93c
00000110: 9f15 0f3b d671 74bc 2f44 ae3b 3f87 4fbc
00000120: 2084 e8bc 8bcb 53bc 3072 d2bb e6f6 b43c
00000130: de01 f23c 9498 1bbd a14d c43c a9bf 9f3a
00000140: 43d0 c6ba 2095 ab3c 6e18 ad3d f885 eabc
00000150: ecfe febb 03f5 aa3c 2430 1b3c 38a1 92bb
00000160: a932 f23c b695 963c a39a 873c 7065 3bbc
00000170: c2e5 94ba 5cd5 81ba 4f70 55bc fecf 353d
00000180: c109 b83d 38ab 44bc 8f0d adbc 9569 f73b
00000190: 346e 5abc 3a97 0f3b 5aea 813c 98bb 02bc
000001a0: 7ecd c43c bd6f 893c d483 36bc d90a 3b3c
000001b0: d924 833b 45c4 3b3c b6e9 873c 7eb2 6ebc
000001c0: 58bb 81bc 293f 403d 6229 aa3c 5ad8 b63c
000001d0: 652f 263d 8c25 503c 084f 283b 0062 af3c
000001e0: 5eca 57bb e319 babc 2509 ef3d 896f aebc
000001f0: 78bf b43c 9965 c3bb d079 ce3d 7e41 1abc
0.008161394 -0.015839456 -0.0062215333 0.049601573 -0.013797928 0.0030235138 -0.00919863 -0.006605165
-0.029214475 0.02226552 -0.0071868515 0.032662448 -0.018730555 -0.0063735843 0.024790663 0.010074854
0.008709263 0.037081573 0.023173118 0.047876563 0.0014657843 0.06865543 -0.0029486674 0.01730648
0.0021443367 0.038696248 -0.018529458 0.043736894 -0.00988663 0.00481913 0.0071064006 -0.014599004
-0.013144113 -0.008470064 -0.020406568 0.005530994 0.007309561 0.03128091 0.02130955 0.00079770206
0.0136436215 0.008600239 0.021470878 0.06394347 -0.008573461 0.0052623744 0.012767879 0.021548739
0.060026485 0.036375158 0.010143408 -0.009307141 0.023272626 -0.019103276 -0.015970068 0.023662679
-0.0014121293 0.014965967 0.036082402 -0.0010292993 0.04481709 0.091715805 0.01769691 0.013164937
0.025541529 0.021486301 0.0041088117 0.024610331 0.0021832956 -0.014919719 0.0053181867 -0.0126665225
-0.028383315 -0.012926946 -0.0064223036 0.022090387 0.029541906 -0.037987307 0.023962798 0.0012187856
-0.0015168268 0.020945132 0.08451925 -0.028628334 -0.007781854 0.020868784 0.009471927 -0.004474785
0.029565172 0.018381935 0.016553229 -0.011437759 -0.0011359977 -0.0009905505 -0.013027265 0.04438781
0.089862354 -0.012003712 -0.02112463 0.007550428 -0.013331939 0.0021910206 0.015858818 -0.007979296
0.024023768 0.016776914 -0.011139829 0.0114161605 0.0040021953 0.0114603685 0.016590934 -0.014568923
-0.015836403 0.046935234 0.020771686 0.022319961 0.040572543 0.012704264 0.0025681872 0.021409035
-0.0032927017 -0.022717422 0.11671666 -0.021293418 0.022063956 -0.005963039 0.10081828 -0.009415029

network_body._body_endoder.seq_layers.2.weight f4 [128, 128]
00000000: 3ffb c8bd 1a70 1fbe c9fe 99bb a6e8 4a3e
00000010: f9e4 0839 19b6 9abc ca6f 96bc f8fb 2bbb
00000020: 3397 6a3d fa1f 8abd f5e6 10bd 03d6 213d
00000030: 27a9 483d 46f0 cdbd f1ae 3cbd 164f 223d
00000040: ad16 473d 5332 cabc 8f06 063e 32fd d0bd
00000050: 9ab1 153e c212 013e ea72 9fbd a7db f53d
00000060: b28e 05be 6c91 a93d 3870 053e 620c 3fb9
00000070: e236 14bc ce73 bc3d dde5 9fbd a367 713d
00000080: ee10 80bd 6f04 473c 54da 8f3d bca2 0abe
00000090: f6d0 543d 39cb 3b3d c397 a53d 5c0c 873d
000000a0: 5eea e13d ce29 90bd 3c65 c83d 18c2 dc3c
000000b0: c53f 9a3d 9ff3 ae3d be41 213d f5c4 4ebd
000000c0: 7364 853e 9c21 283d 9b59 8b3d 41aa 573e
000000d0: 13fc 19bc 0a58 1b3d 239f 72bc 3b81 24bc
000000e0: 9de2 8fbd 7197 743d e525 b03d c307 9b3d
000000f0: df12 b2bc 3622 25bd f574 9c3d cdb6 8fbd
00000100: 11d0 583d 796f 0bbd 5316 c6bd 7453 e03d
00000110: 0dd5 5fbd 9bed a33d e27c c6bd 46c9 873d
00000120: b989 e0bd 60ed 1d3d 62ee e6bc c395 613d
00000130: 2b95 0f3e 4c8b 523d 4514 8dbc 7958 04be
00000140: 9199 0b3b e7db 383d f19d 913d 957d 99bc
00000150: 7b79 183e f3f6 263e 65fe a23d 2124 1f3e
00000160: e2ac ac3d f53c ad3c 95f6 8e3d 662a 5f3d
00000170: e917 013c 0645 fa3d 5831 ed3d 124f be3d
00000180: f1a3 53be 247b 4bbe b852 85bc d73f 563d
00000190: 4371 dabd d947 1e3e a59e 2e3e 0091 b73b
000001a0: 40f3 723d 0b56 843d de06 0b3e 84be 5d3d
000001b0: 3023 973d 7a93 05be 79af e93d 56e1 77be
000001c0: c39c 90bd 93a1 97bd ea09 69bd a908 cf3d
000001d0: d586 123d 6692 cabc 6a88 41bd 158a d03d
000001e0: dec0 24bd 9257 e63c 6c32 3d3e a128 223e
000001f0: 0e20 333c 5447 293d 179a c63d 99d7 e73d
00000200: 58f4 3d3d c35a 0e3e b54f a33d cd56 aebd
00000210: 7b20 00be 9710 05be dadf 353d 31a9 cfbc
00000220: 321c f9bc 232f 9d3d d7c5 15bc f416 10bc
00000230: e45b 063e ce8c 3bbe 0509 143d 46c5 503e
00000240: 1153 36be e914 f6bd 1fd5 e9bd 528f 4a3e
00000250: 5db3 b1bd 5b22 773c 7201 76bd 7b8b a13c
00000260: 2491 583d e334 14bd b2d5 933b 3583 17be
00000270: 6ed3 abbd b590 3e3c a892 113e 0fb2 10be
00000280: 98bc a43d e935 12be 1930 72bc bead 90bd
00000290: aa06 9fbd 004f 63bd b23b cf3d 4183 083e
000002a0: 6ce7 003e 9c5c 1dbe ef14 f43d e377 eb3c
000002b0: 6d3f 16be 6284 4b3e 0ac6 82bc 7bc4 3b3d
000002c0: 7829 2f3e 1d37 40bd 489c 493d a245 873c
000002d0: 8d6f 773a ae5c a33c c060 aa3d 73f9 8e3d
000002e0: fdec 15be 9f4a 41bd 722f 5bbe c4e9 2cbe
000002f0: a241 483d ac98 103d 7f66 f93c 9d1b babd
00000300: 6f13 18be 4a16 d03d e66b 58bc 4cb6 6abd
00000310: dd87 a03d 818a 9b3d b1d0 65bc 2500 083c
00000320: 5337 223d 1ffe 88bb b8b6 363d b692 353c
00000330: c62e fa3c 200b 933d 44c4 27bc e5ec d8bd
00000340: b3af 3fbd c875 753d e848 e53c 276c 533d
00000350: f753 81bd 118a 083c f290 a83d b7c1 11be
00000360: f2cb 173c 4076 16be becc 423c 1379 bfbd
00000370: d84d 903d b3bc 9b3d d8ce 173e 99e3 183e
00000380: 12c6 ec3c 248d 95bd 23d9 f6bd 962d 823d
00000390: 86c6 a03d c33c d93d 6b5d df3d 23de 97bc
000003a0: 3657 3b3d 8240 97bd 50b7 b83c ec06 9abd
000003b0: 7bd7 2bbd 152a b43c d1e1 ea3c a4e0 823c
000003c0: e510 81bd ff85 b1bd 7085 a5bc f106 913b
000003d0: 6871 0fbe 99b5 85bd 0479 4ebd e58e ddbb
000003e0: 2943 9a3d 0acc c0bd ed64 933d 3fe3 6a3d
000003f0: 74b7 b6bd fa89 a63d 01e0 353d 5d35 15bd
-0.098135464 -0.15570107 -0.004699562 0.19815311 0.0001305527 -0.018885659 -0.018363852 -0.0026242714
0.0572731 -0.0674438 -0.035376508 0.039510738 0.04898944 -0.10055594 -0.046065275 0.039626203
0.04860561 -0.0246822 0.1308844 -0.10204543 0.14618531 0.12604812 -0.0778559 0.12004786
-0.13042715 0.0827969 0.1303109 -0.00018219792 -0.009046288 0.092017755 -0.07807515 0.058936726
-0.06253229 0.012147053 0.07024065 -0.1353864 0.051957093 0.045848105 0.08085587 0.06594154
0.1103103 -0.070392236 0.09784934 0.02694802 0.07531694 0.08542561 0.039369337 -0.0504808
0.260532 0.041047677 0.068042 0.2106104 -0.009398478 0.037925757 -0.014808449 -0.010040577
-0.07025645 0.05971474 0.08600978 0.0756984 -0.021737514 -0.04031583 0.07639495 -0.07017288
0.052932803 -0.034041855 -0.09672227 0.109534174 -0.05464654 0.08004304 -0.09691788 0.06630187
-0.109637685 0.038556457 -0.028189842 0.055074465 0.14021747 0.051402375 -0.01722158 -0.12924375
0.002130125 0.04513159 0.07110203 -0.01873664 0.14890091 0.16305141 0.07958678 0.15541126
0.08431412 0.02114723 0.069806255 0.054483794 0.007879236 0.122201964 0.11581677 0.09292425
-0.20668007 -0.19871193 -0.016274795 0.052306976 -0.10666134 0.15457095 0.17052706 0.005602002
0.059314013 0.06461724 0.13576838 0.054136768 0.07379758 -0.13044539 0.11410422 -0.24207053
-0.0706115 -0.07403865 -0.05689422 0.10109074 0.035773117 -0.024728011 -0.047249235 0.10182587
-0.040222995 0.028117929 0.18476266 0.15835811 0.010932935 0.04132779 0.09697359 0.11320419
0.046375602 0.1390181 0.07974187 -0.0851265 -0.1251239 -0.1299461 0.044402935 -0.025349231
-0.030408952 0.07675006 -0.009141407 -0.008794535 0.13120991 -0.18315431 0.036141414 0.20387754
-0.17805125 -0.12015707 -0.11417603 0.19781235 -0.08676789 0.015083875 -0.060059972 0.01971983
0.052872792 -0.03618325 0.0045115585 -0.14796145 -0.083899364 0.0116311805 0.14216101 -0.14130424
0.08043784 -0.14278378 -0.014781975 -0.07064389 -0.07764943 -0.055495262 0.10118808 0.1333132
0.1258828 -0.15367359 0.11918055 0.02874369 -0.14672633 0.19874719 -0.015963573 0.045841675
0.17105663 -0.04692756 0.049221307 0.016512696 0.00094389246 0.019941654 0.08319235 0.069811724
-0.14641185 -0.047190305 -0.21404818 -0.1688605 0.048890717 0.03530185 0.030444382 -0.09087298
-0.14851163 0.10160501 -0.013209319 -0.057302758 0.07838414 0.07594777 -0.014026807 0.008300816
0.039603543 -0.004180684 0.044607848 0.011082342 0.030539881 0.07179856 -0.010239664 -0.10592059
-0.04679842 0.059926778 0.027988866 0.051616814 -0.06314843 0.008333699 0.08230771 -0.14234053
0.009264933 -0.14693546 0.011889635 -0.09349265 0.070460975 0.07604351 0.14824998 0.14930572
0.028903041 -0.07302311 -0.12053134 0.06356351 0.07850365 0.106072925 0.1090649 -0.01853854
0.045737468 -0.07385351 0.022548348 -0.075208515 -0.041953545 0.021992723 0.02867213 0.015976258
-0.063020505 -0.08668136 -0.02020523 0.0044258763 -0.14008105 -0.06528778 -0.05040838 -0.006761419
0.07532341 -0.09413917 0.071969844 0.057345625 -0.0892171 0.08131786 0.04440308 -0.036427844

network_body._body_endoder.seq_layers.2.bias f4 [128]
00000000: 802a 67bc b291 7fbc ae7e 633c e2e0 0a3d
00000010: 72d5 bd3a d3d0 44bb b2a3 23bc fc8c bc3c
00000020: fc03 d4bb 47b5 013d 07f4 acba afdf df3c
00000030: 725a c13b bec2 cd39 7d1d 113b 4f82 8ebc
00000040: 10bb e43b e0ee c53b e990 57bc 67b3 76ba
00000050: 24f4 713b dc9f 4e3c 3975 413c 31ab 34b9
00000060: 1cdf 863c b8ab 83bc de77 d7bb 6983 49bc
00000070: 52a4 9d3c c3d8 00bc 6914 9d3b 2b0c d73b
00000080: 8a26 a6bb ff4e 833b dddb 333c 1752 4bbc
00000090: 072b a53c d067 97bc ffda 8fbc 0e63 cb3b
000000a0: 0343 513c 0a38 82bb e7b6 b03b f8a0 083c
000000b0: 7a04 753c 40e0 e53b 3792 fbba 551d e4bb
000000c0: 0c35 1a3c 24b1 803b 0f9c 4b3b 75b7 84bc
000000d0: 11ec f93b a505 1c3d 8d84 4a3c 684e 643c
000000e0: 7abd 373c 2226 debb 2673 fd3a 763a 99ba
000000f0: 0857 8e3c 9587 43bc df7a 20bc cb11 7b3c
00000100: 0fcf d43c 29d5 1bbc 4c4b 15bb 5ae6 fa3c
00000110: df95 d0bb af99 47bc 1702 963c 750c 95ba
00000120: bb7b aa3c 188a 48bc 7e8f b3bb 28f9 aabb
00000130: d2eb 89bc 8499 00bc 6a4d 5c3b 5ae5 793c
00000140: f26b 903c b0ef 96bb e755 2f3c 6fb9 b03c
00000150: 2468 c43b b6ce aa3a 2658 193c 8742 f33b
00000160: 299f 783c 6e75 f93c 478d d93a 7092 803c
00000170: 0d67 5b3d d7e0 c03c 49b5 863c 1ee0 663c
00000180: dc79 893b 0957 4fbc d8e6 dd3b 4949 803c
00000190: e9d1 f2bb 8f57 02bc cb61 92bb c4f7 1e3b
000001a0: e7ff d23a 0cd9 bf3c 23a3 a1bc 0a04 27bc
000001b0: 0ef0 0d3c 761b 0fbc b5f6 843c e717 a73c
000001c0: ac69 903c c5ae 203c aaba 723b eac6 28bb
000001d0: 1e94 adba 6d91 5bbc caa9 5a3b 4006 5fbc
000001e0: 4e0b 93bc 2c5b 41bb e44f debb 5724 61bc
000001f0: 332a a33a 783f 65bc d48c 543c f5fc 963c
-0.014109254 -0.015598701 0.013885183 0.03390587 0.0014483167 -0.0030031695 -0.0099877585 0.023016445
-0.0064702015 0.03166702 -0.0013195284 0.02732834 0.0059006745 0.0003924574 0.002214282 -0.01739612
0.0069803074 0.006040439 -0.013157108 -0.00094108883 0.00369192 0.012611356 0.011807733 -0.00017229911
0.016463809 -0.016073093 -0.0065755686 -0.012299397 0.019243393 -0.00786418 0.004793693 0.00656273
-0.005070512 0.00400722 0.010977712 -0.012409708 0.020162119 -0.018482119 -0.01756048 0.0062068766
0.0127723245 -0.0039739655 0.0053928974 0.008339159 0.014954681 0.007015258 -0.0019193356 -0.0069615045
0.009412061 0.003927367 0.003106836 -0.01620076 0.0076270183 0.03809132 0.012360704 0.013934709
0.011214608 -0.006779448 0.0019336685 -0.0011690396 0.017375484 -0.011934181 -0.00979492 0.015324066
0.02597764 -0.009511271 -0.0022780476 0.030627418 -0.0063655223 -0.012182637 0.018311543 -0.001137151
0.020810952 -0.012239955 -0.005479752 -0.00521769 -0.01683608 -0.007849101 0.0033615478 0.015252436
0.017629597 -0.0046062097 0.010701633 0.021572797 0.00599386 0.0013031575 0.009359395 0.007423702
0.0151746655 0.030451503 0.001659789 0.015694827 0.053565074 0.023544712 0.016443865 0.01409152
0.004195435 -0.012655028 0.0067719035 0.015659945 -0.007410277 -0.007955446 -0.0044672242 0.0024256567
0.0016097993 0.023418926 -0.01973111 -0.010193834 0.0086631905 -0.008734575 0.01623092 0.02039714
0.017628513 0.009807293 0.003703753 -0.0025753328 -0.0013242995 -0.013401371 0.0033365362 -0.01361233
-0.017949726 -0.0029503806 -0.006784426 -0.013741574 0.001244849 -0.013992183 0.012973029 0.018431166

action_model._continuous_distribution.log_sigma f4 [1, 2]
00000000: 0d20 1cbd cd3b 50bd
-0.038116504 -0.05083828

action_model._continuous_distribution.mu.weight f4 [2, 128]
00000000: c9be 16bd 6c23 e1bc e14a 19bd 640f 723d
00000010: 77da 3fbd 49bd f33c 10e1 c8bc 0a3d 0f3d
00000020: 7b2c 1abc dbd6 333d 2ba3 d33a 599c 9d3c
00000030: 8136 a63c dfdf a7bb c919 83bb e709 aabc
00000040: f796 93ba 646a 98bc 7076 a2bc 25ea 9ebc
00000050: 0763 59bd e1e4 243c 0b06 9cbd 7445 42bd
00000060: 91cb 86bc 9c3c e5bc f6db ecbc 0b50 8ebc
00000070: f577 1ebd a1f4 92bc 7163 afbb b1c3 9c3b
00000080: 4261 c4bb c486 253c c979 1a3d e8d8 823c
00000090: 8711 7d3d ac64 0ebd 7130 6dbc 222a 30bd
000000a0: 9f83 893c 3611 59bd 1ccd 8b3c db75 c73b
000000b0: ffce 41bd 6b67 523c dae4 8d3b f7be fcbc
000000c0: f63f a03c bb71 f8bc 7b4c e63b c53e 883c
000000d0: 1a4a a13c 13b8 5b3d ae53 81bd 8b93 433c
000000e0: dc71 0bbd 812d 713b 4187 863a 6ef5 6cbc
000000f0: 011b 0abd 164e b0bc c325 b6bc 7364 e23b
00000100: 04dc 34bd 8652 ddbc daa3 aebb 90a9 b63d
00000110: 2cd9 bbbc befe d2b9 736f 20bd 3037 c5bb
00000120: c633 373d 8fab a9bb 1ad8 97bc 570b c7bc
00000130: a6e7 94bc cfbf cabc 4314 813c 5a72 ac3c
00000140: 068f b7bc 291a 933a c84f bc3c 0622 f83c
00000150: e3f6 edbc 65a8 a03b b96f 383d 0a8a debc
00000160: d9d5 283d 64b7 4c3d dc75 c2bc 2d38 483c
00000170: 33e4 bc3d 171a 3cbd c234 58bd 6f17 5d3c
00000180: 6503 463a f9d7 37bc 6f40 e739 3130 e93c
00000190: 5710 f8bc 015a c6bc f8a1 e1bc 442d 8ebc
000001a0: 0a05 66ba 4a12 693d b139 36bd e2bc d0bc
000001b0: 6783 3dbd 2378 4cbc 715d 943c dbd0 6a3c
000001c0: 0663 2a3d 9e71 7e3c 327e 1abd 1f28 70bb
000001d0: f6dc bd3c c51e 3abd d8b1 5ebd 1566 98bc
000001e0: cc4d d4bc 0cef 77bc f4b7 43bd 82d5 38bd
000001f0: 170d 5d3b 7946 94bc d53b 883c 643c efbb
00000200: 57d6 b13c 2588 433c 1b97 0b3d c855 453c
00000210: f245 f23c c79a 023d fa27 9bbb e92c 9dbc
00000220: 5e72 c4bb 135a 3bbd 34ac ea3c 75c9 523c
00000230: 51da d1ba d2c2 2d3c 563b 06bc 0316 79bb
00000240: 4ed7 dd3c feb0 1c3d 671b 963c 4450 133d
00000250: ff09 63bc 2f92 fb3a db45 213c 9e4b 9abc
00000260: b10d 6fbd 12be d23c a9aa e43c ec06 1bbd
00000270: b0fb 3bba b802 98bc 7f75 10bd 545a 6e3c
00000280: 05b4 be3c 1bd7 fe3c b7b9 343d 964a f83c
00000290: a2fb 1dbd 4b68 50ba 700a 2dbc 31b8 0f3d
000002a0: 2865 b3bc 9b81 e73c 7ea8 c73c 7a18 d4ba
000002b0: 3c1d cb3c 94d5 39bd b5de c2bc 93ce 3a3c
000002c0: 02ca 643c a770 a33c 7bc2 0bbc ab99 f8bc
000002d0: 0815 d03c a554 71bc 8de1 b7bc 9dc5 9fbc
000002e0: 5654 0cbd cb1a 94bb 2b07 a53c 4ac0 debc
000002f0: 09ab e8bc 88c3 9abc 6f1c 82bc b2e6 38bd
00000300: bd0f 8fbc 0f8d 063d 5147 e03c 45d7 0a3c
00000310: b2d6 79bc 4992 0b3c 4fbb 9b3c 754e 533c
00000320: da14 6b3c a53f c2b9 ba3e 053d 8f14 34bc
00000330: 9de8 8dbb 1c16 d6ba 9382 653c 8319 debc
00000340: 7b0a 3a3d 40e9 6cbc 2185 dc3c 4ac1 8f3c
00000350: 4281 20bc 1212 ca3c ee79 213d b49b d1bb
00000360: 9ae7 98bb 5d60 6e3c a620 1c3c 647b 3ebc
00000370: 36eb 21bc 83aa 1cbb 2230 9bbc 8cb3 9ebc
00000380: 4ef7 a4bc 2063 20bc 848b 0abd 40b4 913b
00000390: 8f83 ab3b 634f 133d 8791 e53c 43f0 bf3c
000003a0: bd1d 18bd 2366 183d c622 c5bc 1025 c33b
000003b0: cf20 db3c 11eb 1fbd c7e1 adbc 8dae 153d
000003c0: 0a1a 373b 6f0d e0bb 7098 6cbb f27a 583d
000003d0: 3dd6 0bbc 0534 a43c acc8 a6bc 20e6 47bb
000003e0: 6d90 293c 1fba 38bc 70de 903c a911 adb9
000003f0: f74c 3d3c 852c 79bc 1e63 a2bc 5607 b139
-0.03680304 -0.02748271 -0.037424926 0.05909671 -0.046839204 0.029753344 -0.02452138 0.03497032
-0.009410019 0.043906074 0.001614665 0.019239591 0.020289661 -0.005123123 -0.0040008766 -0.020756675
-0.0011260201 -0.018605419 -0.019831866 -0.019398758 -0.053072955 0.010064335 -0.0761834 -0.047429517
-0.01645449 -0.027983002 -0.02891348 -0.017372152 -0.03868862 -0.017938914 -0.0053524305 0.0047840704
-0.0059930393 0.010102931 0.0377138 0.01597257 0.061784294 -0.034763977 -0.014476881 -0.04300893
0.016786395 -0.05299493 0.017065577 0.0060870475 -0.047316547 0.01284204 0.0043302597 -0.030852778
0.019561749 -0.030327668 0.00702816 0.016631493 0.019688655 0.053642344 -0.06314789 0.011937032
-0.03404413 0.0036800804 0.0010263697 -0.014462812 -0.03371716 -0.02152161 -0.022234803 0.006908947
-0.044155136 -0.02701689 -0.005329591 0.0891906 -0.022930704 -0.0004024412 -0.039168786 -0.0060185418
0.04472711 -0.005177922 -0.018535662 -0.0242974 -0.018176865 -0.024749665 0.015756732 0.02105062
-0.022407066 0.0011223006 0.022987261 0.030289661 -0.029048389 0.0049028867 0.045028422 -0.027165432
0.041219566 0.049979582 -0.02373784 0.012220425 0.09223213 -0.04592332 -0.05278469 0.013494357
0.00075536064 -0.0112209255 0.0004410776 0.028465362 -0.030281229 -0.02421284 -0.027543053 -0.017355569
-0.00087745546 0.056902207 -0.044488613 -0.025480691 -0.046267893 -0.012479815 0.018110963 0.014332022
0.041598342 0.015530018 -0.037718005 -0.0036645008 0.023176651 -0.0454395 -0.054368824 -0.018603364
-0.025916003 -0.015132677 -0.047782853 -0.045125492 0.0033729726 -0.01810001 0.016630093 -0.0073009003
0.02170865 0.011934315 0.034079652 0.012044378 0.029574368 0.03188589 -0.00473499 -0.019186454
-0.005995079 -0.0457402 0.028646566 0.012865414 -0.0016010498 0.010605531 -0.008192858 -0.0038007505
0.027080204 0.03825473 0.018323613 0.03596522 -0.013857364 0.0019193346 0.009843315 -0.018834885
-0.058362667 0.025725398 0.027913408 -0.037848398 -0.0007170988 -0.018555984 -0.035268303 0.014547903
0.0232792 0.03110843 0.044122424 0.030309003 -0.038570054 -0.0007950111 -0.0105615705 0.035087768
-0.021898821 0.028260043 0.024372336 -0.0016181611 0.024794213 -0.0453697 -0.023787836 0.01140179
0.013964178 0.019951178 -0.0085302545 -0.030346712 0.025400653 -0.0147296535 -0.022446418 -0.019503409
-0.034260117 -0.0045197955 0.02014502 -0.0271913 -0.028401868 -0.018892065 -0.015882699 -0.045141883
-0.01746356 0.032849368 0.027377756 0.008474176 -0.015248941 0.008518764 0.019010214 0.012897124
0.014348233 -0.00037049982 0.032530524 -0.01099123 -0.004330708 -0.0016333493 0.014008182 -0.027111774
0.04542015 -0.014459908 0.02691895 0.017548222 -0.009796442 0.02466682 0.03942292 -0.006396735
-0.004666281 0.014549342 0.009529268 -0.011626098 -0.009882739 -0.0023905344 -0.01894385 -0.019372724
-0.020137455 -0.009789258 -0.03382446 0.0044465363 0.005234189 0.03596438 0.028023494 0.023429995
-0.037137736 0.03720678 -0.024064433 0.005955346 0.026749043 -0.039042536 -0.021225823 0.036543418
0.0027939104 -0.006837539 -0.0036101602 0.052851625 -0.008534965 0.020044336 -0.02035936 -0.0030502155
0.010349375 -0.0112748435 0.017684191 -0.0003301029 0.011553994 -0.015208368 -0.019822653 0.00033765537

action_model._continuous_distribution.mu.bias f4 [2]
00000000: 0aa5 893c 395e a7bb
0.01680233 -0.0051076678

action_model._discrete_distribution.branches.0.weight f4 [2, 128]
00000000: c377 353c 90ee dfbc cb2a 6c3b ae32 2bbd
00000010: bc5f 423d 8169 10bc 995d 503b 3134 253b
00000020: 74da 83bb 57ff d23a d1eb 6abb d911 263d
00000030: 263a 9f3c 660b 1abc d416 293d bc9e b23b
00000040: 6953 91bb 0ebe 07bd 8df8 463c 1e78 bd3d
00000050: 8d26 293b 4e02 1d3c d2e8 c13b 5f35 433b
00000060: b1b8 e43c 0bb6 f33b 9d84 1c3c abea c0bb
00000070: 2fc6 a9bc d8e2 e23c 1ee2 9dbb e59d 12bc
00000080: bc0b f2bb c416 0bbb d1e5 d4bc 1c85 05bc
00000090: b781 90bb 8acb 0abc 9679 453c 6b6e 72bc
000000a0: d5cb 813b 1296 16bd a4a1 dfbb 5fbc 04bc
000000b0: 4d2d 6c3b 6fa9 2d3c 2efc 97bb 2525 ff3c
000000c0: 6d9a b63c 37e1 9dbc f1b6 d2bb e54d 01bd
000000d0: 62d0 823c 7c39 023c 482d d53c b28f 653c
000000e0: 5264 e03b f79c 2bbb bb48 ac3b 504d 173d
000000f0: 41a4 28bc e114 18ba bc12 d93b 9fc8 39bc
00000100: 3050 b6bc 5ec4 acbc bb7f e1ba 5279 34bc
00000110: 8ce6 bf3a db80 21bc 5333 92bc 8fab 2e3d
00000120: 3823 5bbc ca6c ee3b 3ebc 783a 42e9 92bc
00000130: 8297 e4bb a4b2 8d3c c26b efbb 7c52 c33a
00000140: 6ac8 f5bb 012e a13c f7bd 483b d5b9 80bc
00000150: 519c 71bc 70ec 653c 3521 983b 1d02 c1bb
00000160: 97ef 473c 1f11 da3b 6950 61bc b396 ae3c
00000170: 04e4 9c3b 49f3 5dbc bc38 e5bc 6328 92ba
00000180: 5e08 943b 351a 183b 0969 87bb bf6f 34ba
00000190: acc4 b73b 1aac a2bc a8ad 623b aea7 69bc
000001a0: 42fb 563c 3bc9 1bbb 06e4 5a3c ded3 d9bb
000001b0: 968e 24bc 1b4e d7bc 72d8 d93c 1f5c c1ba
000001c0: 736c 023b ed71 25bc 2643 f33b 3f9a cdbb
000001d0: 68f6 8abb e174 f43b 186a b1bc 5258 283c
000001e0: 88a4 2f3c bccf 22bc 3068 ad3b 6d94 d1bb
000001f0: 6d9f 123d f426 0b3a 5022 da39 747f 6a3d
00000200: 294a 893b 124d be3c 3131 06bc f0a9 893c
00000210: b0b4 64bd 3184 673b 2420 a9bb 7e2a c43b
00000220: c683 c6bb 4c7e db3a 78cb 4d3c 4b29 03bd
00000230: 623c 3dbc c8ef 703c 44d2 89bc 8742 52bc
00000240: c234 1c3b 2b89 a63c f062 1bbc acb1 b7bd
00000250: c611 743c f07a 6cbb 5f4d aa3c 7ecb 923c
00000260: 6669 0ebd 2333 91bb f87b 383c ca1f 813c
00000270: b36a 1a3c b3dc fdbc 5822 f03b b8c4 4e3c
00000280: 65c4 aabb 70e2 b7bc 3bee 673c b506 573c
00000290: ef28 4dbc 36c1 83bc 5511 be3b c6ed 333c
000002a0: d838 0b3c 3b37 9b3c 18b3 e6bb 128a 8e3c
000002b0: 830d 973c f6eb 61bc c28e 0c3b 7679 f9bb
000002c0: 4ed7 8fbc 2290 4d3c 0c61 7d3c 0b63 153c
000002d0: 46f2 beba 2a1d ffbc 6b4f 0dbc 0bf7 68bc
000002e0: 3024 4dbc 2a72 a5bc e3b7 15bc 3aea e4bc
000002f0: 6340 163c 48b0 313c d096 fc3b 00b9 a1bb
00000300: f831 dc3c dbd6 ad3c c05a adbb 0590 a53c
00000310: 8442 0f3c b0fb 853b b16e 903c f763 1bbd
00000320: a96e 593c 82ec a63b 312e 513b da83 ebbb
00000330: 77d9 b03c 293d edbb 5e01 56bc 0eb6 8dbc
00000340: 6a0c 893c 6926 9abc 3895 c53b 2205 a23c
00000350: 8700 0f3c 76f9 74bc 6a80 b23a 0793 873a
00000360: 050f 71ba b23c 0d3b 762f da3c ff13 8cbb
00000370: a626 60bb 5cc0 e23c 8f53 803c f333 53bc
00000380: b922 44bb da1b a2bc ef57 58bc b979 b8bb
00000390: ecaf 06bc b044 7d3b 775d 123c e82a 2b3c
000003a0: 73c4 05bc de07 2c3b a1b2 573b a96b 71bc
000003b0: 08cd 7b3c bd30 483c 0712 41bb 172e 29bc
000003c0: fd6a 243c 922a 063c 5401 dc3a 0c88 be3a
000003d0: b58b 9639 7b2c 59bc 5fa1 6c3c 6d4f 66bb
000003e0: ca4e 26bc 32d7 cdbb 3f67 643b d57b 46bc
000003f0: fc78 a4bc fa16 ed3b 78ef 5b3b 3d6f 76bd
0.011075917 -0.027335435 0.0036036249 -0.04179638 0.04745458 -0.008814217 0.003179407 0.002520811
-0.0040238444 0.0016097826 -0.0035846124 0.040544365 0.019436907 -0.009402132 0.041281536 0.0054510515
-0.004434992 -0.033140235 0.01214422 0.09251426 0.0025810332 0.009583069 0.005917647 0.002978645
0.027920099 0.0074374727 0.009553102 -0.0058873496 -0.020724384 0.027696058 -0.004818215 -0.008948778
-0.0073866528 -0.0021223286 -0.025988491 -0.0081494115 -0.0044099945 -0.008471379 0.012052914 -0.0147968335
0.0039610662 -0.036764212 -0.006824689 -0.008101552 0.0036037744 0.010599478 -0.0046382165 0.031145642
0.022290433 -0.01927243 -0.0064304997 -0.031568427 0.015968505 0.007948276 0.026022568 0.01401131
0.0068478966 -0.0026186088 0.0052576936 0.036938965 -0.010293067 -0.0005801451 0.0066245478 -0.011339336
-0.022255033 -0.021089729 -0.0017204204 -0.011015253 0.0014640852 -0.009857382 -0.017846739 0.04264408
-0.013375096 0.0072761523 0.00094884995 -0.017933492 -0.006976069 0.017297097 -0.007306547 0.0014901902
-0.007500698 0.019675257 0.0030630806 -0.015713612 -0.014746741 0.014033422 0.0046426305 -0.0058901445
0.012203119 0.006654873 -0.013752081 0.021312093 0.004787924 -0.013546773 -0.027981155 -0.0011150952
0.004517599 0.002320898 -0.004132394 -0.00068831065 0.005608162 -0.019857455 0.003458837 -0.014261169
0.013121428 -0.0023771066 0.013360029 -0.006647571 -0.010043761 -0.02628236 0.026592467 -0.0014752186
0.0019901067 -0.010097963 0.007423776 -0.006274491 -0.0042407997 0.007460222 -0.021657035 0.010274963
0.01072038 -0.009937223 0.005291961 -0.0063958676 0.03579657 0.00053082337 0.00041605765 0.057250455
0.004189749 0.02323011 -0.008190439 0.016804665 -0.05583638 0.0035326595 -0.005161302 0.005986511
-0.006058189 0.0016746013 0.012560718 -0.032021802 -0.011550041 0.014705606 -0.016823895 -0.012833244
0.0023835157 0.020329079 -0.009484038 -0.08969435 0.014896816 -0.0036084019 0.020788847 0.017919298
-0.034768485 -0.004431145 0.011260025 0.015762229 0.009424853 -0.030989027 0.007328313 0.012620144
-0.0052114003 -0.022446841 0.01415592 0.013124158 -0.012521966 -0.016083341 0.005800406 0.010981983
0.008497439 0.018947234 -0.0070403926 0.017399821 0.01843906 -0.013789168 0.0021447395 -0.007613356
-0.01755872 0.012546571 0.015465032 0.009117852 -0.0014568053 -0.031141836 -0.008624892 -0.014219056
-0.012520835 -0.02019604 -0.00913808 -0.02794372 0.009170624 0.010845251 0.007708408 -0.004935384
0.026879296 0.021220615 -0.0052903593 0.020210275 0.008743886 0.0040888414 0.017630907 -0.03793713
0.013271012 0.005094112 0.0031918401 -0.007187349 0.02158807 -0.007239957 -0.013061849 -0.017298725
0.016729552 -0.018817144 0.006029751 0.019777838 0.008728153 -0.014952054 0.0013618593 0.00103435
-0.00091956585 0.002155107 0.02663396 -0.0042748447 -0.0034202724 0.027679615 0.015664844 -0.012890804
-0.0029927923 -0.019788671 -0.013204559 -0.005629745 -0.008220654 0.0038645677 0.008933417 0.010447241
-0.008164513 0.0026249806 0.0032912868 -0.014735141 0.0153687075 0.012218651 -0.0029460208 -0.01032593
0.010035274 0.0081888605 0.0016785064 0.0014536395 0.0002871432 -0.013255234 0.014442771 -0.0035142556
-0.010150621 -0.006281757 0.0034851579 -0.012114485 -0.020077221 0.007235405 0.0033559483 -0.06016468

action_model._discrete_distribution.branches.0.bias f4 [2]
00000000: ff8a d73b 048b d7bb
0.006577849 -0.0065778513

exp_avg f4 [128, 7]
00000000: 02be 8739 5da3 2ab8 5408 ea38 6850 4bba
00000010: 0000 0000 cb0b 2a3a 9ba6 54b8 b3cb 34b9
00000020: 4630 5e38 8897 8ab7 ac62 10ba 0000 0000
00000030: 909c 08b9 4fa3 8ab8 8eac 5bb8 8270 5937
00000040: 98ab 9fb3 46d4 a137 0000 0000 089e 65b7
00000050: df56 21b4 a93b d8b7 a04e 6d38 11dc c137
00000060: 047e 7d36 0000 0000 6be5 2538 6939 73b7
00000070: a593 f9b9 33e4 e1b7 32d6 78b9 3537 8439
00000080: 0000 0000 8749 8cb9 b697 82b8 4f44 11ba
00000090: bd64 8438 6c14 0f35 319b 35b9 0000 0000
000000a0: 5fc1 b0b9 6d71 5eb7 33ba 35ba 5b35 3338
000000b0: 3099 d2b8 91c0 8b39 0000 0000 2d85 f9b9
000000c0: e1e2 02b7 161e 5539 3e05 4d37 f35e d9b8
000000d0: 6fb0 6b3a 0000 0000 e92c d7b8 402c 4937
000000e0: 9bf2 9bb8 d012 4fb7 5029 d2b6 5f60 08b9
000000f0: 0000 0000 2269 8437 9032 b535 162c 90b9
00000100: d8e1 db38 538f 61b8 4c57 a0b9 0000 0000
00000110: cbe2 3838 7cca 5fb8 d342 a739 abdb 2939
00000120: 77e7 68b8 a7dc bf3a 0000 0000 3c9f 90b9
00000130: 1935 1538 eb87 b8b9 1e96 1938 088d e738
00000140: 30e5 bbba 0000 0000 e2a5 d639 e6b7 01b9
00000150: 99cf b3b9 855b de38 4cd6 09b9 c9ff 9c3a
00000160: 0000 0000 5cd4 c5b9 740b 9a37 cc68 a13a
00000170: 19b0 ca38 4cb5 6ab8 4163 e93a 0000 0000
00000180: 515a 6db8 239a e838 2b4d d7ba 17b6 9c36
00000190: f096 1a39 bf55 5ebb 0000 0000 5d61 0437
000001a0: add5 12b9 6510 c8b8 9b32 2436 40cb fa37
000001b0: cdbc dc38 0000 0000 3f2d 6938 88ef bfb7
000001c0: c1ab d9b9 ffd6 df37 049a 4138 9046 bbba
000001d0: 0000 0000 c34e 2bb9 13a2 93b8 6e30 3236
000001e0: 0906 b036 723e 8336 00ae 0237 0000 0000
000001f0: ed0e a9b5 a11b 02b6 9858 f036 e20c d035
00000200: 39f5 4e35 999a d836 0000 0000 214d 1ab6
00000210: 7892 9934 db95 4dba 45ad 9738 2ab6 d538
00000220: 1c4a 1fbb 0000 0000 f17a d639 3b1d 18b9
00000230: e313 813a b2a6 b939 d743 7bb9 17d6 323b
00000240: 0000 0000 d055 08ba 9e5d 4d38 9642 6636
00000250: db8f 1737 f5b5 7136 8f91 9a37 0000 0000
00000260: dd1a b9b6 13b2 0cb6 c1e6 113a 666c 4939
00000270: d4d4 86b8 9036 f73a 0000 0000 03cc b2b9
00000280: 5d80 ea37 4a67 51b8 44d5 86b8 3184 a236
00000290: 988f 74b9 0000 0000 fdc3 a538 fa45 cf36
000002a0: 00bd a4b6 368c 6439 acf6 c4b8 8634 1c3a
000002b0: 0000 0000 1868 4cb9 9863 bf37 1d3a 5db9
000002c0: d3ee b1b7 09e1 97b5 64ae 6cb9 0000 0000
000002d0: 3c23 3337 a69c 3eb7 e98f 633a 7b95 5ab7
000002e0: 1a90 ffb8 6f0d cd3a 0000 0000 4609 ba38
000002f0: 1cf5 4d38 f730 82ba ff24 48b8 9d14 4eb8
00000300: a9ff 6bba 0000 0000 036d d6b7 7799 5eb8
00000310: 9506 dc39 3951 d8b7 da66 a036 fb9d 7f3a
00000320: 0000 0000 5c42 9539 fc0c 0938 0e7a 323a
00000330: afc3 4c35 3fcc ad37 0cd0 cd3a 0000 0000
00000340: 6271 5f39 f526 8538 cc5b 0fbb d7b6 c6b8
00000350: fd20 ff38 e2fd 8bbb 0000 0000 ee37 fab8
00000360: e759 3ab9 60de 183a 5338 8c37 420b 44b7
00000370: 9473 b03a 0000 0000 534c d338 e6f0 5f38
00000380: f63f 74b9 1409 e637 2f11 89b8 c268 70b9
00000390: 0000 0000 65fb fdb9 6b66 cd37 3d65 673a
000003a0: 9a00 7338 f011 75b8 f07c c23a 0000 0000
000003b0: 0adf 78b8 0755 7c38 8e02 73ba 6c3b d337
000003c0: d733 82b7 b0b9 ca39 0000 0000 22f4 b8b9
000003d0: 68f5 12b6 2fde 963a f951 1e38 cf88 1db8
000003e0: 75d0 e03a 0000 0000 81a6 4539 7b9f a238
000003f0: e46e 8e39 6d28 0d37 a494 c2b8 63d9 a53a
0.00025890773 -4.0683302e-05 0.00011159541 -0.0007755817 0.0 0.00064867426 -5.0699902e-05 -0.00017242022
5.2973883e-05 -1.6521444e-05 -0.00055078673 0.0 -0.00013028295 -6.6107714e-05 -5.2374373e-05 1.2960403e-05
-7.435227e-08 1.9291543e-05 0.0 -1.3686258e-05 -1.5025897e-07 -2.5776988e-05 5.657843e-05 2.310987e-05
3.7773289e-06 0.0 3.9552728e-05 -1.44972955e-05 -0.00047602985 -2.6928354e-05 -0.00023730917 0.00025218134
0.0 -0.00026757663 -6.2271414e-05 -0.000554149 6.3130145e-05 5.330137e-07 -0.00017319318 0.0
-0.0003371341 -1.325864e-05 -0.0006932348 4.2726617e-05 -0.00010042114 0.0002665562 0.0 -0.00047592205
-7.801428e-06 0.00020324471 1.2220173e-05 -0.00010365052 0.0008990829 0.0 -0.00010260364 1.1990836e-05
-7.436165e-05 -1.2342542e-05 -6.263297e-06 -0.00013005872 0.0 1.5784583e-05 1.3500267e-06 -0.00027498667
0.000104848004 -5.377766e-05 -0.0003058262 0.0 4.4080236e-05 -5.335592e-05 0.0003190251 0.00016198929
-5.552868e-05 0.0014637903 0.0 -0.0002758446 3.557382e-05 -0.00035196482 3.661785e-05 0.000110412075
-0.0014335271 0.0 0.00040940853 -0.00012370906 -0.00034296213 0.00010602832 -0.0001314517 0.0011978085
0.0 -0.00037732988 1.8363564e-05 0.0012314557 9.664911e-05 -5.5958793e-05 0.0017806069 0.0
-5.6589317e-05 0.00011091332 -0.0016426196 4.6703603e-06 0.00014742813 -0.003392562 0.0 7.890482e-06
-0.00014003245 -9.539797e-05 2.446736e-06 2.9896968e-05 0.000105255844 0.0 5.5593668e-05 -2.2880515e-05
-0.00041517432 2.6683787e-05 4.6158224e-05 -0.0014287997 0.0 -0.00016337172 -7.039695e-05 2.6552257e-06
5.2459113e-06 3.911374e-06 7.789116e-06 0.0 -1.2595825e-06 -1.9387592e-06 7.162871e-06 1.5500957e-06
7.7097826e-07 6.455299e-06 0.0 -2.2992683e-06 2.860504e-07 -0.00078424596 7.232515e-05 0.00010190562
-0.0024305647 0.0 0.0004090886 -0.00014506739 0.0009847846 0.00035410147 -0.00023962498 0.0027288252
0.0 -0.00052007753 4.8962997e-05 3.4311429e-06 9.033795e-06 3.6017711e-06 1.8426012e-05 0.0
-5.516557e-06 -2.0965279e-06 0.0005565696 0.00019209235 -6.42926e-05 0.0018860865 0.0 -0.00034102806
2.7954748e-05 -4.992568e-05 -6.429342e-05 4.8433653e-06 -0.00023323146 0.0 7.904319e-05 6.177227e-06
-4.9095834e-06 0.00021796007 -9.3919545e-05 0.00059587543 0.0 -0.00019493734 2.2815351e-05 -0.00021097851
-2.1211255e-05 -1.131587e-06 -0.0002257168 0.0 1.0677435e-05 -1.1361355e-05 0.0008680807 -1.3028616e-05
-0.000121861885 0.0015644262 0.0 8.8708985e-05 4.9104085e-05 -0.0009932806 -4.771817e-05 -4.9133425e-05
-0.0009002635 0.0 -2.556155e-05 -5.307185e-05 0.00041966574 -2.5787029e-05 4.780345e-06 0.0009751019
0.0 0.00028468936 3.2675438e-05 0.00068083487 7.628068e-07 2.0718317e-05 0.0015702262 0.0
0.00021309176 6.3491905e-05 -0.0021874784 -9.475432e-05 0.00012165492 -0.0042722085 0.0 -0.00011931347
-0.00017771834 0.00058314763 1.6715529e-05 -1.16851315e-05 0.0013462179 0.0 0.000100754805 5.3391697e-05
-0.0002329348 2.7422364e-05 -6.53587e-05 -0.00022927209 0.0 -0.00048443224 2.4485596e-05 0.00088270364
5.7936275e-05 -5.8429257e-05 0.001483826 0.0 -5.933553e-05 6.016067e-05 -0.0009270095 2.518083e-05
-1.5521347e-05 0.0003866679 0.0 -0.00035277108 -2.189854e-06 0.0011510308 3.774648e-05 -3.755913e-05
0.0017151969 0.0 0.00018849412 7.7544675e-05 0.0002716697 8.413667e-06 -9.278327e-05 0.0012653287

exp_avg_sq f4 [128, 7]
00000000: 4ebb 7a37 da86 2335 4239 f334 5e61 1938
00000010: 0000 0000 c871 0235 27c4 8833 f20f 3333
00000020: 3652 4732 f6a9 4a32 dd38 6e35 0000 0000
00000030: ec5d 6932 fc43 1031 b5d0 8431 90d2 a22f
00000040: fe6a 2d30 309b f932 0000 0000 0051 3e30
00000050: f3f5 392f d085 b833 3b89 3332 c8a5 f831
00000060: 211e 0135 0000 0000 3642 2432 6598 d030
00000070: 2b7b 4c37 d24b 4434 1c10 6434 65f7 8f37
00000080: 0000 0000 0c85 8934 b2ac 8133 d616 b736
00000090: 2222 6534 5b77 3634 b01f 5837 0000 0000
000000a0: 6016 5334 2230 c332 d6be 1d37 9a00 c134
000000b0: 55ea 8f34 475e a337 0000 0000 c535 9534
000000c0: 1a1b 1133 cdd2 0137 53e3 9034 6d31 4c34
000000d0: d257 8837 0000 0000 a475 4934 769f ff32
000000e0: b887 af32 fd00 2831 99ef 0831 2b8c 0a34
000000f0: 0000 0000 7f31 2231 d614 862f a1e5 e136
00000100: fada 1634 1cf7 1634 5972 4a37 0000 0000
00000110: 254d 4d34 b953 1033 b7bf f136 96a5 8c34
00000120: 5b88 4f34 558a 8537 0000 0000 53c9 6834
00000130: 37f5 0033 41e4 0c37 db6a d734 1e58 a034
00000140: ce6d e437 0000 0000 59b8 bb34 889c 8133
00000150: c54c c836 8dce 6b34 553a 4334 48cb 6f37
00000160: 0000 0000 3424 5434 273a f332 1774 a336
00000170: 0b87 9f34 8c41 4234 5232 8537 0000 0000
00000180: a54e 5934 2477 cc32 72ab 0038 0b47 a935
00000190: 35ec 6f35 ed14 a238 0000 0000 5720 8535
000001a0: 3673 1934 74bf 8834 f2d9 7431 3d30 e531
000001b0: 8d76 ab34 0000 0000 35f3 5f32 8147 d830
000001c0: c9e7 d136 e399 a034 daee 7e34 7ebe 9837
000001d0: 0000 0000 dcf7 8034 07f9 0633 e692 262f
000001e0: ae0d 262e e9a4 022e fc0b 9b30 0000 0000
000001f0: 5a91 202e 067a 812c 0877 a12f 3a93 732d
00000200: a009 9f2d a204 0130 0000 0000 147b a42d
00000210: 17a6 aa2b 31a9 9136 210c ad34 1881 8234
00000220: 0f99 c237 0000 0000 32d2 9534 0f0f 4c33
00000230: fc10 0a37 f705 cd34 7cb3 8c34 50b2 8c37
00000240: 0000 0000 0ec0 bc34 fb74 b232 47b9 9d2f
00000250: a9bd 9e2e 1c6c 842e c0ec fa30 0000 0000
00000260: be6e 7b2e ef48 f52c 942c 2837 13f5 d634
00000270: 4b25 9434 813c bd37 0000 0000 86f8 a334
00000280: b412 db32 d956 9932 8223 3732 7d6c bf31
00000290: 84e6 af34 0000 0000 5e45 bf31 2be9 b82f
000002a0: 0127 ee36 b461 a134 41de 5c34 a8d4 8c37
000002b0: 0000 0000 3f0f 8634 ff52 cf32 8c67 1734
000002c0: f5a3 8731 c91f 3b31 0608 2534 0000 0000
000002d0: a2e9 6c31 b089 e82f a8de b436 9b63 8c34
000002e0: 9789 4234 7b4c 7337 0000 0000 39f1 5f34
000002f0: 2cfe e432 1c43 e835 2671 1033 ea09 fa32
00000300: 2a22 f635 0000 0000 cbf1 1133 c313 0532
00000310: 1689 8336 d9d6 5934 2bc8 1f34 2c78 4237
00000320: 0000 0000 20d6 2634 20cb 9432 391b aa36
00000330: 937c 0735 c560 8f34 9fd4 b437 0000 0000
00000340: 3514 a034 2ad0 b432 66f6 af37 7dea 9e35
00000350: 9e44 5535 9713 8838 0000 0000 1673 6635
00000360: 19ae da33 01ed 8835 be58 5d34 925b e833
00000370: 9dcf 1c37 0000 0000 7f36 fe33 11d5 0232
00000380: 246b e736 0654 bd34 6d8a 7c34 093d a737
00000390: 0000 0000 e6b7 9234 899b 0533 210c 3f36
000003a0: 660c 8634 f139 0a34 707c 3c37 0000 0000
000003b0: fade 0e34 3caf 3632 5264 4e37 4dd3 7c34
000003c0: 7d58 8e34 c4ac aa37 0000 0000 e221 9934
000003d0: a5e5 5d33 ce75 0936 0ace 5234 4710 0934
000003e0: 2ccf 2437 0000 0000 a34f 0434 c925 2832
000003f0: 9a90 7636 49c3 3134 5a2d 1d34 a109 1d37
1.49447715e-05 6.0918467e-07 4.5303938e-07 3.6568723e-05 0.0 4.859435e-07 6.3686734e-08 4.1691187e-08
1.1602017e-08 1.1796592e-08 8.8744656e-07 0.0 1.358374e-08 2.0993403e-09 3.865433e-09 2.9617242e-10
6.308908e-10 2.9057986e-08 0.0 6.9236705e-10 1.6913031e-10 8.592508e-08 1.0450374e-08 7.236597e-09
4.810009e-07 0.0 9.561111e-09 1.5177305e-09 1.2188025e-05 1.8281506e-07 2.1240015e-07 1.716213e-05
0.0 2.5615043e-07 6.038444e-08 5.4564834e-06 2.1339704e-07 1.6993492e-07 1.2881981e-05 0.0
1.9659046e-07 2.2722876e-08 9.402362e-06 3.594949e-07 2.6806325e-07 1.9475016e-05 0.0 2.7792535e-07
3.3785092e-08 7.73808e-06 2.698749e-07 1.9016962e-07 1.6253358e-05 0.0 1.8762381e-07 2.9758422e-08
2.0434399e-08 2.444778e-09 1.99268e-09 1.2903244e-07 0.0 2.3602238e-09 2.4389263e-10 6.732255e-06
1.4049502e-07 1.4059736e-07 1.2066762e-05 0.0 1.9120178e-07 3.3603758e-08 7.2046782e-06 2.6197512e-07
1.9327983e-07 1.5919251e-05 0.0 2.1679925e-07 3.0025344e-08 8.397795e-06 4.0124618e-07 2.9866436e-07
2.723085e-05 0.0 3.4965595e-07 6.0355035e-08 5.9694016e-06 2.1961223e-07 1.8182011e-07 1.429284e-05
0.0 1.9757209e-07 2.8315368e-08 4.871293e-06 2.9714315e-07 1.8091504e-07 1.5878268e-05 0.0
2.023831e-07 2.3802905e-08 3.067725e-05 1.2612157e-06 8.9378165e-07 7.72866e-05 0.0 9.918684e-07
1.4291149e-07 2.5471275e-07 3.563056e-09 6.6702612e-09 3.193749e-07 0.0 1.3035607e-08 1.5736391e-09
6.2556687e-06 2.991429e-07 2.3742487e-07 1.8208517e-05 0.0 2.40222e-07 3.1425795e-08 1.5149801e-10
3.775618e-11 2.9705047e-11 1.128114e-09 0.0 3.6508886e-11 3.679948e-12 2.9370306e-10 1.3845642e-11
1.8080482e-11 4.693651e-10 0.0 1.8699299e-11 1.2125326e-12 4.341033e-06 3.2232586e-07 2.4308315e-07
2.3197876e-05 0.0 2.790635e-07 4.7511147e-08 8.2293955e-06 3.8188566e-07 2.6207624e-07 1.6772334e-05
0.0 3.5157467e-07 2.0775124e-08 2.868978e-10 7.2186986e-11 6.021869e-11 1.8257182e-09 0.0
5.716915e-11 6.971416e-12 1.00239595e-05 4.003892e-07 2.7594282e-07 2.255873e-05 0.0 3.054194e-07
2.550346e-08 1.7851038e-08 1.06600755e-08 5.5711653e-09 3.2764012e-07 0.0 5.5667178e-09 3.363508e-10
7.0974934e-06 3.0059675e-07 2.0569952e-07 1.6788326e-05 0.0 2.4970538e-07 2.4135714e-08 1.4100641e-07
3.947657e-09 2.723015e-09 1.5369741e-07 0.0 3.4475325e-09 4.2298387e-10 5.3903386e-06 2.6149505e-07
1.8117713e-07 1.4501736e-05 0.0 2.085625e-07 2.6658277e-08 1.7304878e-06 3.363052e-08 2.9108339e-08
1.8338371e-06 0.0 3.3980353e-08 7.746112e-09 3.920063e-06 2.0287861e-07 1.488085e-07 1.1591281e-05
0.0 1.5537853e-07 1.7321838e-08 5.069564e-06 5.04727e-07 2.6706235e-07 2.1556682e-05 0.0
2.9817025e-07 2.104942e-08 2.0976364e-05 1.1840162e-06 7.9448535e-07 6.488634e-05 0.0 8.584915e-07
1.0183084e-07 1.0201767e-06 2.0614513e-07 1.08199984e-07 9.346663e-06 0.0 1.18377095e-07 7.615442e-09
6.8968093e-06 3.5265128e-07 2.3519688e-07 1.9936373e-05 0.0 2.7328423e-07 3.1107934e-08 2.8468278e-06
2.4968466e-07 1.287333e-07 1.1234646e-05 0.0 1.3305899e-07 1.0633638e-08 1.23019145e-05 2.35462e-07
2.6513945e-07 2.034603e-05 0.0 2.8523124e-07 5.1664433e-08 2.0483162e-06 1.963273e-07 1.2765041e-07
9.823398e-06 0.0 1.232243e-07 9.787478e-09 3.6741026e-06 1.6555454e-07 1.4638263e-07 9.360171e-06

exp_avg f4 [128]
00000000: cde1 08b8 7903 45b8 d41d a236 0c94 3e37
00000010: 35ea d737 9fe3 02b8 5cc5 8e37 9cd0 ae38
00000020: 7fd2 10b7 e4a1 23b7 cfd2 cc38 41b2 06b9
00000030: 13b7 cb38 be3d 0939 b3f7 95b9 2ed1 2d37
00000040: 2647 08b9 1e65 bf35 ee4b 8c35 7bf8 5bb9
00000050: e4ce 5239 5221 3b36 b9b4 0639 84c5 ebb7
00000060: ed6f 8738 7c08 e3b7 d4a5 1139 9711 d9b8
00000070: f279 c238 7e64 0739 3160 bcb9 c0a3 c538
00000080: ac33 26b8 2a2f e938 aeda 8b37 8f0a 1339
00000090: fff4 0439 c081 2c37 5554 0cb7 204c 3b38
000000a0: 7c5e e6b8 4125 efb7 bf1b 44b6 66dc bfb7
000000b0: 650b c639 f191 4738 c6ba 99b8 7bb3 aeb6
000000c0: 4b5a e935 8f98 1fb9 4f8c d7b6 9c78 0c39
000000d0: 5156 7fb8 25d2 9438 68fc 88b7 03b7 f8b6
000000e0: cdfd ddb8 0e8d d6b7 c314 5739 5519 6a38
000000f0: 938e 1bb9 ceac 9236 6f6f 11b9 ca70 dcb5
00000100: 47f6 3cb8 71eb e8b6 282e 2137 2ca1 11b8
00000110: 3117 a235 e0d7 9e38 cbc2 fab8 8d1b ecb7
00000120: 0c0c a937 5d7d 99b5 eb3d 3cb8 6b63 1235
00000130: 5391 3c37 374e 25b6 124b 80b9 f9af ef38
00000140: 994c a338 576d 6f38 e5de 1bb9 6ef9 98b7
00000150: 2391 6539 c289 49b9 caf7 dab4 de24 1cb8
00000160: 24cb bbb8 fb0c 1037 fecf 4c35 0ffa 3538
00000170: 6334 0935 3221 7db8 ceb1 13b8 0ba0 2236
00000180: 49f9 a5b6 1fcf 04b7 0060 5338 a3ae d138
00000190: 7012 9db7 dbab 43b8 5185 ee37 8395 c738
000001a0: 4ab7 aab8 e2bf 79b6 a1ff 09b8 62f0 0db9
000001b0: bb86 1738 2ae6 adb6 d6e9 dfb7 ef5d 54b6
000001c0: bc6e 2ab8 d791 80b4 74cf cab8 1bcf 2cb8
000001d0: 0326 9cb8 f315 3036 6f82 9838 f20b f9b8
000001e0: e1d7 48b8 9501 cf35 ceed 78b8 cac4 9f35
000001f0: e631 1a37 4d39 04b7 fecb 8e39 f57b 0e38
-3.263522e-05 -4.6971694e-05 4.8314487e-06 1.1359352e-05 2.5739058e-05 -3.1206404e-05 1.7019622e-05 8.335823e-05
-8.632079e-06 -9.75325e-06 9.766744e-05 -0.0001284564 9.7138945e-05 0.00013088339 -0.00028604045 1.0360307e-05
-0.00012996476 1.4260038e-06 1.0452911e-06 -0.00020978034 0.00020104233 2.7884566e-06 0.0001284656 -2.8106158e-05
6.4581494e-05 -2.706446e-05 0.00013890053 -0.00010350643 9.273355e-05 0.0001291204 -0.00035929822 9.424193e-05
-3.9625607e-05 0.00011119091 1.6671922e-05 0.00014022946 0.00012679769 1.0282209e-05 -8.364285e-06 4.465517e-05
-0.00010984854 -2.8508368e-05 -2.9222426e-06 -2.2871605e-05 0.00037773993 4.7581216e-05 -7.330398e-05 -5.2064984e-06
1.7386132e-06 -0.00015220254 -6.4238334e-06 0.00013396371 -6.0877126e-05 7.0963324e-05 -1.633e-05 -7.4122813e-06
-0.00010585375 -2.5576472e-05 0.00020511732 5.581354e-05 -0.00014835065 4.371256e-06 -0.0001386979 -1.6424103e-06
-4.5052057e-05 -6.941548e-06 9.607094e-06 -3.4720797e-05 1.207669e-06 7.574237e-05 -0.00011957212 -2.8146222e-05
2.015198e-05 -1.1435874e-06 -4.488036e-05 5.453391e-07 1.1239509e-05 -2.4632443e-06 -0.00024469994 0.000114291855
7.786713e-05 5.708387e-05 -0.00014864987 -1.8235962e-05 0.0002189321 -0.00019220173 -4.0785955e-07 -3.7227634e-05
-8.954693e-05 8.586091e-06 7.629859e-07 4.3386648e-05 5.111271e-07 -6.0350816e-05 -3.5213125e-05 2.4233038e-06
-4.946404e-06 -7.916037e-06 5.0395727e-05 9.998425e-05 -1.8724444e-05 -4.6651676e-05 2.8433891e-05 9.516908e-05
-8.140372e-05 -3.7215582e-06 -3.290142e-05 -0.00013536357 3.6126683e-05 -5.1825964e-06 -2.669256e-05 -3.1645138e-06
-4.0634288e-05 -2.394797e-07 -9.670752e-05 -4.1200878e-05 -7.44574e-05 2.623882e-06 7.27222e-05 -0.0001187547
-4.788477e-05 1.5423162e-06 -5.934928e-05 1.1903696e-06 9.190733e-06 -7.8811545e-06 0.00027236337 3.3970882e-05
