results/LavaAgent/Lava/Lava-1000029.onnx (onnx, 79250 bytes, 9 tensors)

network_body._body_endoder.seq_layers.0.weight f4 [128, 7]
00000000: 816e 33ba 351b a8be 14ba 3e3d 8eec 973e
00000010: 20b2 88be a7a1 bd3e bc91 233e 18fe 96be
00000020: 85b9 9cbe 569a 0ebc 5a70 c53d ca70 d5bd
00000030: 5d18 1d3e 1b86 853d b7f0 08bf 4ca2 43bf
00000040: c238 583e 0b12 44be a85d 90bd a9c1 89be
00000050: d0bc d33d 1ccf 5abe 1670 8fbe 04bf d7bb
00000060: ffa7 9bbe 8baf 133f 184f 9e3e f144 093f
00000070: 8d13 fb3e a4bc 56be 0118 eabe a85c 71be
00000080: f6ee 883d 5a41 613d ab3b 6dbe 27ae 9e3e
00000090: 8e0f fb3d dd53 253e 2273 e4bc 4b32 a5bf
000000a0: 08c8 4fbd 0c25 93bc 5611 503f e1a2 f93e
000000b0: cb9a ffbd 5f58 ccbd 9958 54bd 156b bd3c
000000c0: 8948 2c3e 47cf 27be 267f a33e c682 e93e
000000d0: 7ca0 c63e 3543 69bd c5a9 223f efb3 2fbe
000000e0: 646d 9cbe e4bc 0abf 7a28 a53e d824 f3bd
000000f0: 93e4 aebe 63c4 51be c68e 01bf cd80 5d3e
00000100: b828 4fbe 1314 f93d 05d1 77bd eec0 dbbd
00000110: 9b95 e83e 6f49 7e3e 3299 c43e 755c ca3e
00000120: baef b23e caf3 5fbd cb7d 9abe 4b54 a5be
00000130: d647 1bbf 9355 34bf 625b 8bbe 8938 1fbf
00000140: 17d4 3c3f 66bc 0cbe 3c07 b7be 6502 c03e
00000150: 3f1c 253f 8965 23be e23d 813e f956 783d
00000160: 78ad fb3e f3c3 ee3d c908 1ebf 95c8 d5bd
00000170: 4621 133e ed60 a5be 2c98 5b3e 12fd c63e
00000180: 9242 683d 4057 d9be ae6e fc3d 7216 073e
00000190: f2c2 cb3e 47d9 113d 357d bbbe e33d a3be
000001a0: 0aec eb3e 2b11 033e 347b f1be 5db7 1b3e
000001b0: 5094 3abe 8997 25be 4226 f03e d50c 8fbe
000001c0: f57d 82bd c2fa cc3e 6898 3d3e e6e2 3e3f
000001d0: 7348 a1be b062 4c3f 9edc 293e 1717 aebe
000001e0: 07f5 a1be 889a a73e ce2d 14bf 503b b2bd
000001f0: 425f ccbe 715e 01bf a669 f33d b22a 87be
00000200: 4971 cb3e 4014 6abf f4c0 e93e 0bf1 503d
00000210: bf2d 27bf b543 cbbe 0d43 01bf 04fc d3bc
00000220: d563 b03e 23ec 8d3d e840 22bc 95e5 d53e
00000230: 3765 343e 62ee fb3d 6846 303e 37e3 f8bd
00000240: 3724 9bbe 3e30 19bf 80ba 0dbf 51d5 88be
00000250: 0f3d d2bd 1016 f93e 91f4 2fbf 78ae 8d3d
00000260: 081a 07be c942 abbd eaaa 423e 3843 cd3d
00000270: 3e0a 293e 44af 2bbd 8e6b e83e 0d4e c1bd
00000280: ca07 69bf 1105 1bbf 6d53 723e c7ce 353e
00000290: 4de4 79bd 1374 a63d 8461 f03d 4bff 14bf
000002a0: 37fe e13d b948 ae3b 044f 8b3c b357 b0bb
000002b0: bc89 e6bc 5385 e6be dfe9 b5be a3d5 ab3e
000002c0: 1a10 6a3e c185 b63d 4d1b b1be 40c9 4abc
000002d0: a2d3 1bbe 18ee 10bd cbc8 4e3e 48ff 85be
000002e0: f749 1cbf 4539 7a3e 37ab 8dbe 2ccc 053e
000002f0: dce9 c1be 7c92 ad3e 6753 963e 290b 493e
00000300: 11c7 abbe 2508 ef3e 12a2 38be 22e0 8f3e
00000310: c46a c5bd 3efa 8ebe cbfd d33c 2a39 8d3e
00000320: 6965 9ebe 4e3d e93e 1d8a 5fbe 12f3 24be
00000330: a492 3b3f 2b0a 62be 5ee1 ed3d b2ad 073f
00000340: 2d2c 2d3f 35b5 1a3e 5716 503f 41f9 13bf
00000350: 4d56 8a3e 8d8a 203f aed0 dc3c 2c5a 9b3e
00000360: d09e fa3e 1ac5 25bf de4b 43bc 2e14 593d
00000370: 0c64 d83e e54a 3c3e 0a4a b93d 2479 88bd
00000380: 9c42 3d3f 58d8 033f ef30 d53e f71d a13b
00000390: 81ec 33be 5ca1 42be 0abc c9bc c923 aabd
000003a0: 1704 f13d 8d05 52be af88 283e 0cab 923a
000003b0: f17c 32be 22ed 54bd 0d7e 163f 586a 97be
000003c0: d911 c63e 36af 4cbe 63fc e2bd 370c f8be
000003d0: 8a2a 943d 2deb 97be d673 e9bc f236 5bbe
000003e0: 219e bb3e 5334 2c3f 35ca 213e f1fa 41bf
000003f0: 91d2 083d 9469 f7bc 233d a8be 7233 3fbd
-0.00068447745 -0.32833257 0.046564177 0.29672664 -0.266984 0.37037393 0.15973562 -0.29490733
-0.3061029 -0.008703789 0.0964057 -0.104219034 0.15341325 0.06519719 -0.534923 -0.7641952
0.21115401 -0.19147508 -0.070491135 -0.26905563 0.103387475 -0.21368068 -0.28015202 -0.00658405
-0.30401608 0.5768973 0.3091972 0.5362082 0.49038354 -0.20970398 -0.4572144 -0.23570502
0.06686203 0.054993965 -0.23167293 0.30992243 0.12258826 0.16145273 -0.02788693 -1.2905973
-0.050727874 -0.017962001 0.8127645 0.4875708 -0.12480696 -0.09977793 -0.051842306 0.02312235
0.16824545 -0.16387664 0.31932944 0.45607585 0.38794315 -0.05694886 0.635403 -0.17158483
-0.30552208 -0.54194474 0.32257444 -0.11872262 -0.34158763 -0.20485072 -0.5060848 0.21631165
-0.20230377 0.12162032 -0.06050207 -0.10730158 0.4542664 0.248327 0.3839813 0.39523664
0.34948522 -0.054675855 -0.30174097 -0.32290873 -0.6065649 -0.70443076 -0.27218157 -0.6219564
0.73761123 -0.13743743 -0.35747707 0.37501827 0.64496225 -0.15956701 0.25242525 0.06062982
0.49155784 0.11658468 -0.61732155 -0.104386486 0.14368162 -0.3230051 0.21444768 0.38864952
0.05670411 -0.4244938 0.12325798 0.13192156 0.3979717 0.035607602 -0.36618963 -0.31883153
0.4607852 0.12799518 -0.4716431 0.15206666 -0.18220639 -0.16171087 0.46904188 -0.27939478
-0.06371681 0.40035063 0.1851517 0.7456497 -0.31500587 0.79838085 0.16588065 -0.3400199
-0.31632254 0.32735085 -0.5788239 -0.08702719 -0.39916426 -0.5053473 0.11885385 -0.2639976
0.39734867 -0.9143715 0.45655024 0.051011126 -0.6530418 -0.39700094 -0.50492936 -0.025877006
0.34451166 0.06929805 -0.00990317 0.4177672 0.17616735 0.12301327 0.17214358 -0.12152713
-0.30301067 -0.59839237 -0.553627 -0.26725248 -0.10265552 0.48649645 -0.68732554 0.06918043
-0.13193524 -0.08362348 0.19010511 0.100225866 0.16507813 -0.041915193 0.45394558 -0.09438715
-0.9102751 -0.60554606 0.23664637 0.1775466 -0.06100874 0.08127608 0.1173735 -0.58202046
0.11034816 0.005318728 0.017005451 -0.0053815483 -0.028141849 -0.45023593 -0.35529992 0.3356143
0.22857705 0.0891223 -0.3459114 -0.012377083 -0.1521745 -0.035383314 0.20193784 -0.26171327
-0.6105036 0.24435909 -0.2766969 0.13066167 -0.37873733 0.3390082 0.29360506 0.19633164
-0.33550313 0.466859 -0.18030575 0.28100687 -0.096395046 -0.27925295 0.025877854 0.27582675
-0.30936745 0.45554584 -0.2183003 -0.16108349 0.7327063 -0.22074191 0.11615251 0.52999413
0.6764553 0.15108187 0.8128409 -0.57802206 0.27018967 0.6271141 0.026954975 0.30342233
0.4894929 -0.6475388 -0.011919944 0.05299776 0.4226383 0.18387945 0.09047325 -0.06663731
0.7392976 0.5150199 0.41638896 0.004916902 -0.17570688 -0.19006866 -0.024625797 -0.08307607
0.11768358 -0.2050993 0.1645839 0.0011189892 -0.17430474 -0.05198396 0.5878609 -0.2957332
0.38685492 -0.19988713 -0.11083295 -0.4844682 0.07234676 -0.29671612 -0.028497618 -0.21407679
0.3664408 0.6726734 0.15799792 -0.7577353 0.033403937 -0.03020171 -0.32859144 -0.04667992

network_body._body_endoder.seq_layers.0.bias f4 [128]
00000000: 52d9 453c 32e7 09bc 1d8e e83b 6930 5d3d
00000010: de38 73bc a21f 7a39 c378 61bc 2428 b8bb
00000020: ae3b fdbc a029 c83c 9707 fcbb 09aa 313d
00000030: 7708 cfbc 2b7e d4bb c748 cf3c 365a 6f3c
00000040: d24d 203c 45ce 803d 4a37 c33c e7c3 773d
00000050: 4c7b ac3b e87d b93d 2911 6f3a 8703 4c3c
00000060: 205b 7bba 381e 843d 280d 90bc 4989 733d
00000070: 0ed6 a5bb 655e cd3b b1c2 bb3b 482e bdbb
00000080: 6e4a 81bc ad79 edbb 130e cebc 9ff0 223c
00000090: 6cab 203c f5f5 333d 78cc 8e3c 2399 b93a
000000a0: 1b74 8a3c 3128 713c 1c45 b13c 7821 ac3d
000000b0: 73ac f8bb bf35 003c b1f5 a53c 03e8 ba3c
000000c0: 722f 8c3d e437 223d b977 c63c 8eb8 49bc
000000d0: 20e8 dd3c 39f0 aebc e984 b0bc a4ad 1b3d
000000e0: f2b5 9ebb 533c 613c e623 253d 5603 553a
000000f0: 65c0 363d 4ed9 e23d f9c2 ac3c d625 803c
00000100: 2659 133d 627c be3c dff7 0a3c 5417 923c
00000110: e3c3 cd3c 88b9 81bc 4a2b 643c fb34 5ebc
00000120: 452f 27bd b193 89bc 0d41 1abb 1a5b b83c
00000130: 48c3 033d 3605 31bd 418b c03c 6fe4 c03b
00000140: 88b9 0139 fbf1 cf3c 249b ba3d 0ad4 0fbd
00000150: fda1 59bb d721 a83c 9cdf 893b dbb7 d9bb
00000160: a445 063d df47 f93c a032 f83c 28a3 65bb
00000170: 953d 243c 56c7 42bb c746 a7bc b00d 503d
00000180: 9f53 d63d d408 52bc 2607 9dbc b669 043c
00000190: 5601 afbc 9518 43bb 0136 a53c 3f7e e6bb
000001a0: 4a77 da3c 9036 af3c b1f2 71bb 1d9f 753c
000001b0: c5b3 943b af77 ff3c fdb7 883c be2a 2abc
000001c0: ec4b 65bc be62 a63d 39b5 c13c 44a8 193d
000001d0: 47e5 103d 07cf 9c3c e62a 493b 25f0 0e3d
000001e0: 9cb0 a9ba f62b cdbc 9b60 f73d da5f eabc
000001f0: 9725 dc3c 5118 71bc a629 eb3d 8652 a2bb
0.012075739 -0.008416938 0.0070970193 0.054001246 -0.014845101 0.00023853642 -0.013761702 -0.0056200195
-0.030912247 0.02443391 -0.0076913345 0.04337505 -0.025272591 -0.006484767 0.025303258 0.01460891
0.009784179 0.06289343 0.023830075 0.06048956 0.0052637216 0.09057218 0.00091196835 0.012452013
-0.0009588469 0.06451076 -0.017584398 0.059457097 -0.0050609177 0.006267356 0.005729996 -0.0057733394
-0.015782561 -0.007247171 -0.025153195 0.009945064 0.009806495 0.043935735 0.017431483 0.0014160018
0.016901067 0.014719055 0.0216394 0.08404821 -0.007588917 0.007825314 0.020258756 0.02281571
0.06844987 0.039604083 0.02422701 -0.012312068 0.027088225 -0.021354781 -0.021547752 0.038007393
-0.004843467 0.013747293 0.04031744 0.0008125802 0.044617075 0.11076604 0.021089064 0.015643042
0.03597369 0.02325267 0.008481949 0.01783339 0.02511782 -0.015835539 0.013926337 -0.013562436
-0.040816564 -0.016794058 -0.0023537308 0.022504378 0.032168657 -0.04321786 0.023503901 0.0058866064
0.00012371514 0.02538394 0.09111622 -0.035114326 -0.0033208125 0.020523949 0.0042075645 -0.0066442317
0.03278126 0.030429779 0.030297577 -0.0035039876 0.010024448 -0.0029720864 -0.020419491 0.050794303
0.10465168 -0.012819488 -0.019168448 0.008081844 -0.021362942 -0.002976929 0.020167353 -0.0070340927
0.02666821 0.021388322 -0.0036918337 0.014991549 0.0045380318 0.031185 0.016689295 -0.010386167
-0.013995152 0.08124302 0.023645984 0.037513986 0.035374906 0.019141687 0.0030695735 0.03489699
-0.001294631 -0.025045376 0.12078973 -0.028610159 0.026873393 -0.01471527 0.11482553 -0.004953685

network_body._body_endoder.seq_layers.2.weight f4 [128, 128]
00000000: ebb5 cbbd d0e4 21be 91a8 13bb ab83 503e
00000010: a6d0 d83a a0e9 8fbc 5d8b 8bbc b7f3 45bb
00000020: 556a 6e3d 63fb 8abd f6f5 04bd 5b17 1e3d
00000030: 30e7 4c3d f2f6 cabd 47aa 44bd 5391 353d
00000040: 677e 453d 16e5 65bc 419e 023e 3a5d d7bd
00000050: 4ff5 133e 86e3 0d3e ccb4 93bd f878 ea3d
00000060: 8bb4 05be 4745 b13d e43e 063e 5e28 d93b
00000070: 05d3 21bc e9d2 ba3d d9ee a0bd bd89 6e3d
00000080: 3122 7bbd 1e5e 513c 8f30 8f3d 9970 09be
00000090: d48e 5c3d e03c 523d d72e a13d 9d6a 8b3d
000000a0: 30f9 cf3d 51f7 87bd 5cfe c53d 5675 dc3c
000000b0: f5f3 9c3d 5a55 ae3d 518d 133d d2c3 4dbd
000000c0: 8e79 863e 3df6 253d 38b9 963d 0a05 593e
000000d0: 2d60 38bc c9f2 1d3d cf47 49bc 5a34 51bc
000000e0: 1aa2 8abd 5e3f 733d 0a08 b93d 601e 9f3d
000000f0: 92ee c5bc d25c f5bc 4975 9b3d 1152 90bd
00000100: f564 443d 824a 29bd 9300 d2bd 5762 e33d
00000110: 5f7b 40bd ce8f a73d 2f99 a0bd 0529 883d
00000120: 53fb debd a8c5 283d 763c 01bd 89cd 663d
00000130: 5424 133e 052f 543d 3696 86bc 9098 04be
00000140: 4b7b 9b3b b215 403d e72c b33d cf7f 97bc
00000150: d0ca 1c3e eff8 253e f0b4 9d3d c77c 213e
00000160: e861 a93d 2fda b83c 99e9 953d 32fd 653d
00000170: 6d14 0c3c 7b1f f83d 5b25 ec3d eab3 b53d
00000180: 8471 4fbe 1cef 4bbe 5c12 85bc 10d9 5a3d
00000190: 93bb debd 2cd1 1b3e 0e6a 2f3e 84ce 083c
000001a0: 0f45 703d 8260 873d 7ae7 153e 7abf 5b3d
000001b0: 94e4 973d 6017 0abe f6d3 eb3d 679a 79be
000001c0: 204d 90bd b06b 84bd 3a96 69bd 8a73 d83d
000001d0: ab8c e43c 95f9 23bd 653c 46bd dd18 c53d
000001e0: 768f 20bd 298a f43c 32a1 463e 82f9 243e
000001f0: 6fa8 273c fae7 243d 25b4 b63d a608 e33d
00000200: ca88 493d f9ca 1c3e 9b99 883d 7f42 c1bd
00000210: a846 f8bd 5c9a 04be 34ad 333d 59d8 c6bc
00000220: 7362 0ebd 2d0c a43d 6ba7 22bc d33b 2ebb
00000230: 8571 053e 729a 3bbe 5a9c 233d aef1 4f3e
00000240: a883 34be 95d6 0cbe cc5c e1bd d015 543e
00000250: 335f b1bd c0a9 203a 7474 86bd ffbc 9a3c
00000260: 38c3 5e3d b23c 20bd 5b9f a43b 8fce 1dbe
00000270: d851 a8bd 0dfd 2c3c cf48 133e 792a 08be
00000280: 6907 a43d 5467 0fbe 41bb 42bc 5aea 8fbd
00000290: 46ab a6bd 4855 9cbd e485 cf3d 10a4 0e3e
000002a0: b9dc 053e fe84 21be fac8 f63d f6b8 383d
000002b0: 2ffb 16be 4f87 4d3e 9b42 0fbc 8629 253d
000002c0: 9dae 2a3e 1b32 36bd d682 363d 3082 873c
000002d0: 0f85 923b 2958 a53c a131 a93d d060 8d3d
000002e0: cbcb 15be 0e6e 39bd 092d 5abe 12f6 2ebe
000002f0: d5c2 603d d073 943c c093 053d d004 b6bd
00000300: f65c 0cbe 9bec de3d e77e 97bb c1dd 84bd
00000310: 9e36 a23d 585e 9e3d 98d7 87bc cbe5 c83b
00000320: 3234 1b3d 5a02 ccbb fe37 403d 26ac 1c3c
00000330: 4c54 903c 1438 933d 504f 21bc fb14 d5bd
00000340: 2af5 3fbd 9dce 803d f08e f43c 2074 4c3d
00000350: 31e7 6ebd be7f 2b3c 8b93 ab3d 23d6 12be
00000360: 3fd8 633c 7c5e 19be fe8c 883c 4a98 b7bd
00000370: face 873d 8de1 9f3d 6c29 153e db97 193e
00000380: ebcc ac3c b75e 91bd 6f4c eabd 7776 833d
00000390: e617 a43d 8f88 e83d e995 e53d ac22 a8bc
000003a0: 48e5 473d a5c5 99bd eafa 8f3c 8757 96bd
000003b0: 8954 28bd 3d94 203d 2f8b d53c 0a7d 533c
000003c0: b41c 7bbd 92e8 e2bd 4790 90bc 8755 843c
000003d0: 67b7 0abe 8de3 5dbd 00f0 40bd 8e4b 9b3b
000003e0: bc87 9f3d 45d6 d7bd 1eae 843d 26eb 593d
000003f0: 76d8 95bd a325 a43d d3b4 6b3d 7add 11bd
-0.099468075 -0.15809941 -0.0022530893 0.20362727 0.0016541674 -0.017567456 -0.017034227 -0.003020508
0.058206875 -0.067862295 -0.03246113 0.038596492 0.050025165 -0.09910382 -0.04801395 0.044328045
0.04821625 -0.014031669 0.12755682 -0.105158284 0.14449047 0.13856325 -0.07212219 0.11448854
-0.13057153 0.08655792 0.13109928 0.0066271266 -0.009876971 0.09122259 -0.078580566 0.058236826
-0.061311904 0.012778787 0.06991684 -0.13421859 0.05384715 0.051327586 0.07870262 0.06807444
0.101549506 -0.06638969 0.09667656 0.026911419 0.076637186 0.08512373 0.03602344 -0.050235577
0.26264614 0.040518034 0.073595464 0.21193328 -0.011253399 0.038561616 -0.012285187 -0.012768829
-0.067692 0.059386604 0.090347365 0.077694654 -0.02416161 -0.029951487 0.0759073 -0.07046903
0.047947843 -0.04133082 -0.10254016 0.11102741 -0.046992656 0.081817254 -0.078417175 0.06648449
-0.1088778 0.041204125 -0.0315518 0.056348357 0.14369327 0.051802654 -0.016429048 -0.12948823
0.0047449223 0.04689569 0.08748799 -0.018493561 0.15311742 0.16208242 0.07700527 0.15770255
0.08270627 0.022564976 0.07319946 0.05614967 0.008549792 0.121153794 0.115305625 0.088722065
-0.20258147 -0.19915432 -0.016244106 0.053429663 -0.10875621 0.15216511 0.171303 0.008350018
0.05865961 0.06610204 0.14639083 0.053649403 0.07416645 -0.1348548 0.11515038 -0.24375306
-0.070459604 -0.06465852 -0.057028033 0.10568912 0.027899107 -0.04003294 -0.04839744 0.09623883
-0.039199315 0.029851036 0.19397429 0.16110805 0.010233029 0.040260293 0.089210786 0.11085634
0.049202718 0.15311803 0.06669923 -0.09436511 -0.121228516 -0.12949508 0.04386635 -0.024273084
-0.034761857 0.08010135 -0.009927611 -0.002658595 0.13031586 -0.18320635 0.03994403 0.20307037
-0.17628348 -0.13753732 -0.11004028 0.20711446 -0.08660736 0.00061288103 -0.065651804 0.018888948
0.054385394 -0.039120384 0.0050238795 -0.15410827 -0.082187355 0.010558379 0.14383243 -0.13297452
0.08009226 -0.1400426 -0.011885465 -0.07027121 -0.081381366 -0.076334536 0.101329595 0.13929772
0.1307248 -0.15773389 0.12050052 0.045098267 -0.14744256 0.20071147 -0.008743907 0.040322803
0.16668172 -0.044481378 0.04455837 0.01654157 0.004471428 0.02018364 0.08261419 0.06903231
-0.14628522 -0.045270972 -0.21306242 -0.17086056 0.054873306 0.01812163 0.03261161 -0.08887637
-0.13707337 0.10884973 -0.0046232822 -0.06487609 0.07920574 0.077328384 -0.016582295 0.006130909
0.037891574 -0.0062258663 0.0469284 0.009562528 0.01761832 0.071884304 -0.00984557 -0.10404392
-0.046864666 0.06289408 0.029853314 0.049915433 -0.05832595 0.010467468 0.08377751 -0.14339499
0.013906538 -0.14977449 0.016668793 -0.08964594 0.066312745 0.07806692 0.14566582 0.14999335
0.021093806 -0.070981435 -0.1144036 0.0641908 0.08012371 0.113541715 0.11210234 -0.020524345
0.048802644 -0.07508401 0.0175757 -0.07340913 -0.041096244 0.03920387 0.026067344 0.01290823
-0.06130667 -0.110795155 -0.017646922 0.016154064 -0.13546525 -0.054172087 -0.04710388 0.0047392314
0.07789561 -0.105389155 0.06478523 0.05320277 -0.07316677 0.08014991 0.057545494 -0.035611607

network_body._body_endoder.seq_layers.2.bias f4 [128]
00000000: a56b 6abc dbfb 5fbc e5c6 333c 4359 1c3d
00000010: b1da df39 006d 7c3b b031 2bbc 0c9d cc3c
00000020: c0de 89bb 1aad 053d 6482 a13a 1026 163d
00000030: 3f37 1f3c 009b cd39 8de3 dbbb 1239 9fbc
00000040: c90d 1c3c edfd 053c 5118 5bbc 18a8 26bc
00000050: a56e 273b dbe3 473c ecab 3e3c d6bd 80ba
00000060: 9a4c 423c 79fa 92bc b07b c9bb 9db4 08bb
00000070: 15e3 b93c 8ddb 31bc 0aba c73b d8ee 6d3c
00000080: d817 c9bb d830 893b 904b 863c 5191 80bc
00000090: 5415 b23c 968c a8bc e9fc 9dbc a981 e23b
000000a0: 1d38 5a3c dc88 60bb 971c 003c f561 4e3c
000000b0: cafc 2b3c 77ea c83b 4d12 04bb ebf4 c5bb
000000c0: 6186 143c 37cc f23b 7e4e 993b 7c04 99bc
000000d0: 93a3 173c fafe 1f3d 813e 363c 3ddf 4c3c
000000e0: 5951 503c 5ef2 29bc 1e9b 943b 7d83 98bb
000000f0: a258 8d3c 3792 4cbc 90c6 28bc 613b 823c
00000100: 33b8 d93c 0a7c 78bc db56 82bb 0776 0f3d
00000110: 38de eebb a4c5 22bc 0521 743c ab69 2fbc
00000120: 3221 c73c b2e9 69bc 2328 acbb d506 7abb
00000130: f86e 8abc 9bfe 00bc 8bcf 7e3b f97d 783c
00000140: 520a 9f3c 06af 0f3b 8858 4a3c d16f db3c
00000150: 5417 0d3c ae6f 4c39 7d99 303c a385 1c3c
00000160: 622c 863c 7288 0c3d 6fd5 203c 28da 6a3c
00000170: 9ea6 663d 8557 b83c ccb3 8f3c 72f1 573c
00000180: 28f4 f23b 0490 89bc 5518 623a 9d31 8d3c
00000190: 97d5 1bbc 4d56 e5bb d4dc 4bbb cfed aeba
000001a0: 111f daba fb57 d33c 4927 b2bc f6b5 01bc
000001b0: ceea de3b 3072 06bc 4602 783c ceb7 bb3c
000001c0: 19fd a43c 8c2d 423c 59de 403b a704 aaba
000001d0: 2a7e 5ebb d8d7 67bc 262c 553a c15f 70bc
000001e0: 09a3 a2bc ec09 d7ba b513 30bc 8281 62bc
000001f0: 763d babb d030 81bc fe76 583c d630 ee3b
-0.014307891 -0.013670887 0.010972713 0.038171064 0.00042696812 0.0038517118 -0.010448858 0.02497723
-0.004207462 0.032635786 0.0012322185 0.036657393 0.009717762 0.0003921613 -0.006710476 -0.019436393
0.009524771 0.008178216 -0.013372497 -0.010171913 0.0025548127 0.012200321 0.011637669 -0.00098222
0.011859084 -0.0179417 -0.006148778 -0.0020859607 0.022691289 -0.010855568 0.0060951756 0.014522277
-0.0061368756 0.004186731 0.016393453 -0.015694292 0.021738686 -0.02057485 -0.019285636 0.0069124294
0.0133190425 -0.0034261262 0.007819316 0.012596597 0.010497281 0.006131466 -0.002015251 -0.0060411594
0.009065242 0.007409598 0.0046785465 -0.018678896 0.009255308 0.039061524 0.0111233005 0.012504396
0.012714707 -0.010372726 0.004535093 -0.0046543465 0.017254177 -0.012486032 -0.010301247 0.015897455
0.02657709 -0.015166292 -0.003977639 0.03502467 -0.007289674 -0.0099348165 0.014900451 -0.010706346
0.024307821 -0.014276909 -0.005253808 -0.0038151045 -0.016898617 -0.007873203 0.003888103 0.015166753
0.0194141 0.002192439 0.012350209 0.026786717 0.008611519 0.0001949656 0.010778782 0.009553346
0.016378585 0.034309812 0.0098165115 0.014334239 0.056311242 0.02250267 0.017541789 0.013180124
0.0074143596 -0.016792305 0.00086248416 0.017235572 -0.009511373 -0.0069988132 -0.0031106966 -0.0013346019
-0.0016641339 0.025798788 -0.021747248 -0.007916918 0.0068028932 -0.008205935 0.015137261 0.022914793
0.020140218 0.0118516795 0.0029429405 -0.0012971357 -0.0033949711 -0.014150582 0.0008131884 -0.014671267
-0.019853132 -0.0016406155 -0.010746886 -0.013824822 -0.0056835962 -0.015770346 0.013211964 0.0072690053

action_model._continuous_distribution.log_sigma f4 [1, 2]
00000000: 880b 7abd 9e8c cbbd
-0.061046153 -0.0993893

action_model._continuous_distribution.mu.weight f4 [2, 128]
00000000: b409 19bd 90ce 07bd 3d4d 25bd f586 803d
00000010: 9e23 48bd a532 0b3d cf92 d8bc a306 233d
00000020: 9307 36bc 7628 493d 5495 da3a 43c7 ca3c
00000030: b7c7 c63c 1c59 5abb 569f 8ebb f127 b4bc
00000040: f394 033b ff19 c3bc 12d8 abbc ac12 85bc
00000050: 2ef7 68bd b443 2f3c f44e a2bd aa45 61bd
00000060: df99 91bc 313a d8bc bfd5 fdbc ca38 1bbc
00000070: cc76 47bd 76fc 98bc e3a6 bfbb 6d3f 0e3c
00000080: e18c b8bb 1ed3 3b3c 7d18 2c3d f11f 7d3c
00000090: 3244 8c3d acb8 10bd 36ef 80bc 1f47 40bd
000000a0: ad08 903c d738 69bd ab48 a13c 1625 e53b
000000b0: 9ab5 52bd 8487 803c 8bc1 cc3b c27f 08bd
000000c0: 0345 ad3c 9f27 14bd 03e8 123c 5340 9f3c
000000d0: 7bbd 9f3c f6a8 723d 5633 91bd 9162 463c
000000e0: d637 21bd faf5 ad3b dac8 a5b9 05a0 7dbc
000000f0: 902f 1abd 1d4e c1bc 8d1c cbbc a276 e23b
00000100: 3f94 4bbd cc3b fdbc 3647 cbbb 2ce2 c13d
00000110: 655d d2bc 51eb bc3a 8ac0 2abd e076 a1bb
00000120: dae1 513d 8ae4 9bbb 2c45 9bbc d1bc e3bc
00000130: dc52 a2bc 0a2b dcbc 2902 833c 30c1 bd3c
00000140: 0c2c b1bc 2038 753b acda c23c e677 0b3d
00000150: 2cad f1bc cffa a53b ba61 403d f796 f5bc
00000160: e22f 373d 8c28 603d 1736 f1bc 65a9 553c
00000170: 3851 cb3d 587b 47bd 617b 68bd f379 7f3c
00000180: 68c9 bb3b 6e34 4dbc 5d8a 9dba 33c7 ef3c
00000190: e41a 0abd 3d43 cbbc bde3 f4bc 6f07 96bc
000001a0: cf86 f1ba bc88 813d 931b 54bd d960 f4bc
000001b0: 5f69 4cbd 6f25 84bc 6874 943c 01e4 8e3c
000001c0: 9f31 373d 22bd 873c fd69 1fbd 1fc4 74bb
000001d0: f0d2 913c b63b 40bd 8fe5 74bd 17bd a5bc
000001e0: ceb0 e0bc 6023 8ebc 4dcf 4cbd 7488 46bd
000001f0: 9b3b 963b 3033 9ebc 7a52 953c 881a f9bb
00000200: 523b b83c d2e2 d53b 3e3e 153d 34f7 633c
00000210: 6a03 123d fcb7 053d b200 c6bb b724 bebc
00000220: ea87 19bc 3beb 46bd 6540 013d 5c02 ab3c
00000230: 2b61 46bc 2532 253c 81c4 f7bb c73c 47bb
00000240: f4a0 193d 5584 0f3d 971f 913c cb76 2a3d
00000250: ace8 92bc e053 d23a aede ea3c d29e c9bc
00000260: 39f1 79bd f30f d03c 91b2 f03c 6839 7bbd
00000270: 229e e83b fa94 92bc e412 27bd a20e 713c
00000280: 237d bc3c 989a 023d 8f5e 343d 1a57 f53c
00000290: 460d 1ebd 208a b7ba 2a04 69bc 7760 013d
000002a0: 0fa3 c3bc 81d9 df3c 848e e13c 9f38 91bb
000002b0: dfe9 b23c e325 3bbd 7cc3 dcbc 1584 2b3c
000002c0: 0f4c 633c 092f 4c3c d186 20bc 40f5 0bbd
000002d0: e249 dd3c ba0a 49bc b73a 0bbd a21b a7bc
000002e0: 094a 28bd 8798 b4bb 3864 b93c d0ec debc
000002f0: a9ad 00bd b2cc c5bc 4a74 90bc 9a11 54bd
00000300: 93a7 b6bc 2508 fe3c ecd6 d83c acf0 063c
00000310: 1f27 8dbc c42b bf3b ea85 833c 72e9 863c
00000320: d7c3 a23c 939e bbbb 9c1a 083d a815 84bc
00000330: 4152 d5bb f127 b0bb 2188 703c d4cc f8bc
00000340: c108 493d 0c23 9dbc 26d6 e93c 42f9 873c
00000350: 7e8b 63bc 7f7c cf3c bb16 243d 2bb1 12bc
00000360: cb15 97bb a231 9e3c 20b6 143c 3cca 48bc
00000370: 86b5 0cbc a300 6ebb 976c bebc 6f8a aebc
00000380: f24d 0bbd 9f70 10bc b015 32bd 92d9 863b
00000390: 05e4 193b e59b 123d ad22 e23c 993a b13c
000003a0: 5f6f 12bd 0b9a 173d 19f9 f8bc fca8 60bb
000003b0: 6446 cd3c d85c 35bd 221b c0bc bbf2 253d
000003c0: e18c 1b3b 1ee0 efbb 3d58 03bc 4506 5c3d
000003d0: e570 10bc 3373 9f3c 0e00 d2bc 6554 96bb
000003e0: 19db 193c d019 68bc a5cd 863c bfc0 0fbb
000003f0: 9829 6c3c d083 9dbc dc1a b8bc 7f7d 253b
-0.03736277 -0.033155978 -0.040356863 0.06275741 -0.048862092 0.033983845 -0.026437191 0.03980125
-0.011110204 0.049110852 0.0016676583 0.024753219 0.024265153 -0.0033317273 -0.0043524904 -0.021991702
0.0020077794 -0.023816107 -0.020977054 -0.016244255 -0.056876354 0.010697294 -0.07925215 -0.054998077
-0.017773567 -0.026394935 -0.030985711 -0.009473989 -0.048697278 -0.01867507 -0.005848752 0.008682114
-0.0056320284 0.0114639085 0.04201554 0.01544951 0.06848945 -0.035332367 -0.015739065 -0.046942826
0.017582262 -0.056938972 0.019687971 0.0069929464 -0.05144272 0.015689619 0.006248658 -0.033324964
0.021151071 -0.036170598 0.008966449 0.019439852 0.019499531 0.059243165 -0.0708987 0.012108461
-0.03935989 0.0053088637 -0.00031620899 -0.015480046 -0.037643015 -0.023596818 -0.024793888 0.006911115
-0.049701925 -0.030912302 -0.0062035574 0.09466967 -0.0256793 0.0014413391 -0.041687526 -0.004927501
0.05124078 -0.0047574686 -0.018953882 -0.027799996 -0.019814901 -0.026875991 0.015992241 0.023163408
-0.021627448 0.0037417486 0.023785912 0.03404989 -0.02950152 0.005065299 0.0469682 -0.029979212
0.0447234 0.05472617 -0.029444737 0.013040875 0.099276006 -0.048701614 -0.05675829 0.01559304
0.0057307966 -0.012524707 -0.0012019385 0.02926979 -0.03371705 -0.024812335 -0.02989375 -0.018314091
-0.0018427017 0.06324908 -0.05178411 -0.029831337 -0.049905177 -0.016131131 0.018121913 0.017442705
0.044725057 0.016569678 -0.038919438 -0.0037348343 0.017800778 -0.046931945 -0.059789237 -0.020231767
-0.027428057 -0.017350852 -0.050002385 -0.048469976 0.0045847422 -0.019311517 0.018227804 -0.0076020397
0.022489224 0.006527283 0.036436312 0.013913918 0.035647787 0.032646164 -0.0060425634 -0.023210866
-0.009370783 -0.048564177 0.031555552 0.020875148 -0.012108128 0.010082756 -0.007561267 -0.0030401216
0.037507012 0.03503831 0.017715259 0.041617196 -0.017933212 0.0016046725 0.028670635 -0.024611864
-0.061021063 0.02539823 0.029382022 -0.061334044 0.007098929 -0.017893303 -0.0407895 0.014712961
0.023008889 0.031885713 0.04403549 0.02994876 -0.038586877 -0.0014002956 -0.014222184 0.031586137
-0.023881463 0.027325394 0.027533777 -0.0044317986 0.021840034 -0.04569043 -0.026948683 0.0104685025
0.013873114 0.012462386 -0.009797768 -0.034169436 0.02701277 -0.012270624 -0.03399154 -0.020398919
-0.04108623 -0.0055113467 0.022630796 -0.02721253 -0.031415615 -0.024145458 -0.017633576 -0.0517746
-0.022296702 0.031009743 0.02646967 0.008236092 -0.017230568 0.0058340747 0.016055066 0.016468737
0.019868774 -0.0057256906 0.0332285 -0.016123608 -0.0065100496 -0.005375855 0.014680893 -0.030371107
0.049080614 -0.01918175 0.028544497 0.016598348 -0.013888238 0.025327919 0.04006074 -0.008953373
-0.004610752 0.019310776 0.009076625 -0.012255248 -0.0085882 -0.0036316297 -0.023245139 -0.021306245
-0.03400988 -0.008815913 -0.043477714 0.004115292 0.0023481857 0.035793204 0.027604425 0.021634387
-0.035750743 0.03701214 -0.030392217 -0.003428041 0.025057979 -0.044277996 -0.023450438 0.04051469
0.0023735093 -0.007320418 -0.008016643 0.053716917 -0.008815979 0.019464111 -0.025634792 -0.0045876973
0.009390616 -0.01416631 0.01645548 -0.0021934954 0.014414214 -0.019227892 -0.022473745 0.0025251803

action_model._continuous_distribution.mu.bias f4 [2]
00000000: b638 983c adca 90bb
0.01858173 -0.004418692

action_model._discrete_distribution.branches.0.weight f4 [2, 128]
00000000: 8706 603c e3c3 90bc 5ede 0b3c 61e3 40bd
00000010: 4a25 8a3d 826a 643a 813c 333c 2e15 b3bb
00000020: 51e1 203a df2d 81bb deff 65bb a8cd 443d
00000030: 63dc b23c b6d2 a1bb 032a 5e3d 15e6 533c
00000040: 22f8 d7bb 6b1a d9bc aea8 743c 1422 ef3d
00000050: 2ae1 333c a113 1a3c 0701 5c3c 4f46 763c
00000060: 31b4 2a3d 1777 4d3c 70f8 433c 12fe b5bb
00000070: 8805 24bc 96cf 1a3d 55e9 60bb 55ea b3bc
00000080: f171 6fbb 0129 4b3a ee3a 00bd 32e6 c6bb
00000090: 25b8 3dbc 0cec cabb cadf 843c 734c 25bc
000000a0: bbe2 843b 9ce2 12bd 199d 06bc 4217 44bc
000000b0: 6692 433c 0403 023c 0872 dfbb 61d1 353d
000000c0: 2b29 b13c a4c5 89bc 1ca9 fdbb 8eac dcbc
000000d0: 7b78 893c 914d 8a3a 24a8 413d 23ab 7e3c
000000e0: 0422 be3c 287b 02bb e9b2 483c 89d0 583d
000000f0: 59ba cdbb 5435 703a 4de4 413c 84e7 2cbc
00000100: 774c 68bc cdff 3dbc 69ae 6d3a 0ae5 a2bc
00000110: 30a8 003c 855e 47bc 21af 2dbc c580 7f3d
00000120: 2a83 aabc fd9b e53b 503a a63b c7f9 21bc
00000130: b595 b1bb 8e8d d43c fe71 b1bb c74f cbba
00000140: e7b8 fdbb e6d4 d63c a50a 543b 4e7f a7bc
00000150: a366 e6bb 9afd 833c b663 233b 3a75 5fbb
00000160: 9d41 e63b 4b78 5f39 40c6 f4bb 2b97 b03c
00000170: 7237 46bb acdd b4bb 3197 a6bc 63f9 eeba
00000180: 44e6 0fba 7c55 383c 2e16 6c3b a342 b5ba
00000190: b4f9 713c 81ef 98bc ec94 d83b f375 00bc
000001a0: b661 ab3c f7aa 19bc 7094 cd3c 24a1 00bb
000001b0: 6b08 caba e451 6cbc fbb2 f23c 20a4 60bb
000001c0: 40bc aeba 4546 2dbc 8e7c db3b 873d 92bb
000001d0: 8c7f 5cbb 2d59 463c f30a 58bc e193 823c
000001e0: 1088 843c 55b0 52bb 9527 3f3c af54 c739
000001f0: deb4 343d ef91 4f3b ce26 6aba 26de 9b3d
00000200: 60b2 d03a bc44 5e3c ce04 57bc 4a0b b53c
00000210: c04f 9bbd 2b9e c9bb 34b5 53bc edec 643c
00000220: 343d 2fbc 3fcd ec3b 8290 4c3c 17e5 21bd
00000230: c080 64bc bdcd 273c a4f8 f3bc a46c a6bc
00000240: 19bf 943b f64e 603c 0f13 49bc a15b e9bd
00000250: 95f4 d43b 2cc0 60bb 1b8e 593c 043c c03b
00000260: 3fc1 46bd a435 1cbc 2708 113c 31c9 7c3c
00000270: 05e1 a8ba 874c 28bd e7b4 c23b c1fd d13c
00000280: 958b 12bc 959e cfbc 1987 9f3c 9cf4 343c
00000290: 2063 afbb 026c 96bc 6316 d63a a097 cd3b
000002a0: 65ad 093c 4bd0 933c 891a b9bb 9c37 ae3c
000002b0: f693 253c 9045 36bc 37bd 8d3b f4db aabc
000002c0: 0d66 8abc 1059 253c 346d 893c 4009 933b
000002d0: 57ba 14bb 3ba5 c6bc 98ca f4bc 4909 81bc
000002e0: 089b ecbc 7496 aabc 2923 84bc 58f8 33bd
000002f0: b1f2 a83b 9b2b 193c ebc1 233b 537b bbbb
00000300: fd07 9a3c c324 403c 3eb8 01bc 5e38 ee3c
00000310: af5c 1a3b 3bb7 d13b d925 2a3c 2c39 6cbd
00000320: e4a8 a93c 4cbd af3b 4b5d 74ba b09a 79bc
00000330: 0319 a43c 422a 82bc 45fe 74bc f497 69bc
00000340: 7d08 8b3c 4ccd cfbc dbee bf3b 99ca c83c
00000350: 2abc 843a 2084 8bbc eb1e 663b 048b bdba
00000360: b67b 8b3b dbd9 0c3c d5b8 a63c de15 94bb
00000370: 70ec 8f3b 23fe a03c ff63 033c de99 47bc
00000380: 9de7 073b 6043 ebbc 0d89 abbc ffb6 a1bb
00000390: ac63 8ebc e15e 2f3b cf7c bd3b 45f2 833b
000003a0: 4dc6 82bc 9cba 1d3c 4858 0abc b116 9fbc
000003b0: 21ff e03b 77cf bc39 74f3 c3bb 8830 09bc
000003c0: afdd 5a3c e4fe 0d3c b18d 1d3b 81aa bbb9
000003d0: 246f 1aba 99a5 92bc 60b0 c33b 5963 16bc
000003e0: 51ba 7fbc 470f 55bc 8566 3dbb 62c0 9abc
000003f0: f3a3 e8bc 02b3 963b a8de 983b 0dd6 a1bd
0.013673431 -0.017671531 0.008536903 -0.047091845 0.067453936 0.00087133807 0.010939718 -0.0054651713
0.00061370904 -0.003942236 -0.0035095136 0.04804769 0.021833604 -0.004938449 0.054239284 0.012933274
-0.006590859 -0.026501855 0.0149327945 0.11676422 0.010978976 0.009404094 0.013427979 0.015031411
0.04167575 0.0125406 0.011961088 -0.005553969 -0.010011084 0.037795626 -0.0034318764 -0.021962324
-0.003653642 0.00077499455 -0.0313062 -0.006069922 -0.011579548 -0.0061926898 0.016219992 -0.010089028
0.0040553487 -0.035860643 -0.008216166 -0.011968436 0.01193676 0.007935289 -0.0068190135 0.044389132
0.021626076 -0.016817875 -0.0077411067 -0.02693775 0.016781082 0.0010551681 0.047279492 0.015543732
0.02320958 -0.0019909833 0.012249687 0.05293325 -0.006278318 0.000916322 0.011834216 -0.0105532445
-0.014178387 -0.011596632 0.00090668217 -0.019884605 0.007852599 -0.012168531 -0.010600836 0.062378664
-0.020814497 0.0070071206 0.0050728694 -0.009886212 -0.005419458 0.025946405 -0.0054152003 -0.0015511446
-0.0077429893 0.026224565 0.0032354977 -0.020446446 -0.007031278 0.016112138 0.0024931259 -0.0034096972
0.0070268647 0.0002131175 -0.0074699223 0.021556458 -0.003024545 -0.0055195894 -0.020335766 -0.0018232282
-0.00054893293 0.01125085 0.0036023962 -0.0013829063 0.0147690065 -0.018668892 0.0066095497 -0.007840621
0.020920616 -0.00937914 0.025095195 -0.0019627297 -0.0015413886 -0.014423821 0.02962636 -0.0034277514
-0.0013331249 -0.010575836 0.0066981977 -0.004462901 -0.003364536 0.012106222 -0.013186204 0.015939655
0.01617816 -0.003214856 0.011667152 0.00038019332 0.0441178 0.0031672677 -0.0008932174 0.07610731
0.00159223 0.013566192 -0.013123704 0.02210011 -0.075835705 -0.0061528883 -0.01292162 0.013972503
-0.010695744 0.0072266157 0.012485625 -0.039525118 -0.013946712 0.010241923 -0.029781647 -0.020315476
0.004539382 0.013690701 -0.01227261 -0.1139443 0.006498883 -0.003429423 0.0132785095 0.0058665294
-0.048524138 -0.009534273 0.008852041 0.015428827 -0.0012884444 -0.041088607 0.0059419754 0.025633695
-0.008944412 -0.025344172 0.0194736 0.011044648 -0.005352393 -0.018362049 0.0016333576 0.0062741786
0.008403157 0.018043658 -0.005648915 0.021266751 0.010106077 -0.011124983 0.0043255347 -0.020856835
-0.016894365 0.010092035 0.016775705 0.0044871867 -0.0022694075 -0.02424871 -0.02988176 -0.015751498
-0.028882518 -0.020823695 -0.016130047 -0.04393801 0.005155884 0.009348775 0.002498741 -0.0057214885
0.018802637 0.011727515 -0.007917462 0.029079612 0.002355378 0.0064000166 0.010385 -0.05767171
0.020710416 0.005363142 -0.0009321763 -0.015234634 0.020031458 -0.01588929 -0.014953201 -0.01425742
0.016971821 -0.025366448 0.005857331 0.024510669 0.0010126878 -0.017030776 0.0035113643 -0.0014460986
0.004256691 0.008596863 0.020351807 -0.0045192083 0.004392199 0.019652432 0.008019446 -0.012182681
0.0020737418 -0.02871865 -0.020939374 -0.004935145 -0.017381512 0.0026759433 0.0057827006 0.0040266835
-0.015963698 0.009627011 -0.008443899 -0.01942 0.0068663512 0.00036012728 -0.0059799496 -0.008373387
0.013358518 0.008666728 0.0024040753 -0.00035794455 -0.0005891195 -0.017901229 0.0059719533 -0.00917896
-0.015608386 -0.013004131 -0.0028900218 -0.018890563 -0.02839849 0.004598976 0.0046652146 -0.07902155

action_model._discrete_distribution.branches.0.bias f4 [2]
00000000: 78a2 5f3b 85a2 5fbb
0.0034123939 -0.0034123969
