results/LavaTest/Lava/Lava-999993.pt (torch, 451049 bytes, 42 tensors)

network_body._body_endoder.seq_layers.0.weight f4 [128, 7]
0.5939835 0.27309498 -0.83846444 0.120049015 0.40231556 -0.06805885 -0.01587045 -0.66189826
0.52404034 -0.11553666 -0.4941335 -0.35959053 0.008838416 -0.20759165 0.078467466 -0.104080535
0.04991187 -0.35704482 0.5202521 -0.27756292 0.3562026 0.034625277 -0.41394895 0.19999288
-0.20058943 0.24610975 -0.37610334 0.40048754 -0.21107611 -0.006546437 -0.28505996 -0.4283899
-0.050874744 0.08284662 -0.44980392 0.022353496 0.7799875 -0.074099585 -0.5391671 -0.29709512
0.20770164 -0.34136632 -0.036291715 0.40302873 -1.2070283 -0.032465886 0.35909805 -0.10750889
0.35805088 -0.56025124 0.31790692 -0.28014454 -0.08306942 0.091129206 -0.017221315 -0.045968156
0.1684265 -0.030953115 0.50789243 -0.1388541 -0.0943092 0.4657475 0.33102274 0.44614938
0.42111272 -0.04873677 -0.18043828 0.7353093 0.40178332 -0.07999056 0.25156668 -0.14971629
-0.50228775 0.10977931 0.10307941 0.14799087 0.61601174 -0.5388412 0.19526237 0.13588215
-0.029483633 0.3552451 0.34990048 -0.78174317 -0.015097141 -0.42553744 -0.54944694 -0.1512158
0.5443805 -0.15686777 0.28394476 -0.05426034 -0.07493407 -0.043593332 -0.20574778 -0.099185996
-0.058916926 0.146204 -0.11093077 -0.27920654 -0.204151 0.2403723 -0.51137114 -0.5475807
0.9326348 -0.22087844 0.4027141 -0.062268786 0.19031534 0.7008501 -0.51206493 -0.15693997
-0.27163398 -0.21564057 0.27782977 -0.34442893 -0.08462304 -0.42281005 0.036187254 0.17540768
-0.046817504 0.06423144 0.09372354 0.40330097 -0.6065738 0.3877827 -0.24532785 -0.3129956
0.17351012 0.027274879 -0.4477648 1.1186816 0.52075964 0.3780156 -0.104523644 -0.10863042
-0.024368852 0.66450965 -0.17046764 -0.22825244 -0.15116583 0.2648568 -0.22482695 -0.405207
-1.0322267 -0.14017999 -0.28161275 0.3029798 -0.032985087 0.17324445 0.29850608 -0.88594216
-0.5583452 -0.37906325 0.36924386 0.44265205 -0.10082261 0.07681164 -0.018918842 -0.0374326
-0.5244407 -0.2896485 -0.3339161 -1.1717399 -0.11600883 -0.08351788 -0.23689677 -0.13365804
0.039320786 0.36153176 -0.07276879 0.07752284 0.8993975 -0.29537892 -0.79612696 0.071034774
-0.0077700852 -0.3285843 0.41397542 -0.15629844 -0.3111743 -0.17502083 -0.14551304 -0.011046599
-0.5752185 -0.026062096 0.15506813 0.33008268 -0.4008603 -0.73545235 -0.46381274 0.30790308
-0.28605583 -0.30710357 0.06472202 0.5568146 -0.0428914 0.6011282 0.1901727 -0.014412046
-0.080957524 -0.21542057 -0.5477727 0.059866082 0.04952568 0.067430094 0.020884171 -0.17725629
-0.06368795 -0.3023768 0.10485781 0.24740095 0.15507421 0.26729202 -0.1608875 0.99439174
0.3932899 -0.33038992 -0.010521214 -0.044477824 0.0759786 0.043568015 0.011742664 0.40316305
-0.5792532 -0.23209707 -0.01297548 0.1756827 -0.2591019 -0.18517476 0.23085979 0.038296606
0.09311391 0.33132347 -0.26866594 -0.18099774 0.20872165 -0.6984093 -0.124121994 -0.29569468
-0.69363576 0.026015949 0.4365112 -0.21263748 0.038668763 -0.23687164 -0.2960467 -0.32019255
-0.24147423 -0.48403713 -0.3569554 -0.14552301 0.5705722 0.5718129 -0.122166604 -0.0073889503
00000000: 4d0f 183f 1bd3 8b3e 9ba5 56bf 42dc f53d
00000010: 4efc cd3e 7062 8bbd bf02 82bc 2a72 29bf
00000020: 8227 063f 7c9e ecbd 11ff fcbe 401c b8be
00000030: 01cf 103c e892 54be 8db3 a03d 2d28 d5bd
00000040: 6470 4c3d 94ce b6be 3e2f 053f ba1c 8ebe
00000050: 3060 b63e 3cd3 0d3d 1ef1 d3be efca 4c3e
00000060: 5167 4dbe 3204 7c3e 9e90 c0be b40c cd3e
00000070: 5624 58be 7e83 d6bb 61f3 91be ec55 dbbe
00000080: 0962 50bd 7dab a93d b34c e6be ae1e b73c
00000090: 43ad 473f 86c1 97bd db06 0abf da1c 98be
000000a0: bdaf 543e 91c7 aebe 9fa6 14bd c859 ce3e
000000b0: e77f 9abf f3fa 04bd b3db b73e 9f2d dcbd
000000c0: 7252 b73e a06c 0fbf b2c4 a23e 1b6f 8fbe
000000d0: 4d20 aabd f3a1 ba3d b713 8dbc 1b49 3cbd
000000e0: ff77 2c3e 6391 fdbc 3d05 023f c52f 0ebe
000000f0: 2f25 c1bd 7576 ee3e d07b a93e b16d e43e
00000100: 169c d73e 35a0 47bd d0c4 38be 3b3d 3c3f
00000110: 8bb6 cd3e 17d2 a3bd 59cd 803e 3a4f 19be
00000120: ee95 00bf fad3 e03d 4c1b d33d eb8a 173e
00000130: f2b2 1d3f 7ff1 09bf dcf2 473e b124 0b3e
00000140: a987 f1bc b0e2 b53e 2826 b33e 5220 48bf
00000150: 005a 77bc 0be0 d9be 8ea8 0cbf 51d8 1abe
00000160: 855c 0b3f f2a1 20be 3561 913e 1740 5ebd
00000170: 0977 99bd ec8e 32bd 8caf 52be 0722 cbbd
00000180: e052 71bd 80b6 153e ac2f e3bd 29f4 8ebe
00000190: f60c 51be 2824 763e 38e9 02bf 402e 0cbf
000001a0: 27c1 6e3f f52d 62be 8b30 ce3e 8e0d 7fbd
000001b0: 06e2 423e ea6a 333f b016 03bf dfb4 20be
000001c0: 9c13 8bbe e2d0 5cbe b43f 8e3e fd58 b0be
000001d0: d84e adbd 8f7a d8be 1639 143d 129e 333e
000001e0: b6c3 3fbd c68b 833d 21f2 bf3d 777d ce3e
000001f0: 6c48 1bbf 748b c63e 3937 7bbe f640 a0be
00000200: a3ac 313e 916f df3c 6e41 e5be f530 8f3f
00000210: 8150 053f 438b c13e 7e10 d6bd a079 debd
00000220: 30a1 c7bc 4e1d 2a3f 128f 2ebe 02bb 69be
00000230: 37cb 1abe 4f9b 873e 0939 66be 4b77 cfbe
00000240: 0120 84bf 588b 0fbe 8c2f 90be 2b20 9b3e
00000250: 5f1b 07bd fe66 313e cad5 983e 1bcd 62bf
00000260: b6ef 0ebf 9414 c2be 880d bd3e 4aa3 e23e
00000270: 167c cebd 6c4f 9d3d b0fb 9abc ed52 19bd
00000280: bf41 06bf cf4c 94be 0df7 aabe 93fb 95bf
00000290: 0a96 edbd 6c0b abbd 1195 72be a7dd 08be
000002a0: d50e 213d b11a b93e ce07 95bd 4bc4 9e3d
000002b0: ea3e 663f e83b 97be face 4bbf ae7a 913d
000002c0: 339c febb 343c a8be 96f4 d33e b30c 20be
000002d0: 3d52 9fbe a938 33be 5f01 15be cbfc 34bc
000002e0: 8541 13bf 2d80 d5bc 2eca 1e3e 9900 a93e
000002f0: 903d cdbe 9b46 3cbf dd78 edbe 79a5 9d3e
00000300: e975 92be ae3c 9dbe fa8c 843d 678b 0e3f
00000310: e5ae 2fbd 8ae3 193f a2bc 423e 8120 6cbc
00000320: 0fcd a5bd 3697 5cbe d53a 0cbf 2336 753d
00000330: 70db 4a3d ca18 8a3d 4815 ab3c ac82 35be
00000340: d46e 82bd 22d1 9abe b1bf d63d ad56 7d3e
00000350: c6cb 1e3e 80da 883e b1bf 24be 7590 7e3f
00000360: 4b5d c93e de28 a9be 2c61 2cbc 612e 36bd
00000370: ab9a 9b3d 6074 323d 4d64 403c 636b ce3e
00000380: f049 14bf dbaa 6dbe 1c97 54bc 2ae6 333e
00000390: 01a9 84be 749e 3dbe 8266 6c3e e7dc 1c3d
000003a0: 81b2 be3d 3ba3 a93e 958e 89be 7957 39be
000003b0: 21bb 553e f4ca 32bf ac33 febd 4b65 97be
000003c0: 1d92 31bf 661f d53c 657e df3e a4bd 59be
000003d0: 2363 1e3d 7b8e 72be 6f93 97be 47f0 a3be
000003e0: 0545 77be b7d3 f7be dcc2 b6be fc03 15be
000003f0: 0511 123f 5562 123f 7c32 fabd 021f f2bb

network_body._body_endoder.seq_layers.0.bias f4 [128]
-0.008249735 0.0153493425 0.012619474 -0.043521564 0.024367373 0.013346721 0.0015168322 0.016400814
0.034475792 -0.0058972887 0.022841597 -0.0005363446 -0.01793636 -0.004581267 0.008431217 -0.018511165
0.007387692 -0.003736957 0.007543791 -0.011085798 0.022948325 -0.009325297 -0.0057108304 0.008846712
0.0026538295 -0.020571457 -0.0077737537 0.020206055 0.014730818 -0.007861511 0.0035322157 0.017723365
0.021403255 0.005205621 0.02274617 0.0068832124 -0.015500703 -0.004046413 0.012742407 0.039934184
0.010897138 -0.0006889235 -0.0016577777 0.0037847734 0.0039632223 0.0008899216 -0.0062293797 0.011055752
0.020711556 0.008717938 -0.002603952 0.018334353 -0.010391193 -0.011372158 0.03745282 -0.011567572
-0.00017877441 0.045879997 0.00846792 -0.0011072644 0.019136168 -0.01556531 0.0040473836 -0.012915879
0.013601026 0.0072388793 -0.01335332 -0.011522634 0.030355409 -0.016460132 0.01137958 -0.01234522
0.014939647 -0.0013356797 0.017723048 9.785804e-05 -0.0015643965 -0.004992762 0.011078145 -0.004600869
-0.0011838604 0.030967752 0.0087082535 0.0017028927 -0.013909406 -0.0017927838 -0.0011271171 -0.0073687118
-0.0044213743 0.0033363593 -0.012486506 0.046448514 0.034781754 0.0034468551 -0.009743987 -0.013049522
0.008421097 0.04737647 0.010821295 -0.010184976 0.014732907 0.005100696 -0.0047694654 -0.0073283813
0.007362055 -0.014591067 -0.013105833 -0.004022407 -0.0053264615 0.015748985 -0.00961985 0.0027619633
-0.010006771 -0.0007280141 0.0059159147 0.022965431 -0.0044816793 -0.008292311 -0.001440874 -0.0014290676
0.024951959 0.08444825 -0.022407915 -0.005486023 -0.0012457415 -0.0040129703 -0.0070768874 -0.010727298
00000000: e629 07bc cf7b 7b3c e9c1 4e3c ab43 32bd
00000010: 169e c73c 35ac 5a3c 71d0 c63a 005b 863c
00000020: 7d36 0d3d 0b3e c1bb 4d1e bb3c 7a99 0cba
00000030: 46ef 92bc 741e 96bb 1623 0a3c baa4 97bc
00000040: 7414 f23b bce7 74bb e831 f73b 35a1 35bc
00000050: 20fe bb3c 21c9 18bc eb21 bbbb cdf1 103c
00000060: dfeb 2d3b 7985 a8bc f9ba febb 2b87 a53c
00000070: 8759 713c 91cd 00bc bf7c 673b 9730 913c
00000080: e155 af3c ea93 aa3b 2d56 ba3c 928c e13b
00000090: a9f6 7dbc c697 84bb 87c5 503c 0792 233d
000000a0: e989 323c e098 34ba ca49 d9ba f609 783b
000000b0: ebdd 813b a149 693a d31f ccbb 2f23 353c
000000c0: 48ab a93c afd5 0e3c 11a7 2abb ed31 963c
000000d0: d33f 2abc 4a52 3abc 2168 193d ea85 3dbc
000000e0: 6475 3bb9 aaec 3b3d 08bd 0a3c a121 91ba
000000f0: 74c3 9c3c a405 7fbc ea9f 843b 1f9d 53bc
00000100: d6d6 5e3c 1f34 ed3b e2c7 5abc 6ec9 3cbc
00000110: e8ab f83c 66d7 86bc 6b71 3a3c 9b43 4abc
00000120: 6cc5 743c f911 afba ed2f 913c 2339 cd38
00000130: 700c cdba 539a a3bb 1c81 353c e3c2 96bb
00000140: c32b 9bba 15b0 fd3c 10ad 0e3c 9933 df3a
00000150: 47e4 63bc d8fb eaba c6bb 93ba 3c75 f1bb
00000160: 2de1 90bb d2a6 5a3b 3494 4cbc cc40 3e3d
00000170: 5077 0e3d a2e4 613b 3ea5 1fbc aacd 55bc
00000180: a4f8 093c d40d 423d cd4b 313c e3de 26bc
00000190: 4a62 713c bd23 a73b 2d49 9cbb eb22 f0bb
000001a0: 653d f13b 5f0f 6fbc d9b9 56bc 65ce 83bb
000001b0: 9989 aebb 0404 813c 939c 1dbc 0e02 353b
000001c0: 71f3 23bc 33d8 3eba 4ada c13b 0022 bc3c
000001d0: 0ddb 92bb 79dc 07bc b5db bcba 8d4f bbba
000001e0: 0d68 cc3c 34f3 ac3d ce90 b7bc 19c4 b3bb
000001f0: 2648 a3ba 3c7f 83bb 3ce5 e7bb 8dc1 2fbc

network_body._body_endoder.seq_layers.2.weight f4 [128, 128]
0.0049677435 -0.0013628936 -0.014590499 -0.031690806 0.09114821 0.21440247 -0.15706639 0.1181755
0.053820916 0.13969384 -0.14479518 0.1278556 -0.08709243 -0.028138932 -0.06893932 0.010297835
-0.09397738 0.085129425 0.07508944 -0.001719749 0.1429113 -0.07630153 -0.02006659 -0.011456957
0.00485954 0.039393697 -0.08097947 -0.12729968 -0.032800224 0.11033793 0.08420156 -0.06426194
0.0150008 -0.084431216 -0.039740205 0.0031325296 0.037658036 -0.017847337 -0.061669447 -0.11194522
0.030132795 -0.08637189 -0.058990803 0.053482793 0.05319444 0.056965064 -0.009085404 -0.19013709
0.042576063 -0.074864484 0.18539715 0.08332125 0.023691941 0.05452351 -0.07291257 0.0733655
0.081223086 0.017260253 -0.07260199 0.02499521 0.124562524 0.04881843 -0.02733296 0.049747318
0.12823486 -0.001917963 0.075493544 0.11274786 -0.029114656 -0.09135723 0.023885408 -0.029184347
-0.050067343 -0.08060232 0.122344226 0.07805945 0.02348656 -0.19541208 0.00031671772 0.102172
0.17725247 -0.015284975 0.035536584 0.11652014 0.118746825 0.06638975 0.013423669 -0.047535796
0.044688698 -0.04132906 -0.054728635 -0.07777491 0.030240657 -0.09914306 0.06982873 -0.06788002
0.029775998 -0.085856445 -0.111139186 0.021548199 -0.12056925 0.006634822 0.014414886 -0.19110389
-0.07364124 0.10463694 0.0066970675 0.098748475 -0.0721628 0.14046206 0.19311209 -0.15272494
0.19891533 0.25056776 0.028744714 -0.120747626 -0.075986736 0.096884966 0.01889424 -0.048392892
0.04039248 0.014081713 -0.009794517 -0.051768605 -0.020785173 0.06259157 -0.02185124 0.08312238
-0.009895581 -0.0015479642 -0.12213173 0.15688209 0.072312035 -0.04223613 0.05450548 -0.07429058
-0.0971007 0.06356844 -0.07120233 0.10207883 -0.20324907 0.15498154 0.15026876 -0.020953681
-0.09079278 -0.14419797 -0.021953756 -0.068982005 -0.009562532 0.040019438 -0.13169958 -0.079816185
-0.12638135 0.036207978 -0.029787464 0.030598404 -0.17860216 -0.049758434 0.038124725 -0.05951405
-0.09322181 -0.07645038 0.13192576 0.070395865 0.019672642 0.07892664 0.06445952 -0.030046705
-0.12178213 0.10240774 0.021990871 -0.029060945 -0.1226719 -0.10034128 0.13338505 -0.016801555
-0.013522282 0.01634169 -0.007698557 0.050271247 -0.043124855 -0.029311555 -0.04552039 -0.101197295
-0.1489418 0.012305417 -0.07099183 -0.06795843 0.08129386 0.21174459 -0.037814096 -0.062104836
0.10966616 0.0456336 0.10209442 0.065758646 0.02396721 0.060348902 0.058640763 0.11707894
-0.07044692 -0.14664489 0.0022653234 0.03756559 -0.05144625 -0.048542086 0.0055960612 -0.13433796
0.014285951 -0.07979775 -0.03811412 0.052857872 -0.07038163 0.05447937 -0.02466377 -0.06176832
0.07188392 0.025816618 0.060561072 -0.19885796 -0.000580574 0.096494555 -0.0773548 0.026353773
-0.030065903 0.033489715 0.14704297 -0.08526308 -0.046090044 0.062834725 -0.08821447 0.09476441
0.07948869 0.01710587 -0.036406387 0.059250113 0.11761002 0.021942776 0.056309693 -0.036963943
-0.055611003 0.097355515 0.23318744 -0.07874351 -0.02387444 0.083946474 0.0114416275 -0.088430256
-0.038916618 0.012393714 0.0673446 -0.040032208 -0.025308555 -0.010809789 -0.045491472 -0.114863105
00000000: 74c8 a23b 1fa3 b2ba fd0c 6fbc 38ce 01bd
00000010: eaab ba3d 528c 5b3e 03d6 20be ff05 f23d
00000020: 5273 5c3d e70b 0f3e 3045 14be 94ec 023e
00000030: 845d b2bd 9e83 e6bc 0f30 8dbd 40b8 283c
00000040: 3677 c0bd 5658 ae3d 7ec8 993d 3369 e1ba
00000050: 5757 123e fa43 9cbd b062 a4bc f6b5 3bbc
00000060: c73c 9f3b 495b 213d 90d8 a5bd d95a 02be
00000070: 8759 06bd daf8 e13d de71 ac3d c49b 83bd
00000080: eac5 753c 46ea acbd a0c6 22bd 204b 4d3b
00000090: 503f 1a3d 9434 92bc 1a99 7cbd 8943 e5bd
000000a0: 0dd9 f63c bfe3 b0bd 57a0 71bd c610 5b3d
000000b0: 6ae2 593d 3354 693d f2da 14bc 4cb3 42be
000000c0: 3d64 2e3d 8d52 99bd c0d8 3d3e 55a4 aa3d
000000d0: 9a15 c23c 0b54 5f3d 2f53 95bd a740 963d
000000e0: 4a58 a63d 6065 8d3c 5ab0 94bd c1c2 cc3c
000000f0: a31a ff3d d6f5 473d 5fe9 dfbc d8c3 4b3d
00000100: 0050 033e 2964 fbba 5c9c 9a3d 5ae8 e63d
00000110: dc81 eebc 8019 bbbd 55ab c33c 0314 efbc
00000120: 6a13 4dbd d412 a5bd 9c8f fa3d a2dd 9f3d
00000130: e366 c03c 1b1a 48be 220d a639 8e3f d13d
00000140: ac81 353e d56d 7abc cf8e 113d 1ca2 ee3d
00000150: 8931 f33d 59f7 873d f3ee 5b3c e5b4 42bd
00000160: 7f0b 373d a948 29bd 222b 60bd 7448 9fbd
00000170: 41bb f73c 840b cbbd 5d02 8f3d ae04 8bbd
00000180: cbec f33c 81d5 afbd f19c e3bd d985 b03c
00000190: 03ed f6bd ec68 d93b 6a2c 6c3c bdb0 43be
000001a0: 38d1 96bd e44b d63d 1373 db3b a43c ca3d
000001b0: 17ca 93bd 49d5 0f3e 2dbf 453e ed63 1cbe
000001c0: 76b0 4b3e 6b4a 803e 097a eb3c 884a f7bd
000001d0: ef9e 9bbd a06b c63d 18c8 9a3c a037 46bd
000001e0: 9672 253d fcb6 663c 2f79 20bc 510b 54bd
000001f0: ab45 aabc 0230 803d 5f01 b3bc 113c aa3d
00000200: 1321 22bc 0fe5 caba 3320 fabd b3a5 203e
00000210: 5518 943d cbff 2cbd 2341 5f3d a925 98bd
00000220: bbdc c6bd 2c30 823d 87d2 91bd b50e d13d
00000230: 8620 50be 7bb3 1e3e 0ee0 193e 0ea7 abbc
00000240: 91f1 b9bd a2a8 13be 5dd8 b3bc 7046 8dbd
00000250: 2bac 1cbc 6ceb 233d 41dc 06be ab76 a3bd
00000260: 1d6a 01be d14e 143d d704 f4bc 81a9 fa3c
00000270: 7ce3 36be 80cf 4bbd ac28 1c3d 01c5 73bd
00000280: 14eb bebd 0492 9cbd 8c17 073e b52b 903d
00000290: 8528 a13c 4aa4 a13d 5a03 843d 8224 f6bc
000002a0: e968 f9bd 26bb d13d 3326 b43c 3811 eebc
000002b0: 683b fbbd bb7f cdbd 1796 083e 6aa3 89bc
000002c0: 908c 5dbc 02df 853c 2d44 fcbb 39e9 4d3d
000002d0: b0a3 30bd c91e f0bc 9773 3abd 8740 cfbd
000002e0: 3384 18be a99c 493c 2a64 91bd ca2d 8bbd
000002f0: 657d a63d 93d3 583e f4e2 1abd a461 7ebd
00000300: a798 e03d 4cea 3a3d e116 d13d 78ac 863d
00000310: e256 c43c 6930 773d 4c31 703d 15c7 ef3d
00000320: 7a46 90bd 142a 16be d275 143b 60de 193d
00000330: 4eb9 52bd 11d4 46bd 2a5f b73b e48f 09be
00000340: 9f0f 6a3c 016d a3bd 8d1d 1cbd 7f81 583d
00000350: 3e24 90bd c325 5f3d ad0b cabc c700 7dbd
00000360: e037 933d 5f7d d33c e30e 783d 6ca1 4bbe
00000370: a931 18ba f09e c53d 326c 9ebd dee3 d73c
00000380: c54c f6bc 832c 093d 6f92 163e 699e aebd
00000390: eac8 3cbd 7eaf 803d caa9 b4bd d813 c23d
000003a0: f7ca a23d 9c21 8c3c dd1e 15bd 3fb0 723d
000003b0: 86dd f03d 56c1 b33c fea4 663d 8167 17bd
000003c0: 5dc8 63bd 5462 c73d b0c8 6e3e 4744 a1bd
000003d0: 5494 c3bc 21ec ab3d aa75 3b3c ec1a b5bd
000003e0: 0867 1fbd 010f 4b3c f7eb 893d d0f8 23bd
000003f0: e353 cfbc 8b1b 31bc 4455 3abd 593d ebbd

network_body._body_endoder.seq_layers.2.bias f4 [128]
0.0018140943 0.0023373722 0.018919306 -0.018157195 -0.0050005578 -0.0015852407 0.02004669 0.031965677
-0.013016285 -0.00403373 -0.007261522 0.01513831 0.010331872 -0.0066630244 -0.004015252 0.014465531
-0.006496411 -0.011041415 -0.0024906734 0.03112546 0.0029834488 0.027969437 -0.0030340026 0.015953675
-0.011332226 0.005090133 0.024270859 0.0023251309 -0.0019903362 -0.0040782173 -0.0015150976 0.010448527
-0.00652693 0.012338531 -0.007883165 -0.010011143 0.019363873 -0.015668036 0.006355743 -0.0119073335
0.014325001 0.009122134 0.023199875 0.0023167531 -0.010097922 0.013734795 -0.009720631 -0.0038009398
0.00674493 -0.0009265377 0.013308081 0.009472767 -0.012285427 -0.0067691808 0.016236246 0.018116457
-0.007965038 -0.015017349 -0.0019080368 -0.0020451879 -0.0006918275 -0.004328617 -0.0020458333 -0.006820929
0.00397525 -0.0072909314 -0.0039013787 0.00445834 0.016275097 -0.0069911424 0.0056659994 -0.0057362476
-0.00038745636 -0.00941183 -0.0060945316 0.004537939 0.014333985 0.0058771553 0.007160426 -0.01313332
0.007944213 -0.009467087 0.021004776 0.014658262 0.0127646895 0.00052951736 0.004092616 0.014202171
-0.0060209185 0.006188779 -0.002433901 -0.009944434 -0.010878572 -0.004356201 0.0011181957 -0.006191899
-0.0053510014 0.006693665 0.009669141 -0.011405933 0.011170184 0.003937628 0.013065491 0.008739767
-0.013050068 -0.0108075505 -0.015919778 0.0073441816 0.0039026781 0.011847124 -0.0031207283 -0.015400715
-0.0020478698 -0.005183807 -0.011817473 0.0009867419 -0.014008786 -0.009872299 -0.004957459 0.013394281
0.022396524 0.0011839557 0.0030037242 0.0063874996 -0.011550614 0.0019975142 0.012491342 -0.013643205
00000000: e7c6 ed3a 992e 193b a9fc 9a3c 66be 94bc
00000010: b8db a3bb dac7 cfba f538 a43c 71ee 023d
00000020: 4242 55bc 612d 84bb 10f2 edbb ad06 783c
00000030: 0347 293c 8055 dabb 6092 83bb d600 6d3c
00000040: d8df d4bb 0de7 34bc 913a 23bb d2fa fe3c
00000050: f785 433b 2920 e53c 1ed6 46bb 48b1 823c
00000060: cdaa 39bc 21cb a63b aed3 c63c 3961 183b
00000070: 4d70 02bb 91a2 85bb 3d96 c6ba 4c30 2b3c
00000080: dbdf d5bb 8d27 4a3c 6428 01bc c705 24bc
00000090: fca0 9e3c 415a 80bc d643 d03b fa16 43bc
000000a0: 69b3 6a3c 0175 153c aa0d be3c abd4 173b
000000b0: c171 25bc e807 613c 4843 1fbc 3019 79bb
000000c0: 9304 dd3b e4e2 72ba 230a 5a3c aa33 1b3c
000000d0: d148 49bc 01d0 ddbb e001 853c f768 943c
000000e0: ca7f 02bc 540b 76bc 1717 faba 8f08 06bb
000000f0: c25b 35ba 12d7 8dbb 6313 06bb 1982 dfbb
00000100: d042 823b c4e8 eebb 46ae 7fbb 4417 923b
00000110: 5a53 853c f415 e5bb d9a9 b93b 22f7 bbbb
00000120: 8323 cbb9 1434 1abc a3b4 c7bb feb2 943b
00000130: 17d9 6a3c 2795 c03b 02a2 ea3b 232d 57bc
00000140: 7228 023c d71b 1bbc 3512 ac3c 3529 703c
00000150: fd22 513c 4fcf 0a3a 5a1b 863b 39b0 683c
00000160: 204b c5bb 3ecb ca3b 1582 1fbb fbed 22bc
00000170: 0a3c 32bc 76be 8ebb 6c90 923a 6ae5 cabb
00000180: 7457 afbb 8856 db3b 516b 1e3c f3df 3abc
00000190: 2603 373c 3807 813b a410 563c 3d31 0f3c
000001a0: f4cf 55bc 2712 31bc 326a 82bc 76a7 f03b
000001b0: 13c4 7f3b 711a 423c 2285 4cbb 4853 7cbc
000001c0: 8e35 06bb eddc a9bb 139e 41bc 9055 813a
000001d0: 1b85 65bc 6cbf 21bc 2e72 a2bb b073 5b3c
000001e0: ea78 b73c f62e 9b3a 21da 443b 3b4e d13b
000001f0: c93e 3dbc bae8 023b 7ca8 4c3c c087 5fbc

action_model._continuous_distribution.log_sigma f4 [1, 2]
0.009353868 -0.043299828
00000000: f740 193c 295b 31bd

action_model._continuous_distribution.mu.weight f4 [2, 128]
-0.0018541147 0.018147035 -0.014148111 -0.0065614404 -0.0239977 -0.0026777266 0.044149194 -0.07101425
-0.026727472 -0.012614249 0.011790312 0.011360805 -0.0146279 -0.035539027 -0.0018510759 -0.030845946
-0.014346277 -0.030704604 -0.0048290254 0.043383352 -0.013322043 -0.047250014 0.008134428 -0.042252194
0.0032340987 -0.012269025 0.0642734 -0.035170034 -0.046338443 -0.009523137 -0.02970534 0.013911705
0.009195079 0.026527533 -0.0142418705 -0.0023163524 -0.0030570135 -0.020365233 -0.026998255 -0.022002064
0.01348362 0.016035482 0.04116086 0.013892298 -0.019475756 0.033262465 -0.02981295 -0.031850774
-0.015786065 -0.0024406745 -0.03502943 -0.005654252 -0.010799392 0.003600052 0.053318135 0.042824075
-0.013675221 -0.01339059 0.0018049193 0.004802335 -0.0070384284 -0.049464695 -0.033360165 0.0016361194
-0.01644022 -0.02251391 -0.01855102 0.010814479 0.034447454 -0.009699887 0.009314503 -0.011389241
-0.017306535 -0.01809856 0.0048937965 -0.0132802045 0.05519673 -0.016194247 0.031531055 -0.00306417
-0.03823436 0.03593446 0.06549428 0.031307433 0.010685886 -0.023497438 0.0046134396 0.020598922
0.0002660894 0.01208324 -0.004177308 0.0023098998 -0.02048067 -0.024633363 0.0073116156 -0.03283875
-0.006937444 0.007024755 0.048246183 -0.006503754 -0.036936745 0.03248793 -0.0005862189 -0.0033856344
-0.039976552 -0.028225772 -0.05228362 -0.026570719 -0.006331795 0.05796658 -0.007255943 0.001218964
-0.016329797 0.014774123 0.0024218212 -0.0405407 -0.02421255 -0.009169835 -0.015603722 -0.022953536
-0.04616222 -0.03549885 -0.023389773 0.032416437 -0.018225105 -0.0061297934 0.013763854 0.01775201
-0.01634195 0.003987001 0.024394535 0.02264675 -0.0063202507 -0.011871375 0.028036831 -0.02515598
0.053356428 0.023002986 0.017420772 -0.03224967 0.019414088 0.0021414843 -0.008176628 0.040673003
0.00052827114 -0.01768065 -0.0074484684 -0.059939403 -0.023551617 0.016244655 0.013167781 0.029938923
0.02623306 0.023340479 -0.017967947 -0.019489633 0.029180123 0.02991148 -0.029689422 -0.017858647
0.017844815 0.015921086 -4.18945e-05 0.04018731 -0.044679586 0.024794096 0.0076569025 0.019102346
-0.04060047 -0.021896128 -0.005244067 0.003611952 0.028727999 -0.0067925244 0.004321646 -0.00044318684
0.04724156 -0.016877592 0.044853844 -0.020340804 0.021651078 0.0036678559 0.0013610388 -0.018979639
-0.001724926 0.028426284 -0.0033899297 0.009567411 0.028952604 -0.010658911 0.0010075866 0.0063557043
-0.005397093 0.0016964092 -0.010778864 -0.002445801 -0.028991295 0.027528033 -0.029075738 -0.01662377
-0.00082684326 0.012263251 0.030014588 0.018376308 -0.01957588 -0.014679678 -0.012098026 0.011639415
-0.01896434 0.022529589 -0.040982783 -0.01428742 0.0038212955 0.06370332 -0.04516424 -0.01397436
0.008122796 0.0051889597 -0.0068233022 0.04306703 -0.012271985 0.01772068 0.010492699 -0.0043559945
-0.0036070126 -0.016545555 0.007161957 0.0017503105 0.031165868 0.016781334 -0.03854157 -0.021785626
0.006682591 -0.0013706412 0.016819613 -0.018546611 -0.02868218 -0.002008814 0.010592613 0.010788534
0.009652981 0.038251333 0.023815362 -0.01879264 -0.0033067164 0.021813812 0.011297756 0.018762255
0.03251466 0.02122359 -0.005262663 0.0096599115 0.0031608657 -0.037967645 -0.011255845 -0.0039927643
00000000: c405 f3ba 17a9 943c 7bcd 67bc 5a01 d7bb
00000010: d396 c4bc cc7c 2fbb c9d5 343d eb6f 91bd
00000020: 92f3 dabc ffab 4ebc 272c 413c ab22 3a3c
00000030: dca9 6fbc 5f91 11bd cd9f f2ba a3b0 fcbc
00000040: a60c 6bbc 3988 fbbc cd3c 9ebb beb2 313d
00000050: b344 5abc 3b89 41bd 4446 053c a310 2dbd
00000060: 2cf3 533b 0504 49bc c6a1 833d 740e 10bd
00000070: 61cd 3dbd ee06 1cbc 9d58 f3bc eced 633c
00000080: f5a6 163c 4550 d93c bc56 69bc f2cd 17bb
00000090: 2d58 48bb fdd4 a6bc 722b ddbc ac3d b4bc
000000a0: 67ea 5c3c d85c 833c 4a98 283d 859c 633c
000000b0: 9f8b 9fbc 393e 083d 4a3a f4bc f575 02bd
000000c0: c751 81bc b9f3 1fbb 057b 0fbd 4e47 b9bb
000000d0: efef 30bc daee 6b3b 1e64 5a3d 4c68 2f3d
000000e0: 090e 60bc 3564 5bbc 0b93 ec3a e85c 9d3b
000000f0: 9ea2 e6bb 7e9b 4abd aba4 08bd 0f73 d63a
00000100: a4ad 86bc 176f b8bc 4ff8 97bc 362f 313c
00000110: c618 0d3d 46ec 1ebc db9b 183c f099 3abc
00000120: 6fc6 8dbc 6e43 94bc 245c a03b 3795 59bc
00000130: f715 623d cca9 84bc b526 013d 3ed0 48bb
00000140: a29b 1cbd 0330 133d dd21 863d 393c 003d
00000150: db13 2f3c b37d c0bc 562c 973b 12bf a83c
00000160: ea81 8b39 c8f8 453c cde1 88bb b061 173b
00000170: 14c7 a7bc e8cb c9bc 4796 ef3b ed81 06bd
00000180: 8053 e3bb ea2f e63b ca9d 453d 711d d5bb
00000190: fc4a 17bd 1012 053d 7cac 19ba 85e1 5dbb
000001a0: 74be 23bd bc39 e7bc 5927 56bd d6aa d9bc
000001b0: f27a cfbb 5d6e 6d3d 43c3 edbb a5c5 9f3a
000001c0: 11c6 85bc 2a0f 723c 6bb7 1e3b 010e 26bd
000001d0: 6659 c6bc 133d 16bc c1a6 7fbc 0e09 bcbc
000001e0: 9914 3dbd 3e67 11bd e99b bfbc 19c7 043d
000001f0: d14c 95bc 6fdc c8bb ca81 613c aa6c 913c
00000200: 8edf 85bc 63a5 823b 0cd7 c73c ad85 b93c
00000210: 1b1a cfbb 2880 42bc 7fad e53c ea13 cebc
00000220: 458c 5a3d c270 bc3c 02b6 8e3c 3b18 04bd
00000230: 4b0a 9f3c 2558 0c3b 43f7 05bc bc98 263d
00000240: ad7b 0a3a 03d7 90bc 4812 f4bb 0583 75bd
00000250: 52ef c0bc 8313 853c adbd 573c 7942 f53c
00000260: b7e6 d63c 8834 bf3c 8431 93bc b9a8 9fbc
00000270: 270b ef3c ec08 f53c 3b37 f3bc 4c4c 92bc
00000280: 4a2f 923c f06c 823c e0b7 2fb8 739b 243d
00000290: f101 37bd fd1c cb3c c1e6 fa3b 867c 9c3c
000002a0: ae4c 26bd 825f b3bc 6cd6 abbb 80b6 6c3b
000002b0: fb56 eb3c d393 debb 989c 8d3b 885b e8b9
000002c0: 5e80 413d e042 8abc aab8 373d c2a1 a6bc
000002d0: 9a5d b13c 6960 703b e264 b23a 307b 9bbc
000002e0: ea16 e2ba 3dde e83c 9529 5ebb a1c0 1c3c
000002f0: 032e ed3c b7a2 2ebc ff10 843a 8343 d03b
00000300: 19da b0bb 0c5a de3a d599 30bc bb49 20bb
00000310: 277f edbc 7882 e13c 3e30 eebc 932e 88bc
00000320: 83c0 58ba cdeb 483c 27e1 f53c e989 963c
00000330: 995d a0bc 0883 70bc cd36 46bc 3fb3 3e3c
00000340: 1b5b 9bbc f98f b83c 90dd 27bd c815 6abc
00000350: b36e 7a3b e376 823d 23fe 38bd b7f4 64bc
00000360: 7a15 053c 2608 aa3b 0296 dfbb 0e67 303d
00000370: 7010 49bc f62a 913c 92e9 2b3c bbbc 8ebb
00000380: a163 6cbb 8b8a 87bc daae ea3b ad6a e53a
00000390: 904f ff3c 0279 893c c4dd 1dbd c577 b2bc
000003a0: a3f9 da3b 16a7 b3ba 49c9 893c 10ef 97bc
000003b0: e4f6 eabc 4ea6 03bb a48c 2d3c 64c2 303c
000003c0: 8927 1e3c 6ead 1c3d 6f18 c33c 06f3 99bc
000003d0: 7fb5 58bb e1b2 b23c 391a 393c 4db3 993c
000003e0: 182e 053d 18dd ad3c 6b72 acbb 9b44 1e3c
000003f0: 8726 4f3b f683 1bbd 706a 38bc bcd5 82bb

action_model._continuous_distribution.mu.bias f4 [2]
0.012165201 -0.009517818
00000000: 8d50 473c 9ff0 1bbc

action_model._discrete_distribution.branches.0.weight f4 [2, 128]
0.016365571 0.0013214991 0.0071215853 -0.0013952362 0.012057621 0.012988736 -0.016281875 0.0010012703
-0.020049473 0.0023527131 0.008792591 -0.0017699982 0.0080111455 -0.004554365 0.009190653 0.006937437
0.014374003 -0.0037322543 0.014387937 -0.023882736 -0.007949036 -0.014096534 -0.031212451 -0.0002538732
-0.0055350815 -0.00026014293 0.0015234225 -0.019461013 -0.004655168 -0.009633306 0.011508843 0.0058658845
-0.01111027 -0.011993018 -0.0060843187 -0.0020715413 -0.0062861224 -0.012664485 -0.0027368576 0.009307001
0.008038475 0.0018781968 0.018436592 0.0052068066 0.008684863 0.0007258092 0.000881044 -0.0073710554
-0.02062974 0.021484125 0.0056072273 -0.014462034 -0.0023336783 -0.0023082795 -0.00838051 0.021481508
-0.012373728 0.008923342 0.01684928 -0.006179192 -0.013002184 0.010045097 -0.015914064 0.00220045
-0.003420114 0.0062150746 -0.00034779217 -0.010221357 0.018822782 0.0012004646 -0.0014560266 -0.02326648
0.0041491 -0.011545109 0.01975994 0.0028304781 -0.009525348 -0.02989573 0.013209823 0.007080758
-0.026149932 -0.0022475668 0.0012832321 -0.0062316586 0.008816919 0.018454555 0.011986247 0.023312401
-0.019340187 0.0040282165 0.012293552 -0.0073379427 -0.0044909585 0.005588851 -0.011292492 -0.0024728756
0.016408734 0.0014372587 0.01229681 -0.0010138586 -0.012541739 -0.0066606603 -0.023628024 0.0012690885
0.0025388268 0.03659356 0.00059349183 0.0038744356 -0.006289678 -0.004333803 0.005302291 0.011484711
0.02155742 -0.0019957027 0.0005656998 -0.0020725657 0.00054325565 0.002436141 0.0037924265 -0.0022105256
-0.008251537 -0.01661358 -0.008540391 -0.018972622 -0.0055790306 -0.008110123 0.00011000741 0.0045435643
-0.012900219 -0.0027987042 -0.00771597 -0.0013183659 -9.285744e-05 0.008567414 0.0094255395 -0.009517233
0.0057252846 0.0018169321 -0.005733256 -0.020356465 0.0056816605 0.0063788705 -0.003016415 0.0055026226
-0.013989896 -0.0291395 0.005499701 0.008244324 0.016184704 0.012342187 0.013496712 -0.0061248
-0.0066423737 -0.012197791 -0.016528718 0.0025291946 0.008382908 -0.0020385026 -0.0089852745 -0.0041451114
0.0031444114 -0.0035057364 0.006653393 -0.010124856 0.009002183 0.008804933 0.005439682 -0.020478224
0.031834412 -8.674545e-05 -0.01841982 0.0076911086 0.0044648885 0.00547176 -0.020560324 0.010077244
0.013112304 -0.016314162 -0.008807396 0.02152093 -0.010092309 0.0043746806 -0.0019392285 -0.014337465
0.007617495 -0.012796076 0.0037827615 0.011102029 -0.0031010562 -0.0033685793 0.0060485713 0.009849104
0.0082771145 0.001968623 -0.023796849 0.0115914615 -0.018675376 0.022747425 -0.004261363 -0.008425224
-0.011689168 0.014421245 -0.0068488307 -0.015862767 0.004225672 0.027935073 -0.0047520897 -0.007885647
0.008737516 0.0020502347 0.013843252 -0.0027318832 -0.0041038212 -0.016878402 -0.016312996 -0.01829216
0.020337004 0.009931867 -0.005204068 0.012127374 -0.001935202 0.0012815746 0.0073998687 -0.0134045435
-0.028452804 0.01595552 0.009031698 0.007748414 0.0030813217 0.002464519 0.0169402 0.006656474
0.0062968107 -0.008430125 0.011366396 0.0038021551 0.0019449396 0.006454437 0.002844535 0.003350749
-0.029374389 0.0035673697 0.0020475865 0.011253313 -0.014910462 -0.018002851 -0.014329611 0.0020946371
0.007855647 -0.00983835 0.017253859 0.0103395395 0.00026201192 0.013020585 0.0037207715 -0.009121364
00000000: 1711 863c 2736 ad3a 305c e93b 5ce0 b6ba
00000010: 548d 453c b5ce 543c 9161 85bc 0e3d 833a
00000020: cb3e a4bc fa2f 1a3b cd0e 103c 49ff e7ba
00000030: 2e41 033c c83c 95bb 6594 163c 7153 e33b
00000040: f080 6b3c d698 74bb 62bb 6b3c baa5 c3bc
00000050: ac3c 02bc 26f5 66bc 41b1 ffbc 491a 85b9
00000060: a15f b5bb cb63 88b9 94ad c73a b46c 9fbc
00000070: 618a 98bb 04d5 1dbc 968f 3c3c 9b36 c03b
00000080: da07 36bc 5d7e 44bc f75e c7bb b2c2 07bb
00000090: d1fb cdbb b37e 4fbc da5c 33bb 647c 183c
000000a0: cfb3 033c d42d f63a 5608 973c dc9d aa3b
000000b0: f54a 0e3c 3b44 3e3a ddf5 663a e588 f1bb
000000c0: b3ff a8bc 7aff af3c d5bc b73b 2bf2 6cbc
000000d0: a0f0 18bb 8146 17bb 684e 09bc fdf9 af3c
000000e0: 2dbb 4abc 3633 123c 8007 8a3c d27a cabb
000000f0: 1d07 55bc 3194 243c 365e 82bc 6d35 103b
00000100: fe23 60bb d3a7 cb3b e057 b6b9 7b77 27bc
00000110: 3c32 9a3c e858 9d3a 25d8 beba 5899 bebc
00000120: 2cf5 873b b227 3dbc 99df a13c 8b7f 393b
00000130: 3510 1cbc e4e7 f4bc 036e 583c b405 e83b
00000140: 6238 d6bc ea4b 13bb 2032 a83a f132 ccbb
00000150: d774 103c 022e 973c f761 443c a6f9 be3c
00000160: 506f 9ebc 21ff 833b e56a 493c 2073 f0bb
00000170: e428 93bb ae22 b73b 2504 39bc f80f 22bb
00000180: 9c6b 863c 6662 bc3a 8f78 493c 73e3 84ba
00000190: de7b 4dbc ab41 dabb 8f8f c1bc 8b57 a63a
000001a0: 7262 263b 21e3 153d 9094 1b3a 3eea 7d3b
000001b0: a519 cebb 9302 8ebb d7be ad3b 5f2a 3c3c
000001c0: 3099 b03c 56ca 02bb 794b 143a e2d3 07bb
000001d0: 4569 0e3a aaa7 1f3b 5c8a 783b 77de 10bb
000001e0: 7431 07bc 3419 88bc ffec 0bbc 796c 9bbc
000001f0: 4dd0 b6bb 52e0 04bc c7b3 e638 2ee2 943b
00000200: 715b 53bc 776a 37bb 3fd6 fcbb 05cd acba
00000210: 75bc c2b8 575e 0c3c 946d 1a3c 2bee 1bbc
00000220: 2b9b bb3b 2026 ee3a 0ade bbbb 9ac2 a6bc
00000230: 392d ba3b d805 d13b 0caf 45bb 584f b43b
00000240: e035 65bc f6b5 eebc d636 b43b 3313 073c
00000250: c995 843c e236 4a3c 5021 5d3c 8cb2 c8bb
00000260: 45a8 d9bb 3ed9 47bc 3c67 87bc d8c0 253b
00000270: 7758 093c 6698 05bb f936 13bc b7d3 87bb
00000280: 7812 4e3b 7fc0 65bb b504 da3b b9e2 25bc
00000290: e47d 133c 9142 103c 5c3f b23b f3c1 a7bc
000002a0: cd64 023d 1ceb b5b8 2ae5 96bc b205 fc3b
000002b0: 334e 923b 734c b33b 206e a8bc 061b 253c
000002c0: fdd4 563c 47a5 85bc e54c 10bc a94c b03c
000002d0: 365a 25bc 7b59 8f3b b62d feba b0e7 6abc
000002e0: 2e9c f93b a2a6 51bc 35e8 773b 49e5 353c
000002f0: 173b 4bbb 62c3 5cbb 1833 c63b 235e 213c
00000300: bc9c 073c 0304 013b 9cf1 c2bc 1dea 3d3c
00000310: 1afd 98bc cf58 ba3c e7a2 8bbb f309 0abc
00000320: ed83 3fbc 1647 6c3c 286c e0bb a2f2 81bc
00000330: 8277 8a3b 18d8 e43c 6bb7 9bbb cd32 01bc
00000340: cc27 0f3c 3b5d 063b cfce 623c 6509 33bb
00000350: 5979 86bb 9344 8abc d5a2 85bc 71d9 95bc
00000360: ca99 a63c 45b9 223c e386 aabb e5b1 463c
00000370: 9ba6 fdba 82fa a73a 997a f23b bb9e 5bbc
00000380: db15 e9bc 27b5 823c b0f9 133c 68e6 fd3b
00000390: 00f0 493b c583 213b 2dc6 8a3c 8d1e da3b
000003a0: 7a55 ce3b 821e 0abc 1f3a 3a3c 942d 793b
000003b0: 58ed fe3a be7f d33b 616b 3a3b 3d98 5b3b
000003c0: 8fa2 f0bc 88ca 693b cd30 063b d15f 383c
000003d0: 034b 74bc b77a 93bc bfc6 6abc 2e46 093b
000003e0: f9b4 003c 0831 21bc f757 8d3c 2c67 293c
000003f0: a55e 8939 4b54 553c 30d8 733b c671 15bc

action_model._discrete_distribution.branches.0.bias f4 [2]
-0.0027772065 0.0027772055
00000000: cb01 36bb c701 363b

exp_avg f4 [128, 7]
0.0010179613 0.00025447202 -0.0001732394 0.0016257135 0.0 -3.0167335e-05 1.2169801e-05 -7.741429e-08
-6.1247766e-07 -4.366824e-06 -3.0638137e-05 0.0 -1.128044e-06 -2.3782598e-06 -2.7463671e-05 -1.0927919e-05
-8.526431e-08 -4.4680884e-05 0.0 5.4698324e-07 -3.5410739e-07 -6.678501e-05 -1.7037759e-05 1.9496556e-05
-8.7822795e-05 0.0 1.1388535e-06 3.197297e-06 -1.4465429e-06 -1.2848313e-06 2.2662482e-06 -1.9679765e-05
0.0 -6.7984354e-07 -1.6992886e-06 2.227189e-05 -4.045167e-06 2.6228058e-06 1.456582e-05 0.0
5.080551e-06 6.9645307e-07 0.00015381584 4.5266177e-05 -1.581168e-05 0.000101351725 0.0 7.750039e-05
5.8243877e-06 6.0867283e-06 -1.8825318e-05 1.9117659e-05 -0.00010020041 0.0 3.335813e-06 -1.3280796e-06
-0.00021473538 -0.00017028653 0.00010532025 -0.00044447684 0.0 4.1033396e-05 1.2755607e-05 0.000825512
0.00015653946 -4.6502668e-05 0.0012067423 0.0 2.2531685e-05 2.0010493e-05 -0.002193872 -0.0002940771
0.00037710118 -0.0033312684 0.0 4.8955615e-05 -4.7457623e-05 -1.3118285e-05 -2.6958924e-06 3.5504992e-05
-2.4645093e-05 0.0 1.2836645e-05 5.1030243e-06 -6.128773e-05 -3.7519632e-05 -1.9725705e-06 -0.00017935458
0.0 2.883136e-05 5.4843354e-06 -0.00012714029 -2.8323982e-05 1.3516517e-05 -0.00020774062 0.0
6.5274253e-06 -7.7553705e-07 -0.0026142388 -0.00054095546 0.0001714114 -0.003828841 0.0 4.9301754e-05
-3.887416e-05 0.0012152692 0.0003290988 -6.047965e-05 0.0021956284 0.0 -4.9588638e-05 3.468819e-05
-1.9256274e-06 -8.724456e-06 -2.3268406e-06 -3.2114614e-05 0.0 3.8092253e-06 -2.4469593e-06 0.0015380732
0.00018115841 -0.00030093928 0.0021481363 0.0 -1.7026288e-05 8.0506325e-06 0.00015207347 -7.943989e-05
2.439554e-05 3.3098753e-05 0.0 5.638845e-06 5.2582777e-06 -0.00023664813 -7.788422e-06 3.8979433e-05
-0.0002924799 0.0 -3.595185e-07 2.0108466e-06 3.048474e-06 -4.4897924e-06 2.0100335e-06 -1.066019e-05
0.0 2.161555e-06 -6.0884986e-07 0.0006054672 8.726747e-05 -0.000105160696 0.0008172886 0.0
-2.8449884e-05 -6.838989e-06 0.0021488864 0.0003939664 -0.0002319807 0.0033273299 0.0 -7.124464e-05
3.212695e-05 7.156305e-05 -1.0740407e-05 4.629876e-06 -1.6893455e-06 0.0 1.9998024e-05 -1.2223583e-06
0.0019870542 0.00037654658 -0.00023960756 0.0029253417 0.0 -6.732854e-05 3.8371672e-06 0.00036471462
0.00015477653 -5.745711e-06 0.0007560616 0.0 -6.7804335e-06 5.3326594e-06 4.002645e-05 2.5393427e-05
-4.194975e-05 0.00026166768 0.0 3.169518e-05 1.5223909e-05 2.348662e-06 1.6714489e-07 -1.4119925e-06
2.7304427e-06 0.0 9.557597e-07 -1.2544123e-07 0.0011377881 0.00020320297 -0.00017783554 0.001781003
0.0 -6.9429174e-05 9.089734e-06 0.0015055016 0.0003646441 -9.443533e-05 0.0023383298 0.0
-3.184198e-05 1.4507481e-05 -0.0015395926 -0.00018744508 0.0002754152 -0.002134927 0.0 7.194771e-05
-1.9017305e-05 2.3695839e-05 -4.0906627e-05 -7.73716e-06 -0.00060948246 0.0 4.87295e-07 -4.0695126e-05
-4.6208534e-05 -4.441342e-05 -1.5676973e-05 -0.00061452866 0.0 -9.46744e-06 -4.5744837e-05 -7.104595e-05
-8.8326215e-06 -8.594515e-06 -7.095259e-05 0.0 -7.5323946e-06 2.3700935e-07 -0.0003540727 -0.0001046104
0.00010085155 -0.0011874802 0.0 5.1220115e-05 -1.4343963e-05 -2.97103e-05 -1.0125923e-05 2.7381147e-06
-8.228035e-05 0.0 3.5725238e-06 -3.5912115e-06 0.00050356786 5.2932173e-05 -6.525582e-05 0.0006857273
00000000: 1d6d 853a a86a 8539 99a7 35b9 e515 d53a
00000010: 0000 0000 dc0f fdb7 e62c 4c37 f53e a6b3
00000020: 2569 24b5 bc86 92b6 7381 00b8 0000 0000
00000030: 4c67 97b5 319a 1fb6 c961 e6b7 0e57 37b7
00000040: 8d1a b7b3 bc67 3bb8 0000 0000 67d4 1235
00000050: 261c beb4 ee0e 8cb8 4fec 8eb7 898c a337
00000060: 812d b8b8 0000 0000 b5da 9835 2591 5636
00000070: d626 c2b5 7872 acb5 d915 1836 f915 a5b7
00000080: 0000 0000 7e7e 36b5 1d13 e4b5 85d4 ba37
00000090: b8bb 87b6 7603 3036 b85f 7437 0000 0000
000000a0: 9a79 aa36 e4f3 3a35 a049 2139 30dc 3d38
000000b0: 53a3 84b7 cb8c d438 0000 0000 b487 a238
000000c0: 1c6f c336 993c cc36 10eb 9db7 dc5e a037
000000d0: af22 d2b8 0000 0000 d5dc 5f36 7840 b2b5
000000e0: 972a 61b9 f18e 32b9 61df dc38 ac08 e9b9
000000f0: 0000 0000 461b 2c38 ea00 5637 2c67 583a
00000100: be24 2439 dc0b 43b8 8d2b 9e3a 0000 0000
00000110: 6d02 bd37 35dc a737 10c7 0fbb 5c2e 9ab9
00000120: aab5 c539 6951 5abb 0000 0000 b155 4d38
00000130: 3c0d 47b8 9b16 5cb7 14eb 34b6 32eb 1438
00000140: efbc ceb7 0000 0000 f85c 5737 a53a ab36
00000150: 9987 80b8 665e 1db8 8160 04b6 2111 3cb9
00000160: 0000 0000 e0da f137 1506 b836 f650 05b9
00000170: 4a99 edb7 00c5 6237 f3d4 59b9 0000 0000
00000180: 2806 db36 802e 50b5 a653 2bbb e8ce 0dba
00000190: e6bc 3339 4bed 7abb 0000 0000 5bc9 4e38
000001a0: d00c 23b8 ab49 9f3a e58a ac39 88ab 7db8
000001b0: 88e4 0f3b 0000 0000 65fd 4fb8 297e 1138
000001c0: 073a 01b6 415f 12b7 d126 1cb6 ceb2 06b8
000001d0: 0000 0000 fea1 7f36 7136 24b6 2c99 c93a
000001e0: 57f5 3d39 63c7 9db9 bfc7 0c3b 0000 0000
000001f0: add3 8eb7 3411 0737 e975 1f39 f798 a6b8
00000200: 06a5 cc37 84d3 0a38 0000 0000 4f35 bd36
00000210: 4370 b036 c024 78b9 05ab 02b7 d97d 2338
00000220: fd57 99b9 0000 0000 d903 c1b4 15f2 0636
00000230: 6294 4c36 06a7 96b6 1de4 0636 2bd9 32b7
00000240: 0000 0000 3b0f 1136 d86f 23b5 37b8 1e3a
00000250: 5e03 b738 b889 dcb8 4f3f 563a 0000 0000
00000260: a9a7 eeb7 787a e5b6 55d4 0c3b 468d ce39
00000270: d83f 73b9 550f 5a3b 0000 0000 2d69 95b8
00000280: 0dc0 0638 1f14 9638 b231 34b7 555a 9b36
00000290: 78bd e2b5 0000 0000 6ec1 a737 e90f a4b5
000002a0: 3d39 023b 3a6b c539 2a3f 7bb9 17b7 3f3b
000002b0: 0000 0000 bc32 8db8 04c1 8036 2b37 bf39
000002c0: 824b 2239 48cb c0b6 6f32 463a 0000 0000
000002d0: 7b83 e3b6 32ef b236 13e2 2738 f803 d537
000002e0: 33f3 2fb8 7130 8939 0000 0000 71f0 0438
000002f0: 316a 7f37 b59d 1d36 7078 3334 b183 bdb5
00000300: a63c 3736 0000 0000 a747 8035 06b1 06b4
00000310: d521 953a e212 5539 5d79 3ab9 8b70 e93a
00000320: 0000 0000 819a 91b8 1c80 1837 4054 c53a
00000330: b42d bf39 950b c6b8 aa3e 193b 0000 0000
00000340: 118e 05b8 2865 7337 28cc c9ba e88c 44b9
00000350: 9a65 9039 22ea 0bbb 0000 0000 a2e2 9638
00000360: 5a87 9fb7 6dc6 c637 2893 2bb8 d9ce 01b7
00000370: adc5 1fba 0000 0000 a8ce 0235 0fb0 2ab8
00000380: 09d0 41b8 8c48 3ab8 0b82 83b7 5218 21ba
00000390: 0000 0000 58d6 1eb7 25de 3fb8 81fe 94b8
000003a0: d22f 14b7 2931 10b7 62cc 94b8 0000 0000
000003b0: c7be fcb6 a27c 7e34 d5a2 b9b9 4862 dbb8
000003c0: 4380 d338 39a5 9bba 0000 0000 2ed5 5638
000003d0: daa6 70b7 623a f9b7 82e2 29b7 74c0 3736
000003e0: ed8d acb8 0000 0000 7ebf 6f36 8b00 71b6
000003f0: de01 043a 7d03 5e38 f4d9 88b8 61c2 333a

exp_avg_sq f4 [128, 7]
4.3459117e-06 3.2480796e-07 1.7090231e-07 1.1172147e-05 0.0 1.9480775e-07 7.017276e-09 7.9668766e-10
4.670546e-10 1.8350722e-10 7.949556e-09 0.0 2.5261107e-10 9.287258e-12 1.0048697e-08 7.8102586e-10
4.254717e-10 2.2066489e-08 0.0 4.551021e-10 1.4994445e-11 1.5249498e-08 8.777962e-10 6.150809e-10
3.5883083e-08 0.0 6.9947786e-10 6.48947e-11 2.3173442e-10 4.041681e-11 3.2323807e-11 1.0234444e-09
0.0 3.138396e-11 2.8951988e-12 1.00624895e-08 9.782046e-10 4.1769002e-10 1.8186938e-08 0.0
5.0249516e-10 5.269217e-12 1.817632e-06 1.1207776e-07 8.293475e-08 3.401688e-06 0.0 6.75814e-08
2.2629985e-09 7.497889e-09 3.2031442e-09 1.8100854e-09 1.0276761e-07 0.0 2.239937e-09 1.5965684e-10
3.6887493e-06 1.8568512e-07 1.3115988e-07 6.2520826e-06 0.0 1.4231595e-07 5.610304e-09 1.5336921e-06
8.675457e-08 3.8272226e-08 2.8650588e-06 0.0 4.3674586e-08 1.1651959e-09 8.985684e-06 5.2100955e-07
2.851929e-07 2.0774754e-05 0.0 3.1001673e-07 1.43448e-08 2.5385248e-08 1.3591337e-08 9.269555e-09
4.7855673e-07 0.0 9.4886525e-09 3.515078e-10 2.0837759e-07 9.266946e-09 1.721664e-08 4.88465e-07
0.0 1.2986863e-08 1.6459051e-09 4.0703092e-08 2.9268201e-09 1.4971296e-09 1.0967233e-07 0.0
1.6804597e-09 5.3418023e-11 1.5502867e-05 9.209043e-07 4.782149e-07 3.7010042e-05 0.0 5.091453e-07
2.1441874e-08 5.6808635e-06 4.7473358e-07 2.0568862e-07 1.6060474e-05 0.0 2.338308e-07 7.1526034e-09
4.190892e-09 8.0227985e-10 4.5630036e-10 2.0874756e-08 0.0 5.3968324e-10 3.5519053e-11 9.233948e-06
4.7238453e-07 2.758334e-07 1.7084818e-05 0.0 2.762745e-07 1.0043175e-08 2.6344998e-07 2.768789e-08
2.3701965e-08 1.1070999e-06 0.0 3.5059468e-08 1.7141044e-09 5.533432e-07 3.9094346e-08 1.7781138e-08
1.0711157e-06 0.0 1.932378e-08 3.0496605e-10 3.6463432e-09 5.4363836e-10 2.5891914e-10 9.470485e-09
0.0 2.835828e-10 7.449033e-12 2.0363484e-06 1.2391185e-07 6.506794e-08 4.2377014e-06 0.0
6.5229976e-08 2.2524675e-09 7.2032267e-06 5.212058e-07 2.5674066e-07 1.8338385e-05 0.0 2.883647e-07
8.365699e-09 2.851021e-08 3.5584922e-09 7.683065e-09 1.5818334e-07 0.0 4.1698747e-09 3.1823022e-10
8.071904e-06 5.336653e-07 2.4244596e-07 1.7423179e-05 0.0 2.6577712e-07 3.5115582e-09 1.6132409e-06
1.0870019e-07 4.674139e-08 3.4935126e-06 0.0 5.83041e-08 1.8425653e-09 7.3933826e-08 9.23848e-09
9.705481e-09 3.0834218e-07 0.0 7.2099295e-09 3.1784897e-10 2.9061384e-10 2.2704377e-11 8.445305e-11
2.2567197e-09 0.0 5.465593e-11 1.3318124e-11 4.2821944e-06 4.0186342e-07 1.439041e-07 1.007789e-05
0.0 1.6728211e-07 2.882809e-10 7.70571e-06 4.5175113e-07 2.1459574e-07 1.7252105e-05 0.0
2.5014614e-07 5.8710152e-09 6.9256103e-06 3.984065e-07 2.209483e-07 1.4345893e-05 0.0 2.1190895e-07
8.244113e-09 9.2923656e-08 2.8066804e-08 1.501274e-08 1.1550843e-06 0.0 1.8455324e-08 2.0423674e-09
5.5390583e-08 1.9187675e-08 1.3069693e-08 9.69527e-07 0.0 1.514703e-08 1.8171968e-09 1.0326224e-08
5.4759836e-10 3.6781006e-10 1.8025458e-08 0.0 3.9639705e-10 1.2221192e-11 8.469205e-07 4.9972087e-08
6.3903855e-08 2.3574835e-06 0.0 5.1005074e-08 2.821427e-09 6.1834413e-09 8.3261614e-10 5.9921607e-10
2.7294007e-08 0.0 6.546128e-10 4.2947295e-11 9.928999e-07 7.622206e-08 4.067127e-08 2.4297622e-06
00000000: 19d3 9136 4461 ae34 4581 3734 0270 3b37
00000010: 0000 0000 592c 5134 9d1c f131 e9fd 5a30
00000020: 0c62 0030 b1c4 492f 8492 0832 0000 0000
00000030: d9df 8a2f 1762 232d a3a2 2c32 cfaf 5630
00000040: d2e7 e92f b98c bd32 0000 0000 ed31 fa2f
00000050: 7de4 832d 00fe 8232 6b49 7130 7812 2930
00000060: de1d 1a33 0000 0000 6145 4030 78b4 8e2e
00000070: 71cb 7e2f 48c1 312e 5f29 0e2e 40a9 8c30
00000080: 0000 0000 3307 0a2e 44bb 4b2c 4cdf 2c32
00000090: 8471 8630 a5a0 e52f 8039 9c32 0000 0000
000000a0: f41f 0a30 e364 b92c 5cf5 f335 66af f033
000000b0: dc19 b233 8e48 6436 0000 0000 4421 9133
000000c0: 1783 1b31 11d0 0032 4f1e 5c31 b8c6 f830
000000d0: 17b1 dc33 0000 0000 63ed 1931 688b 2f2f
000000e0: 3b8c 7736 bd60 4734 f4d4 0c34 fbc8 d136
000000f0: 0000 0000 83cf 1834 c2c4 c031 42d9 cd35
00000100: d44d ba33 c260 2433 5645 4036 0000 0000
00000110: b794 3b33 b024 a030 38c1 1637 81db 0b35
00000120: 9d1c 9934 7245 ae37 0000 0000 6070 a634
00000130: 1971 7632 c00e da32 557f 6932 ef3f 1f32
00000140: 2b76 0035 0000 0000 8903 2332 533e c12f
00000150: 65be 5f34 7634 1f32 cbe3 9332 0f1f 0335
00000160: 0000 0000 d41c 5f32 2336 e230 86d1 2e33
00000170: 2a21 4931 91c3 cd30 0085 eb33 0000 0000
00000180: ebf5 e630 59ef 6a2e 270c 8237 1034 7735
00000190: ad5e 0035 3b3b 1b38 0000 0000 33ac 0835
000001a0: 2e2f b832 3f9e be36 e3de fe34 42db 5c34
000001b0: 9bb9 8637 0000 0000 ec12 7b34 f7c2 f531
000001c0: 7aff 8f31 6d87 5c30 91da fa2f 1350 b332
000001d0: 0000 0000 d558 1430 e636 1c2e 81eb 1a37
000001e0: 099c fd34 4116 9434 5e51 8f37 0000 0000
000001f0: e152 9434 5a8a 2c32 4a70 8d34 50d6 ed32
00000200: 2c99 cb32 aa97 9435 0000 0000 4b94 1633
00000210: b095 eb30 7589 1435 b0e8 2733 23bd 9832
00000220: 41c3 8f35 0000 0000 71fd a532 28a8 a72f
00000230: 2693 7a31 266f 1530 a157 8e2f a2b3 2232
00000240: 0000 0000 bbe6 9b2f 760b 032d 33a8 0836
00000250: a10c 0534 7abb 8b33 9431 8e36 0000 0000
00000260: 8f14 8c33 d4c9 1a31 3fb3 f136 fde8 0b35
00000270: 2bd6 8934 62d5 9937 0000 0000 8bd0 9a34
00000280: bcb8 0f32 9de6 f432 a889 7431 7afe 0332
00000290: 1bd9 2934 0000 0000 9b46 8f31 ecf2 ae2f
000002a0: 906c 0737 3341 0f35 8529 8234 fe27 9237
000002b0: 0000 0000 21b0 8e34 fc4f 7131 8986 d835
000002c0: 906e e933 b4c0 4833 1772 6a36 0000 0000
000002d0: 096a 7a33 813d fd30 8dc5 9e33 44b7 1e32
000002e0: 28bd 2632 3a8a a534 0000 0000 36bb f731
000002f0: 44bd ae2f 43c4 9f2f b6b5 c72d d7b6 b92e
00000300: a214 1b31 0000 0000 1b61 702e 804b 6a2d
00000310: c5af 8f36 b0bf d734 0f84 1a34 3514 2937
00000320: 0000 0000 289e 3334 ee7b 9e2f c647 0137
00000330: 3488 f234 a16b 6634 9db8 9037 0000 0000
00000340: d34b 8634 ffb9 c931 8a62 e836 93e4 d534
00000350: ce3d 6d34 24af 7037 0000 0000 1789 6334
00000360: fea1 0d32 528d c733 8e17 f132 5df5 8032
00000370: 6508 9b35 0000 0000 b087 9e32 b559 0c31
00000380: 97e6 6d33 25d2 a432 1e89 6032 b220 8235
00000390: 0000 0000 ac1c 8232 eec0 f930 3767 3132
000003a0: cf85 1630 aa34 ca2f 67d6 9a32 0000 0000
000003b0: edeb d92f 5bff 562d ef57 6335 e4a0 5633
000003c0: 843b 8933 4235 1e36 0000 0000 ac10 5b33
000003d0: 12e3 4131 2076 d431 27de 6430 15b6 2430
000003e0: 2874 ea32 0000 0000 48f0 3330 5be2 3c2e
000003f0: c843 8535 85af a333 89ae 2e33 ff0e 2336

exp_avg f4 [128]
0.0001263634 -3.574328e-06 -3.5422163e-06 -5.892617e-06 -2.4103383e-06 2.9727007e-06 1.7880502e-05 -1.2302284e-05
-2.1465994e-05 0.000115346535 -0.0002827718 5.274819e-07 -7.0200063e-06 -1.892207e-05 -0.00033904327 0.00019735344
-2.8566487e-06 0.00018187753 1.2015674e-05 -2.8301301e-05 -7.0359977e-07 5.0853647e-05 0.00028766517 1.03524535e-07
0.00022963739 5.8243444e-05 2.9693345e-05 3.557891e-07 0.00013838864 0.00019412741 -0.00017796601 -6.788102e-05
-6.54518e-05 -8.340893e-06 -0.00010185244 -8.9260875e-06 6.5110704e-05 -2.5996871e-06 -0.00019592539 -2.541869e-06
1.9846768e-05 -0.0003826963 5.400626e-05 6.7083133e-06 1.4641038e-05 -1.2565684e-08 3.2807533e-05 -0.0001231917
1.17210675e-05 3.3038996e-05 0.00010526512 -1.2159857e-06 5.245571e-06 3.9828614e-05 -8.39785e-06 0.00017309935
-3.396611e-05 4.6082845e-05 -0.00030052318 -3.0426587e-05 -0.00035257655 4.133e-06 2.8339734e-06 9.196726e-05
3.7885022e-06 -1.971134e-05 9.59444e-07 5.3456853e-05 2.744344e-06 2.1068874e-05 0.00014457565 -1.5864783e-08
-0.00011249768 -0.000105212246 1.6195887e-05 -0.000111690286 -0.00016427394 -9.141487e-06 -9.586367e-05 7.692237e-06
-0.00014831763 -2.759565e-06 -4.711661e-06 -2.0968366e-05 7.1928334e-05 -4.0128216e-06 -0.00017358827 -5.366432e-06
6.254077e-07 -0.0002771541 -2.526702e-05 -1.7971497e-05 -5.502291e-06 -0.00035601106 5.3520525e-05 7.877797e-05
-2.9338533e-05 1.16099345e-05 -0.00011685458 2.002129e-05 2.4836769e-05 -3.7295544e-05 -1.6441859e-06 3.7322184e-06
-0.00013840108 -9.827777e-07 0.000106915235 -6.170798e-05 3.39188e-06 -4.7883477e-05 -0.0001225494 4.7819517e-06
5.1291023e-05 -0.000107560125 -2.4381286e-06 -5.8526607e-06 -2.2412301e-05 -7.4820055e-05 -9.963528e-05 1.171725e-05
-2.4374587e-05 -2.8309482e-06 2.9672474e-06 -5.2346222e-05 4.010765e-05 0.00019840397 -0.00010173586 -7.738808e-06
00000000: 6b80 0439 7dde 6fb6 d0b6 6db6 32b9 c5b6
00000010: 4cc1 21b6 9c7e 4736 16fe 9537 e865 4eb7
00000020: df11 b4b7 33e6 f138 fd40 94b9 4898 0d35
00000030: 658d ebb6 d6ba 9eb7 9ec1 b1b9 a9f0 4e39
00000040: dab4 3fb6 61b6 3e39 ed96 4937 9568 edb7
00000050: 02df 3cb5 b04b 5538 c4d1 9639 3751 de33
00000060: d1ca 7039 6c4a 7438 f915 f937 4803 bf34
00000070: 6b1c 1139 ae8e 4b39 639c 3ab9 585b 8eb8
00000080: 2b43 89b8 ddef 0bb7 9d99 d5b8 41c1 15b7
00000090: 0b8c 8838 4976 2eb6 5271 4db9 fa94 2ab6
000000a0: 9c7c a637 a1a4 c8b9 c884 6238 f917 e136
000000b0: c8a2 7537 76e0 57b2 d29a 0938 052d 01b9
000000c0: 9aa5 4437 5a93 0a38 c8c1 dc38 f334 a3b5
000000d0: 1d03 b036 a60d 2738 7ee4 0cb7 0182 3539
000000e0: d576 0eb8 1449 4138 8a8f 9db9 993c ffb7
000000f0: 06da b8b9 33ae 8a36 4b2f 3e36 8cde c038
00000100: f93d 7e36 c859 a5b7 3fc6 8035 dc36 6038
00000110: 792b 3836 10bd b037 3b99 1739 0747 88b2
00000120: bbec ebb8 65a5 dcb8 67dc 8737 443b eab8
00000130: f340 2cb9 635e 19b7 6a0a c9b8 e80d 0137
00000140: b685 1bb9 f730 39b6 dc18 9eb6 39e5 afb7
00000150: 3bd8 9638 e0a5 86b6 3f05 36b9 4d11 b4b6
00000160: b1e1 2735 fe4e 91b9 83f4 d3b7 7fc1 96b7
00000170: 52a0 b8b6 ffa6 bab9 3a7b 6038 9a35 a538
00000180: 051c f6b7 4ac8 4237 d30f f5b8 65f3 a737
00000190: 8e58 d037 c96d 1cb8 ccad dcb5 0677 7a36
000001a0: c21f 11b9 fce7 83b5 ae37 e038 3869 81b8
000001b0: 0ea0 6336 7ed6 48b8 9b80 00b9 a774 a036
000001c0: 5121 5738 e791 e1b8 bb9e 23b6 f961 c4b6
000001d0: 0d02 bcb7 b6e8 9cb8 49f3 d0b8 3595 4437
000001e0: 0778 ccb7 52fb 3db6 ec20 4736 548e 5bb8
000001f0: 4339 2838 a90a 5039 065b d5b8 edd5 01b7
