results/LavaTest/Lava/Lava-500009.pt (torch, 451049 bytes, 42 tensors)

network_body._body_endoder.seq_layers.0.weight f4 [128, 7]
0.59509724 0.26443204 -0.8301951 0.11907268 0.40231556 -0.06639431 0.018389435 -0.6573591
0.5331177 -0.12433783 -0.4943257 -0.35959053 0.014346663 -0.23910151 0.07401515 -0.10706019
0.04046773 -0.36107516 0.5202521 -0.27527028 0.34710458 0.038072478 -0.40892172 0.19995393
-0.18334591 0.24610975 -0.3971423 0.41572222 -0.20333624 -0.0017495962 -0.29097235 -0.43422577
-0.050874744 0.08606319 -0.4786596 0.018736884 0.77522737 -0.08412102 -0.54262465 -0.29709512
0.20185834 -0.33768368 -0.036891844 0.40326154 -1.195754 -0.035626933 0.35909805 -0.10793371
0.34297535 -0.5542321 0.31797358 -0.2628437 -0.08948752 0.091129206 -0.015316005 -0.06774054
0.16638744 -0.034410052 0.49731517 -0.14325619 -0.0943092 0.4628465 0.3082804 0.44832876
0.41603398 -0.05652355 -0.17885588 0.7353093 0.39090082 -0.060502656 0.25039646 -0.13993345
-0.50593954 0.10727393 0.10307941 0.14715262 0.56302094 -0.5443149 0.20094351 0.13856238
-0.027376985 0.3552451 0.3505444 -0.7706699 -0.024849385 -0.42620885 -0.5406944 -0.15567784
0.5443805 -0.15805463 0.27525288 -0.055734847 -0.06357558 -0.043489143 -0.20575528 -0.099185996
-0.05644492 0.10153082 -0.11172813 -0.27113524 -0.21257561 0.23935772 -0.51137114 -0.5457494
0.88756275 -0.21999887 0.39535952 -0.056190666 0.19272088 0.7008501 -0.51611626 -0.109376885
-0.2817967 -0.21372356 0.26563776 -0.35228118 -0.08462304 -0.42479286 0.005333671 0.1772146
-0.050242823 0.060585722 0.09489003 0.40330097 -0.60446596 0.41002673 -0.24895965 -0.32882532
0.15601432 0.018750211 -0.4477648 1.1174462 0.51770097 0.37887132 -0.10266922 -0.11031386
-0.023004476 0.66450965 -0.17132281 -0.23811224 -0.15290816 0.26505235 -0.24264629 -0.40655974
-1.0322267 -0.14239812 -0.29160085 0.30470487 -0.036198013 0.18214346 0.29889476 -0.88594216
-0.55284894 -0.35252464 0.36954474 0.4290932 -0.098636545 0.0749898 -0.018918842 -0.041233193
-0.46721616 -0.3037213 -0.34498903 -1.1597881 -0.1249544 -0.08351788 -0.23377995 -0.14119801
0.037529655 0.35456097 -0.06502926 0.072755724 0.8993975 -0.29400638 -0.7524844 0.07135159
-0.009781575 -0.3242556 0.4180272 -0.15629844 -0.31770277 -0.14075707 -0.159065 -0.020540278
-0.56906694 -0.029696057 0.15506813 0.3257046 -0.38536778 -0.73023313 -0.4676623 0.30861735
-0.28717357 -0.30710357 0.07380146 0.55793244 -0.04532457 0.59297055 0.1985211 -0.02319675
-0.080957524 -0.21001028 -0.49809158 0.05965671 0.04318824 0.07064987 0.020037271 -0.17725629
-0.067274995 -0.26251045 0.104538344 0.25462627 0.14946797 0.26891163 -0.1608875 0.9898319
0.35996428 -0.32157916 0.0062579922 -0.039943997 0.069968015 0.043568015 0.021208534 0.3459299
-0.5687504 -0.2227477 -0.004874673 0.1692752 -0.2591019 -0.17735164 0.19074671 0.042465664
0.09873459 0.3263772 -0.26716837 -0.18099774 0.21685089 -0.71368855 -0.122657716 -0.2825144
-0.6858274 0.021808596 0.4365112 -0.21507375 -0.0027648958 -0.2415708 -0.28884947 -0.3310432
-0.2470723 -0.48403713 -0.35903284 -0.17880899 0.573269 0.56407094 -0.12450692 -0.0049374634
00000000: 4b58 183f a363 873e ab87 54bf 61dc f33d
00000010: 4efc cd3e bdf9 87bd 71a5 963c b048 28bf
00000020: 677a 083f d5a4 febd 4218 fdbe 401c b8be
00000030: 440e 6b3c 07d7 74be 4195 973d 5f42 dbbd
00000040: 7ec1 253d d8de b8be 3e2f 053f 3af0 8cbe
00000050: b1b7 b13e e3f1 1b3d 305e d1be b9c0 4c3e
00000060: 08bf 3bbe 3204 7c3e 3c56 cbbe 8bd9 d43e
00000070: 6037 50be b552 e5ba 54fa 94be d752 debe
00000080: 0962 50bd e641 b03d df12 f5be 187e 993c
00000090: 4d75 463f a447 acbd 73e9 0abf da1c 98be
000000a0: f4b3 4e3e e0e4 acbe e71b 17bd 4c78 ce3e
000000b0: 780e 99bf 8ced 11bd b3db b73e 590c ddbd
000000c0: 779a af3e 28e2 0dbf 6fcd a23e 7393 86be
000000d0: 3c45 b7bd f3a1 ba3d fbef 7abc 8dbb 8abd
000000e0: 7861 2a3e 8ef1 0cbd 18a0 fe3e c0b1 12be
000000f0: 2f25 c1bd 37fa ec3e eed6 9d3e 598b e53e
00000100: 6802 d53e 3d85 67bd ff25 37be 3b3d 3c3f
00000110: 2724 c83e a2d1 77bd f733 803e b74a 0fbe
00000120: 4185 01bf 6fb2 db3d 4c1b d33d 2daf 163e
00000130: 2422 103f 3958 0bbf 23c4 4d3e 4ce3 0d3e
00000140: b345 e0bc b0e2 b53e 8e7a b33e 9f4a 45bf
00000150: f090 cbbc 0c38 dabe f36a 0abf 036a 1fbe
00000160: 855c 0b3f 13d9 21be f2ed 8c3e 394a 64bd
00000170: ea33 82bd ac21 32bd 83b1 52be 0722 cbbd
00000180: ca32 67bd 64ef cf3d b8d1 e4bd 3dd2 8abe
00000190: 6cad 59be 311a 753e 38e9 02bf 3cb6 0bbf
000001a0: 5037 633f 6247 61be 906c ca3e 2f28 66bd
000001b0: 9f58 453e ea6a 333f 3220 04bf fd00 e0bd
000001c0: a847 90be 59da 5abe ac01 883e 335e b4be
000001d0: d84e adbd 737e d9be 13c6 ae3b be77 353e
000001e0: 6bcb 4dbd bc28 783d b455 c23d 777d ce3e
000001f0: 48be 1abf 06ef d13e 47ef 7ebe cb5b a8be
00000200: 38c2 1f3e 0b9a 993c 6e41 e5be 7a08 8f3f
00000210: 0d88 043f 6cfb c13e 3d44 d2bd 3cec e1bd
00000220: e273 bcbc 4e1d 2a3f 3f6f 2fbe b2d3 73be
00000230: f593 1cbe f1b4 873e 4578 78be 9928 d0be
00000240: 0120 84bf d0d0 11be b54c 95be 4702 9c3e
00000250: 5e44 14bd d183 3a3e bc08 993e 1bcd 62bf
00000260: 8287 0dbf 1c7e b4be f834 bd3e 1bb2 db3e
00000270: f501 cabd 4194 993d b0fb 9abc 23e4 28bd
00000280: f536 efbe 5c81 9bbe 67a2 b0be f073 94bf
00000290: 18e8 ffbd 6c0b abbd 0364 6fbe 3696 10be
000002a0: b2b8 193d 0489 b53e 102e 85bd f400 953d
000002b0: ea3e 663f 0188 96be d1a2 40bf c820 923d
000002c0: e642 20bc d404 a6be a907 d63e b30c 20be
000002d0: f0a9 a2be 9f22 10be efe1 22be 1644 a8bc
000002e0: 5fae 11bf 2545 f3bc 2eca 1e3e c1c2 a63e
000002f0: ed4e c5be 8ff0 3abf 6f71 efbe 1803 9e3e
00000300: 6a08 93be ae3c 9dbe 3825 973d a9d4 0e3f
00000310: 42a6 39bd ebcc 173f 1e49 4b3e 1c07 bebc
00000320: 0fcd a5bd ef0c 57be dc05 ffbe 985a 743d
00000330: 27e6 303d e1b0 903d 3425 a43c ac82 35be
00000340: 79c7 89bd c567 86be 3318 d63d 605e 823e
00000350: 220e 193e c9ae 893e b1bf 24be a065 7d3f
00000360: 3d4d b83e 06a6 a4be d80f cd3b 519c 23bd
00000370: 644b 8f3d 6074 323d 85bd ad3c b91d b13e
00000380: a099 11bf f917 64be b9bb 9fbb 7a56 2d3e
00000390: 01a9 84be ab9b 35be 1b53 433e 7af0 2d3d
000003a0: 5c35 ca3d ea1a a73e 4bca 88be 7957 39be
000003b0: 290e 5e3e 4bb4 36bf f833 fbbd baa5 90be
000003c0: 6292 2fbf f1a7 b23c 657e df3e 4b3c 5cbe
000003d0: 4133 35bb 565e 77be 14e4 93be 7f7e a9be
000003e0: 8500 7dbe b7d3 f7be 27d3 b7be b419 37be
000003f0: c2c1 123f f466 103f 7cfd febd 72ca a1bb

network_body._body_endoder.seq_layers.0.bias f4 [128]
-0.008598829 0.015415308 0.0084123695 -0.024792666 0.018230977 0.009369972 -0.003933938 0.0077424794
0.02752056 -0.004322385 0.018685162 0.0020806857 -0.023802763 -0.004576547 0.005819408 -0.014048633
-0.00062429253 -0.0027628916 -0.0013729163 -0.009216438 0.021283885 -0.008389152 -0.0064743846 -0.0015997939
-0.0005330596 -0.014447111 -0.011801772 0.01980927 0.00671241 -0.0068156747 0.0051804134 0.009086977
0.011870427 0.006134446 0.015390793 0.0010752471 -0.013272562 -0.009688203 0.008497915 0.032644644
0.009155104 -0.0029732087 -0.0024031312 -0.0017775296 0.001308577 -0.001181585 -0.008459962 0.009161602
0.020061508 0.010607669 -0.0038735582 0.0041192872 -0.0073761595 -0.008969605 0.028549202 -0.008938569
-0.0009432355 0.019077724 0.004527028 -0.00071368815 0.01473681 -0.0112639405 0.004870951 -0.009075381
0.0057187425 0.0040659625 -0.00782365 -0.006515839 0.019777639 -0.015255987 0.009619145 -0.013811256
0.004611635 -0.0009229335 0.012543411 0.0006068061 -0.0034079724 -0.0034956855 0.0020631764 -0.0013819091
-0.0020518545 0.02519038 0.005575274 -0.004251578 -0.011185125 0.0035839148 -0.0026862589 -0.011257276
-0.0064376863 0.0021757812 -0.01308728 0.037338626 0.023041502 0.0023981074 -0.010352817 -0.009799881
0.00708678 0.031391677 0.007692611 -0.00565165 0.0038143678 0.0008955587 -0.0061999504 -0.004495233
0.00086753676 -0.015738444 -0.009781694 -0.003948297 -0.0025459472 0.012575027 -0.007733339 -0.0025836907
-0.0071318108 -0.002732933 0.0037755338 0.009037294 -0.007261971 -0.0054296176 -0.004472448 -0.00360829
0.012068233 0.061429903 -0.017942823 -0.003077373 -0.0021277184 -0.0044428273 -0.008944351 -0.011240567
00000000: 1ae2 0cbc 7d90 7c3c 09d4 093c fd19 cbbc
00000010: 2159 953c 8384 193c 44e8 80bb a0b4 fd3b
00000020: cc72 e13c cba2 8dbb a011 993c 1d5c 083b
00000030: 03fe c2bc dcf6 95bb bcb0 be3b 3d2c 66bc
00000040: 90a7 23ba a111 35bb 6df3 b3ba 8b00 17bc
00000050: 8b5b ae3c a772 09bc 1327 d4bb 2db0 d1ba
00000060: 06bd 0bba 93b3 6cbc 385c 41bc 0d47 a23c
00000070: c7f3 db3b 0656 dfbb 75c0 a93b 8be1 143c
00000080: 2e7c 423c 7603 c93b aa29 7c3c 4eef 8c3a
00000090: 2975 59bc 45bb 1ebc d73a 0b3c 64b6 053d
000000a0: 4aff 153c 2ada 42bb da7d 1dbb fffb e8ba
000000b0: 8f84 ab3a 6adf 9aba a79b 0abc 8b1a 163c
000000c0: 0858 a43c cacb 2d3c 86db 7dbb 16fb 863b
000000d0: b6b3 f1bb 40f5 12bc 04e0 e93c 1373 12bc
000000e0: 7643 77ba e348 9c3c 7757 943b cd16 3bba
000000f0: a972 713c 648c 38bc 809c 9f3b e8b0 14bc
00000100: 4a64 bb3b c43b 853b c42e 00bc d282 d5bb
00000110: b704 a23c 3ff4 79bc 9e99 1d3c 9b48 62bc
00000120: 331d 973b 05f1 71ba e182 4d3c 1112 1f3a
00000130: 4a58 5fbb df17 65bb 5b36 073b 2d21 b5ba
00000140: 6878 06bb 0e5c ce3c cab0 b63b d250 8bbb
00000150: d141 37bc 1de0 6a3b f20b 30bb 7070 38bc
00000160: 3af3 d2bb 8d97 0e3b 086c 56bc 63f0 183d
00000170: 88c1 bc3c 9129 1d3b dd9e 29bc ae8f 20bc
00000180: 3838 e83b 8f94 003d 4c12 fc3b 7a31 b9bb
00000190: 79fa 793b edc3 6a3a f428 cbbb bf4c 93bb
000001a0: 686b 633a e9ed 80bc 6643 20bc b760 81bb
000001b0: e8d9 26bb 7c07 4e3c f367 fdbb 2353 29bb
000001c0: f7b1 e9bb 021b 33bb f26e 773b 2911 143c
000001d0: d4f5 edbb efea b1bb 9d8d 92bb 1079 6cbb
000001e0: d7b9 453c ec9d 7b3d d4fc 92bc c0ad 49bb
000001f0: 3171 0bbb 2395 91bb 548b 12bc 5b2a 38bc

network_body._body_endoder.seq_layers.2.weight f4 [128, 128]
0.0099339 -0.0032619743 -0.018528616 -0.037340008 0.086450964 0.21602406 -0.14797379 0.119170114
0.03788484 0.13613781 -0.13817805 0.12483516 -0.08922431 -0.031173004 -0.06136299 0.013740168
-0.0956875 0.090533935 0.077014774 0.0012456131 0.1385863 -0.0729286 -0.01779305 -0.0102714375
0.008882625 0.04439017 -0.07891711 -0.121374734 -0.03234558 0.11120314 0.083777554 -0.0699881
0.007225926 -0.08500807 -0.030266479 -0.0023806572 0.039674502 -0.017803641 -0.055458214 -0.11688353
0.033842903 -0.078747004 -0.05673488 0.057767767 0.04483881 0.06036125 -0.0066505433 -0.18886106
0.04230067 -0.076589055 0.18680926 0.074035585 0.01874797 0.060895387 -0.07478657 0.070863634
0.06899288 0.0067067808 -0.068598576 0.0249365 0.1306647 0.0489475 -0.03138002 0.054592896
0.12892672 0.0011514119 0.07440885 0.1155763 -0.027276905 -0.088740714 0.022257773 -0.031496253
-0.046780486 -0.079876736 0.1235654 0.060174983 0.024169283 -0.19680615 0.0060050534 0.09873966
0.18144228 -0.024471452 0.036148515 0.10940045 0.11945099 0.066115215 0.019338584 -0.044004515
0.045201764 -0.036724642 -0.05381821 -0.07748449 0.029629083 -0.09585718 0.06520115 -0.0692424
0.0318375 -0.086007334 -0.111764535 0.013484909 -0.12580058 0.007205776 0.012275875 -0.20343818
-0.068814054 0.10873378 0.0030582368 0.10189706 -0.07868171 0.14139144 0.1948418 -0.14483343
0.1928476 0.25493416 0.03085646 -0.119906105 -0.086659685 0.09808103 0.020903364 -0.05312633
0.040522948 0.012540843 -0.006479433 -0.051680688 -0.01339257 0.06386707 -0.018520212 0.08354505
-0.009186036 0.0011553771 -0.11656638 0.16116439 0.072718225 -0.046610225 0.05973568 -0.082883485
-0.10254661 0.061435748 -0.07505821 0.102152504 -0.20359093 0.15809424 0.14147095 -0.015881438
-0.08194694 -0.14658579 -0.029789135 -0.069546826 -0.011467067 0.040467903 -0.12896645 -0.0902841
-0.11735231 0.036473252 -0.0274742 0.03842066 -0.16631107 -0.044902585 0.036535338 -0.0733884
-0.106455676 -0.07785308 0.12454994 0.07412412 0.019488927 0.080951735 0.06462082 -0.02980838
-0.12136545 0.09406343 0.022393228 -0.029857093 -0.120506674 -0.10437421 0.13462423 -0.019482274
-0.010023867 0.012243159 -0.008195453 0.04302483 -0.04997901 -0.030571943 -0.04207364 -0.10316611
-0.15242782 0.009643831 -0.070134684 -0.06726583 0.07577811 0.21643671 -0.031042857 -0.06340182
0.104573324 0.044706833 0.09858676 0.06475495 0.027126972 0.06144981 0.059126895 0.12282283
-0.07098066 -0.14497983 0.004154802 0.03312659 -0.054651402 -0.046275698 0.005346872 -0.13578032
0.01432911 -0.0724648 -0.039108355 0.0495771 -0.07006385 0.05651118 -0.029660348 -0.05870006
0.07658363 0.02565718 0.058956154 -0.18978947 -0.0037481615 0.09465276 -0.07408194 0.022276273
-0.031008225 0.02392632 0.14484482 -0.09318555 -0.057364605 0.059695665 -0.08144969 0.09201554
0.07888734 0.019944325 -0.032626674 0.0592191 0.112679794 0.017498074 0.05654578 -0.026782274
-0.049213983 0.09978608 0.23263961 -0.077789396 -0.025784137 0.07833411 0.011481924 -0.092232004
-0.050647404 0.03620932 0.06421826 -0.052586462 -0.021492489 -0.010334883 -0.04774806 -0.113847636
00000000: ccc1 223c d9c6 55bb 53c9 97bc d6f1 18bd
00000010: 340d b13d 6935 5d3e 7186 17be 760f f43d
00000020: 222d 1b3d b667 0b3e 8c7e 0dbe 94a9 ff3d
00000030: 3cbb b6bd 875e ffbc c257 7bbd 711e 613c
00000040: cff7 c3bd db69 b93d ecb9 9d3d d743 a33a
00000050: 91e9 0d3e 975b 95bd bbc2 91bc 8849 28bc
00000060: 6e88 113c 78d2 353d 4b9f a1bd 5193 f8bd
00000070: cd7c 04bd 79be e33d 9193 ab3d ec55 8fbd
00000080: 76c7 ec3b b618 aebd 68f1 f7bc cd04 1cbb
00000090: bb81 223d f1d8 91bc 2728 63bd a260 efbd
000000a0: db9e 0a3d 1c46 a1bd d562 68bd e59d 6c3d
000000b0: e6a8 373d 5c3d 773d cdec d9bb cb64 41be
000000c0: 7843 2d3d b9da 9cbd ed4a 3f3e f89f 973d
000000d0: 5895 993c 716d 793d b429 99bd f420 913d
000000e0: 244c 8d3d 8ec4 db3b 697d 8cbd a147 cc3c
000000f0: f8cc 053e 2c7d 483d 5688 00bd cd9c 5f3d
00000100: 5e05 043e f9ea 963a ab63 983d 44b3 ec3d
00000110: d173 dfbc b1bd b5bd ef55 b63c 3702 01bd
00000120: e59c 3fbd 6a96 a3bd db0f fd3d 0b7a 763d
00000130: a9fe c53c 8d87 49be 0ac6 c43b 0538 ca3d
00000140: 01cc 393e 5b78 c8bc 7710 143d 580d e03d
00000150: b8a2 f43d 6a67 873d f36b 9e3c 143e 34bd
00000160: 7c25 393d 946c 16bd 7c70 5cbd 30b0 9ebd
00000170: b1b8 f23c c550 c4bd 2e88 853d f6ce 8dbd
00000180: 0a68 023d 9d24 b0bd cee4 e4bd cfef 5c3c
00000190: ded1 00be 6e1e ec3b c020 493c 1952 50be
000001a0: 62ee 8cbd d1af de3d b36c 483b 68af d03d
000001b0: e023 a1bd ebc8 103e 9c84 473e 374f 14be
000001c0: d779 453e bb86 823e b0c6 fc3c 5591 f5bd
000001d0: a27a b1bd b5de c83d 883d ab3c ff9a 59bd
000001e0: 64fb 253d 1c78 4d3c 6c51 d4bb 21af 53bd
000001f0: 836c 5bbc bdcc 823d b3b7 97bc ab19 ab3d
00000200: 0781 16bc 0670 973a 5bba eebd 4708 253e
00000210: 4bed 943d 5dea 3ebd 67ad 743d d1be a9bd
00000220: f503 d2bd 0da4 7b3d 1eb8 99bd 5535 d13d
00000230: 247a 50be 75e3 213e c3dd 103e ca19 82bc
00000240: ccd3 a7bd 961a 16be 5808 f4bc 916e 8ebd
00000250: 5de0 3bbc acc1 253d c80f 04be dfe6 b8bd
00000260: 6856 f0bd fa64 153d 9311 e1bc fb5e 1d3d
00000270: 734d 2abe c6eb 37bd 14a6 153d a84c 96bd
00000280: 6f05 dabd 7071 9fbd 0a14 ff3d 63ce 973d
00000290: 3ea7 9f3c 06ca a53d ec57 843d b430 f4bc
000002a0: 738e f8bd 54a4 c03d 0172 b73c dd96 f4bc
000002b0: 34cc f6bd 25c2 d5bd efda 093e 4a99 9fbc
000002c0: 253b 24bc 8897 483c 3946 06bc ce3a 303d
000002d0: cab6 4cbd 0372 fabc 6955 2cbd c148 d3bd
000002e0: 0a16 1cbe 2901 1e3c c6a2 8fbd abc2 89bd
000002f0: 8e31 9b3d 96a1 5d3e 974d febc d0d8 81bd
00000300: 8a2a d63d 831e 373d dbe7 c93d 3e9e 843d
00000310: 6239 de3c ccb2 7b3d 0b2f 723d 898a fb3d
00000320: 4f5e 91bd 9875 14be 0125 883b bfaf 073d
00000330: 26da 5fbd 968b 3dbd d034 af3b ff09 0bbe
00000340: a5c4 6a3c 6d68 94bd 1530 20bd 5b11 4b3d
00000350: a37d 8fbd 4478 673d 42fa f2bc 796f 70bd
00000360: e1d7 9c3d 022f d23c 027c 713d 2c58 42be
00000370: b7a3 75bb 4ed9 c13d 46b8 97bd bb7c b63c
00000380: f604 febc 2101 c43c 3352 143e 11d8 bebd
00000390: 26f7 6abd 7183 743d 18cf a6bd a572 bc3d
000003a0: b08f a13d 4862 a33c 8ca3 05bd ba8f 723d
000003b0: aac4 e63d 1f58 8f3c 8c9c 673d 8066 dbbc
000003c0: 9a94 49bd a55c cc3d 1439 6e3e 0c50 9fbd
000003d0: 4139 d3bc a26d a03d ae1e 3c3c 22e4 bcbd
000003e0: a773 4fbd 3950 143d dd84 833d e764 57bd
000003f0: 0411 b0bc a453 29bc 7893 43bd f328 e9bd

network_body._body_endoder.seq_layers.2.bias f4 [128]
0.0047258446 0.00080751174 0.014812228 -0.01300945 -0.0023180554 -1.2581772e-05 0.014468358 0.033432808
-0.01167439 -0.002951701 -0.009144842 0.012999545 0.010437069 -0.007309495 -0.0010858648 0.0071909307
-0.0085335625 -0.009178866 -0.0011242027 0.025448218 0.0013043184 0.026647525 -0.0060783774 0.012725566
-0.0097645745 -0.00045071956 0.02027003 -0.00020165995 -0.0032580774 -0.005089783 -0.00043738587 0.008511464
-0.008600876 0.008460545 -0.008403661 -0.008761184 0.014797965 -0.012373286 -0.0063784327 -0.008117631
0.011267314 0.0074064797 0.020750105 0.00082544296 -0.009545984 0.0103336405 -0.009386244 -0.0038873996
0.0034709498 -0.005427723 0.001768151 0.0069305873 -0.010918699 -0.008283448 0.012184823 0.014428043
-0.008133616 -0.010924389 0.0015122744 -0.004943085 -0.00054646976 -0.0029150338 -0.0024761448 -0.0070639723
0.0060979906 -0.008248757 -0.003206708 -0.0015644047 0.010259469 -0.006743585 0.004365665 -0.0070718634
-0.00396373 -0.012396383 -0.005267044 -0.0022867767 0.010523085 -0.0006015653 0.0085109295 -0.0107489675
0.0028028607 -0.007738357 0.0132421125 0.011285551 0.0015161908 -0.0030089777 0.004786408 0.009095793
-0.009401073 0.0041154516 -0.00073778164 -0.00949624 -0.00848462 -0.005598666 -0.0016115175 -0.005116508
-0.0037032927 0.003403144 0.0071733845 -0.010313455 0.011154403 0.0016947027 0.0090328725 0.006659451
-0.0144851785 -0.008197611 -0.012436869 0.008304252 0.0036610647 0.008540071 -0.00047046272 -0.013065299
-0.0026856884 -0.005284502 -0.010064483 0.00030693697 -0.009267713 -0.0049698213 -0.01054825 0.009542869
0.023165805 0.001393947 -0.0042171413 0.0023895986 -0.0103167845 0.0014740531 0.009574265 -0.013067817
00000000: 42db 9a3b 32af 533a fdae 723c 9725 55bc
00000010: 84ea 17bb 4d16 53b7 b10c 6d3c d7f0 083d
00000020: f145 3fbc 5371 41bb 3fd4 15bc 0bfc 543c
00000030: 3e00 2b3c 7d84 efbb 9453 8eba e6a1 eb3b
00000040: 5bd0 0bbc f462 16bc fc59 93ba c878 d03c
00000050: aaf5 aa3a e94b da3c 202d c7bb e47e 503c
00000060: 98fb 1fbc 8e4e ecb9 550d a63c ae74 53b9
00000070: 7885 55bb 32c8 a6bb f050 e5b9 ab73 0b3c
00000080: b0ea 0cbc 199e 0a3c 82af 09bc 128b 0fbc
00000090: 2a73 723c 53b9 4abc 2c02 d1bb d0ff 04bc
000000a0: 8a9a 383c 0eb2 f23b 20fc a93c 8a62 583a
000000b0: c266 1cbc 6e4e 293c c3c8 19bc bec3 7ebb
000000c0: e078 633b 0adb b1bb 4dc1 e73a fb19 e33b
000000d0: 58e4 32bc 4db7 07bc daa2 473c 9963 6c3c
000000e0: dc42 05bc 35fc 32bc 8237 c63a 9af9 a1bb
000000f0: f740 0fba 270a 3fbb d146 22bb e578 e7bb
00000100: a7d1 c73b cb25 07bc a227 52bb b60c cdba
00000110: 5517 283c 4bf9 dcbb da0d 8f3b 17bb e7bb
00000120: 2de2 81bb 331a 4bbc 2b97 acbb bfdd 15bb
00000130: 0469 2c3c 5db2 1dba 6d71 0b3c 701c 30bc
00000140: 33b0 373b 0b92 fdbb 72f5 583c 08e7 383c
00000150: ecba c63a 4532 45bb 4dd7 9c3b 8506 153c
00000160: f506 1abc e9da 863b b067 41ba 1e96 1bbc
00000170: 1303 0bbc 0475 b7bb 8e39 d3ba 61a8 a7bb
00000180: f1b2 72bb 4807 5f3b b60e eb3b c4f9 28bc
00000190: f5c0 363c c920 de3a 9dfe 133c 8637 da3b
000001a0: 3e53 6dbc 464f 06bc 02c4 4bbc 8f0e 083c
000001b0: 79ee 6f3b a7eb 0b3c 70a8 f6b9 d60f 56bc
000001c0: 6002 30bb 9e29 adbb 80e5 24bc 62ec a039
000001d0: 9bd7 17bc e2d9 a2bb 91d2 2cbc b259 1c3c
000001e0: 37c6 bd3c 1ab5 b63a f22f 8abb d09a 1c3b
000001f0: bb07 29bc 0435 c13a 61dd 1c3c 661a 56bc

action_model._continuous_distribution.log_sigma f4 [1, 2]
0.0035157425 -0.024848137
00000000: 5f68 663b 528e cbbc

action_model._continuous_distribution.mu.weight f4 [2, 128]
-0.0024415893 0.014386663 -0.010366479 -0.005824979 -0.019062225 -0.0048009693 0.03344233 -0.059944358
-0.02442051 -0.008390847 0.01334382 0.0067614242 -0.010362122 -0.024735263 -0.0024974607 -0.025756814
-0.010282458 -0.029749423 -0.0025889217 0.031767957 -0.014314659 -0.04110688 0.015214746 -0.036789704
0.00095009926 -0.009826241 0.050916534 -0.033359073 -0.04340943 -0.0045906054 -0.02912229 0.010486979
0.005395284 0.019143008 -0.010570343 -0.0038671421 -0.0056490866 -0.0177061 -0.022823578 -0.023513816
0.008860899 0.01415557 0.032688696 0.013644289 -0.019572897 0.032199968 -0.026994739 -0.024606267
-0.012842902 -0.0066480814 -0.029721204 -0.010353728 -0.011618891 0.00055890257 0.042996414 0.03215558
-0.012928629 -0.014882053 -0.0003231172 0.0038764605 -0.0032345913 -0.04498015 -0.024611771 0.00023650573
-0.018728748 -0.015951643 -0.015466108 0.0068688625 0.025409635 -0.0075882995 0.0025803933 -0.014949648
-0.014137656 -0.014333582 0.00089305453 -0.0029247815 0.051097322 -0.011998059 0.026883846 -0.0046340497
-0.026734874 0.039078813 0.052420143 0.029343374 0.009082633 -0.022210682 0.004493095 0.014106666
-0.0019667172 0.010814339 -0.004062795 0.0018829906 -0.018320583 -0.02099248 0.007608724 -0.033192843
-0.007872562 0.0012442056 0.046461366 -0.0064690914 -0.033395115 0.030171532 -0.0009336679 -0.0070613506
-0.03256754 -0.028706603 -0.053271938 -0.026398916 -0.0089153 0.05732102 -0.004497389 0.0007272237
-0.017704371 0.015568049 0.0010208511 -0.03969182 -0.025271958 -0.009246441 -0.007284227 -0.019309092
-0.036785156 -0.028068481 -0.013524167 0.030480333 -0.015061944 -0.013894778 0.011594546 0.018813197
-0.015529784 0.0037955674 0.021718783 0.022489164 -0.00084705953 -0.011771497 0.022931209 -0.022178074
0.053496193 0.019488433 0.011925474 -0.029414997 0.015253065 -0.0028536236 -0.0048423805 0.038955487
-0.001666695 -0.0077532823 -0.012482417 -0.052247766 -0.023980493 0.013631727 0.01682969 0.027731983
0.026192514 0.017596466 -0.01998883 -0.019189727 0.025024127 0.024447447 -0.031731907 -0.01741881
0.019020366 0.011406525 -0.0009193497 0.039696164 -0.041016158 0.028888127 -0.00064452935 0.016773164
-0.041027654 -0.02195949 -0.0075540543 0.0034373333 0.025325567 -0.007572181 0.0013939722 0.0016918432
0.038476057 -0.0060798377 0.03698156 -0.020786539 0.018635657 0.00793666 -0.005073822 -0.015033727
-0.001990173 0.029537024 -0.0038495574 0.008682583 0.0261744 -0.011686987 0.0061821677 0.003633047
-0.0026311288 0.0010058279 -0.013434708 -0.00075898436 -0.023795974 0.028565729 -0.026326293 -0.008310779
-0.00046543824 0.0065522795 0.028069459 0.016340544 -0.019199854 -0.0154243875 -0.012623769 0.011028852
-0.018228557 0.021940105 -0.038144972 -0.014549864 -0.0022074596 0.05175697 -0.044455457 -0.01963855
0.007156953 0.003013867 -0.0065100864 0.041953027 -0.01110773 0.014678213 0.008516442 -0.0037167259
-0.0034067207 -0.01516553 0.006996421 0.0034546377 0.027642123 0.015553849 -0.03885848 -0.019779034
0.004695069 0.001821812 0.018034695 -0.01747692 -0.028453026 -0.003005421 0.008829919 0.011198142
0.0116843255 0.038226478 0.023677375 -0.020918058 -0.0012781558 0.020769106 0.004932173 0.015876135
0.029132098 0.020131188 -0.01096839 0.009363642 -0.00025905846 -0.036176454 -0.0103349835 0.00028612482
00000000: 1203 20bb 0ab6 6b3c 2ad8 29bc 77df bebb
00000010: 6228 9cbc 7351 9dbb d3fa 083d 3788 75bd
00000020: 850d c8bc c379 09bc 0aa0 5a3c f08e dd3b
00000030: e4c5 29bc 9ba1 cabc 70ac 23bb f4ff d2bc
00000040: c177 28bc 10b5 f3bc e6aa 29bb 1e1f 023d
00000050: 0888 6abc b05f 28bd 4547 793c cdb0 16bd
00000060: 1510 793a 3efe 20bc db8d 503d 86a3 08bd
00000070: 16ce 31bd ca6c 96bb de91 eebc 94d1 2b3c
00000080: ecca b03b ccd1 9c3c 3b2f 2dbc e16f 7dbb
00000090: f91b b9bb 620c 91bc 83f8 babc 0ca0 c0bc
000000a0: 4e2d 113c c4ec 673c 95e4 053d 4c8c 5f3c
000000b0: 5757 a0bc 1de4 033d 1224 ddbc 1593 c9bc
000000c0: 096b 52bc 26d8 d9bb e279 f3bc afa2 29bc
000000d0: 295d 3ebc 5183 123a 021d 303d 92b5 033d
000000e0: 9ad2 53bc dbd3 73bc 0e68 a9b9 370c 7e3b
000000f0: 70fb 53bb 1b3d 38bd a09e c9bc 86fe 7739
00000100: 086d 99bc 05ad 82bc 8f65 7dbc 3214 e13b
00000110: de27 d03c 45a7 f8bb d11b 293b 5eef 74bc
00000120: a1a1 67bc 66d7 6abc e01b 6a3a b1ad 3fbb
00000130: 6d4b 513d 8293 44bc 833b dc3c 3ad9 97bb
00000140: 1803 dbbc 1b11 203d 81b6 563d 8461 f03c
00000150: 53cf 143c 2df3 b5bc d03a 933b a51f 673c
00000160: 0ae4 00bb a02e 313c 3221 85bb aece f63a
00000170: 0c15 96bc 6cf8 abbc 9a52 f93b 38f5 07bd
00000180: ebfb 00bc 9d14 a33a 464e 3e3d acfa d3bb
00000190: 51c9 08bd 4a2a f73c 64c1 74ba e762 e7bb
000001a0: 8a65 05bd 1c2a ebbc ad33 5abd 8a42 d8bc
000001b0: 7a11 12bc 72c9 6a3d d55e 93bb 28a3 3e3a
000001c0: c208 91bc 2111 7f3c 14ce 853a e493 22bd
000001d0: 2307 cfbc 627e 17bc 86b0 eebb 1a2e 9ebc
000001e0: 08ac 16bd dfef e5bc 7894 5dbc e4b1 f93c
000001f0: 5fc6 76bc eca6 63bc 0df7 3d3c 221e 9a3c
00000200: a370 7ebc 0ebf 783b 97eb b13c 323b b83c
00000210: 340d 5eba 3ddd 40bc 3bda bb3c cbae b5bc
00000220: d31e 5b3d 35a6 9f3c 1063 433c b8f7 f0bc
00000230: fee7 793c dc03 3bbb d5ac 9ebb ca8f 1f3d
00000240: 0175 daba 3f0f febb 0d83 4cbc c101 56bd
00000250: bd72 c4bc 9b57 5f3c 6bde 893c 2f2e e33c
00000260: af91 d63c 7726 903c 9dbf a3bc c633 9dbc
00000270: 66ff cc3c 0346 c83c 51f9 01bd e4b1 8ebc
00000280: 99d0 9b3c 6fe2 3a3c 8400 71ba 7298 223d
00000290: 8f00 28bd cba6 ec3c a2f5 28ba e067 893c
000002a0: 9d0c 28bd 63e4 b3bc 0088 f7bb e244 613b
000002b0: 9077 cf3c 0f20 f8bb f2b5 b63a d6c0 dd3a
000002c0: 1299 1d3d 6039 c7bb fa79 173d 8848 aabc
000002d0: cea9 983c c408 023c 4e42 a6bb 0550 76bc
000002e0: 906d 02bb a1f7 f13c db48 7cbb 6541 0e3c
000002f0: b26b d63c c77a 3fbc c893 ca3b 6a18 6e3b
00000300: 046f 2cbb fcd5 833a 401d 5cbc 94f6 46ba
00000310: c6ef c2bc ad02 ea3c 3daa d7bc ef29 08bc
00000320: 1006 f4b9 81b4 d63b ecf1 e53c 9bdc 853c
00000330: 0349 9dbc 92b6 7cbc edd3 4ebc 5cb2 343c
00000340: 0e54 95bc bcbb b33c e73d 1cbd 8e62 6ebc
00000350: 07ab 10bb 1eff 533d ed16 36bd 06e1 a0bc
00000360: e084 ea3b 4c84 453b 9052 d5bb f0d6 2b3d
00000370: 32fd 35bc e37c 703c 8c88 0b3c 5094 73bb
00000380: 4a43 5fbb d878 78bc 3c42 e53b 3467 623b
00000390: bc71 e23c 92d5 7e3c 122a 1fbd a407 a2bc
000003a0: 18d9 993b dec9 ee3a 7fbd 933c c22b 8fbc
000003b0: 5216 e9bc 99f6 44bb 5dab 103c 6978 373c
000003c0: 9d6f 3f3c 5e93 1c3d 0ef7 c13c 595c abbc
000003d0: cb87 a7ba f923 aa3c 119e a13b ab0e 823c
000003e0: 70a6 ee3c 29ea a43c c3b4 33bc f669 193c
000003f0: 3dd2 87b9 c32d 14bd 1054 29bc 0603 9639

action_model._continuous_distribution.mu.bias f4 [2]
0.008950759 -0.008329537
00000000: 34a6 123c 9c78 08bc

action_model._discrete_distribution.branches.0.weight f4 [2, 128]
0.017637491 0.004424505 0.0016699904 -0.008133067 0.015005485 0.014600024 -0.0079259565 -0.0062793647
-0.01399097 0.0014868488 0.0024823085 -0.0057692546 0.005732262 -0.0040040724 0.010562228 0.00078489643
0.009069215 -0.01119799 0.015649939 -0.011689 -0.005583636 -0.019240426 -0.02158089 -0.006972596
-0.00460737 -0.007376531 0.0041474057 -0.017576046 -0.010322251 -0.010128837 0.012312538 0.006531382
-0.006669025 -0.004205206 -0.008507329 -0.004718512 -0.0049567954 -0.009642488 -0.0046003084 0.010000045
0.011397915 0.007479067 0.017479667 0.009541502 0.010946303 0.0045980895 -0.004514788 -0.00018586402
-0.0098328525 0.012797325 -0.000856808 -0.010466678 -0.0021272395 -0.0040899385 0.000538796 0.016703568
-0.007851542 0.014331325 0.018902794 -0.0039675995 -0.0069844555 0.0052624107 -0.009136192 0.010900078
-0.0050110463 0.0006453168 -0.0049978998 -0.0064357 0.011892081 0.007540165 0.0018860619 -0.020195233
-0.00043418462 -0.008429847 0.016187837 -0.0011500795 -0.005037196 -0.016809316 0.013057772 0.0031250808
-0.012308285 -0.009299836 0.009751765 -0.004500295 -8.289689e-06 0.009008188 0.011098994 0.013559196
-0.013599711 0.009688357 0.00529045 -0.0038564997 -0.010215008 0.0032415628 -0.0052030226 -0.0039531747
0.006597209 0.0044742064 0.017512562 -0.002034721 -0.017501397 -0.0013454284 -0.016620707 -0.00074040843
-0.002082261 0.026705114 0.005394524 0.008068495 -8.6804816e-05 0.00089800096 0.00082391687 0.0068706614
0.008178686 0.0021394766 0.0025349585 0.0014037872 0.0029979434 -0.0013356673 -0.0042084795 -0.0062783416
-0.014077261 -0.020677373 0.00097141997 -0.014204608 -0.0057161776 -0.003324972 0.0021769605 -0.0027530007
-0.014172131 -0.0059017236 -0.002264376 0.005419469 -0.003040727 0.006956123 0.0010696286 -0.002236608
-0.000333226 0.002682799 0.00057703955 -0.016357174 0.007960537 0.0058285785 -0.004387986 0.011655153
-0.0086851 -0.021673763 0.0042377203 -0.003949378 0.013819335 0.017486071 0.0038651326 0.00059391605
-0.007570082 -0.005081393 -0.019152736 0.0006442356 0.014049969 -0.0015429833 -0.009788969 -0.0048106103
-0.001296839 -0.011293549 0.0090764 -0.0074778954 0.007672849 0.0057829367 0.00730314 -0.0211713
0.028474964 -0.0056876126 -0.0174629 0.0033564067 0.002203443 0.0015994739 -0.01516454 0.0028920358
0.0023154176 -0.007627354 -0.0023433666 0.017525572 -0.010298748 0.0061563384 -0.010858546 -0.009559529
0.0030953067 -0.018204065 0.0017292442 0.008890448 -0.00911879 0.0014141134 -0.0007292846 0.0011494836
0.009868048 0.007538376 -0.019146726 0.0078057973 -0.011744674 0.016407736 -0.007603454 -0.0114964675
-0.007105881 0.011305985 -0.0032767437 -0.011882214 -0.00026247598 0.014848666 -0.004600046 -0.0039299764
-0.0051041734 0.009102501 0.005374724 -0.0044632405 0.0047213878 -0.0074320375 -0.015425779 -0.008538962
0.014596531 0.0042717345 0.0017990342 0.008645934 0.0037888444 0.003628868 0.0013104024 -0.011924234
-0.018641299 0.012918595 0.0038159573 0.008769283 0.008040957 -0.0028507065 0.009932904 0.008665978
0.010917907 0.0014583248 0.0065653613 -0.00039190752 -0.0042579304 0.0012226298 0.007322912 0.0079647945
-0.015995638 -0.0005678108 7.8330035e-05 0.007776959 -0.017365146 -0.014231033 -0.0063286913 0.0061624544
0.013681369 -0.0057746023 0.007742065 0.005571555 0.00039916244 0.0082354415 0.0016538192 -0.0018248047
00000000: 807c 903c 70fb 903b 94e3 da3a 8e40 05bc
00000010: 91d9 753c f034 6f3c dfdb 01bc 21c3 cdbb
00000020: 623a 65bc 5ee2 c23a 3aae 223b 040c bdbb
00000030: b3d5 bb3b 9834 83bb 320d 2d3c 82c1 4d3a
00000040: 0b97 143c c677 37bc 4d34 803c 3883 3fbc
00000050: eff6 b6bb 199e 9dbc 68ca b0bc 607a e4bb
00000060: 6cf9 96bb d4b6 f1bb f6e6 873b a4fb 8fbc
00000070: a91e 29bc 6cf3 25bc 87ba 493c 3405 d63b
00000080: d687 dabb d3cb 89bb 5362 0bbc bf9d 9abb
00000090: 9d6c a2bb 87fb 1dbc 2fbe 96bb 3bd7 233c
000000a0: 52be 3a3c f612 f53b 8531 8f3c f653 1c3c
000000b0: 1f58 333c 92ab 963b c9f0 93bb 7ee4 42b9
000000c0: f919 21bc dfab 513c 699b 60ba 6e7c 2bbc
000000d0: 2869 0bbb e404 86bb fd3d 0d3a ecd5 883c
000000e0: c1a3 00bc efcd 6a3c 08da 9a3c a302 82bb
000000f0: dcdd e4bb 4d70 ac3b f7af 15bc 3e96 323c
00000100: b433 a4bb 7a2a 293a 6cc5 a3bb 91e2 d2bb
00000110: 01d7 423c 7d13 f73b bc35 f73a 7970 a5bc
00000120: 46a3 e3b9 571d 0abc 5b9c 843c 44be 96ba
00000130: 100f a5bb b1b3 89bc 44f0 553c 28ce 4c3b
00000140: b0a8 49bc 575e 18bc dec5 1f3c 3677 93bb
00000150: f113 0bb7 1497 133c 8ed8 353c 6427 5e3c
00000160: 52d1 5ebc eabb 1e3c 835b ad3b 54bd 7cbb
00000170: d95c 27bc 6670 543b 1e7e aabb a289 81bb
00000180: 662d d83b 5d9c 923b 8176 8f3c f458 05bb
00000190: 175f 8fbc 1659 b0ba 2628 88bc f817 42ba
000001a0: 8b76 08bb afc4 da3c 8cc4 b03b b931 043c
000001b0: fb0a b6b8 d367 6b3a 20fc 573a 4923 e13b
000001c0: e5ff 053c 7636 0c3b 8c21 263b 48ff b73a
000001d0: 2579 443b 8f11 afba 49e7 89bb 8cba cdbb
000001e0: 50a4 66bc 9863 a9bc e4a6 7e3a 72ba 68bc
000001f0: c64e bbbb c6e7 59bb 56ab 0e3b b06b 34bb
00000200: 3a32 68bc 3f63 c1bb ed65 14bb cd95 b13b
00000210: ef46 47bb 30f0 e33b c832 8c3a 0e94 12bb
00000220: d6b4 aeb9 e6d1 2f3b 7844 173a 7bff 85bc
00000230: ea6c 023c a9fd be3b 18c9 8fbb 41f5 3e3c
00000240: f34b 0ebc 2d8d b1bc 93dc 8a3b c969 81bb
00000250: 7e6a 623c f33e 8f3c 2a4e 7d3b 08b1 1b3a
00000260: 730e f8bb d081 a6bb 33e6 9cbc ebe1 283a
00000270: d731 663c ee3d caba e961 20bc 53a2 9dbb
00000280: b2fa a9ba 9408 39bc 2eb5 143c 2209 f5bb
00000290: 866c fb3b ca7e bd3b 2e4f ef3b 6f6f adbc
000002a0: 5444 e93c 275f babb 5b0e 8fbc 29f7 5b3b
000002b0: a467 103b 70a5 d13a b174 78bc 4f88 3d3b
000002c0: 43be 173b e2ee f9bb 2b93 19bb ca91 8f3c
000002d0: 14bc 28bc 1cbb c93b 0be8 31bc 929f 1cbc
000002e0: a1da 4a3b b120 95bc cfa7 e23a 3ea9 113c
000002f0: fa66 15bc c659 b93a 762d 3fba 45aa 963a
00000300: 98ad 213c 7b04 f73b 98d9 9cbc c6c7 ff3b
00000310: bc6c 40bc 8469 863c 6526 f9bb ae5b 3cbc
00000320: 73d8 e8bb bd3c 393c a3be 56bb 9ead 42bc
00000330: ee9c 89b9 d247 733c fcbb 96bb 08c7 80bb
00000340: e940 a7bb a822 153c 741e b03b 6040 92bb
00000350: dfb5 9a3b 7388 f3bb 68bc 7cbc 01e7 0bbc
00000360: 4a26 6f3c e8f9 8b3b 92cd eb3a ada7 0d3c
00000370: 434e 783b 4dd2 6d3b cfc1 ab3a dd5d 43bc
00000380: a3b5 98bc 84a8 533c 2415 7a3b 0aad 0f3c
00000390: 38be 033c ebd2 3abb 9ebd 223c bffb 0d3c
000003a0: 05e1 323c 4325 bf3a 3e22 d73b f078 cdb9
000003b0: 1c86 8bbb a640 a03a 0af5 ef3b c57e 023c
000003c0: 4909 83bc 23d9 14ba 1e45 a438 dcd5 fe3b
000003d0: 5a41 8ebc 4729 69bc e960 cfbb 6aee c93b
000003e0: d227 603c e038 bdbb 26b1 fd3b 9791 b63b
000003f0: ad46 d139 f2ed 063c f7c4 d83a 492e efba

action_model._discrete_distribution.branches.0.bias f4 [2]
0.001954137 -0.0019541387
00000000: fb10 003b 0211 00bb

exp_avg f4 [128, 7]
-0.0004959017 -5.755378e-05 7.6202945e-05 -0.00046419882 0.0 0.00014429797 2.616657e-05 2.4176004e-06
-7.134138e-07 -4.474961e-09 -1.8594745e-05 0.0 -1.2437685e-07 -1.5648561e-06 1.2945286e-05 3.5667802e-06
-6.789642e-06 7.373609e-06 0.0 -1.1920427e-05 -5.2632794e-07 2.1953712e-05 -3.1447887e-06 -1.9799327e-06
1.99382e-05 0.0 -6.2890363e-06 2.7571402e-06 -4.812887e-06 -1.7133061e-06 -4.4206658e-07 -1.2169059e-05
0.0 -9.93252e-07 -5.803783e-07 -7.361139e-06 2.8541378e-06 -6.9274693e-06 2.0912194e-06 0.0
-3.4166042e-06 -1.0789956e-08 -6.809904e-05 -2.0401043e-05 4.1958985e-05 -1.0887879e-05 0.0 7.2969783e-06
-1.0357196e-06 1.9318904e-07 -5.282037e-06 3.2629587e-06 7.638116e-06 0.0 5.718007e-07 6.374737e-06
-0.00018330973 -6.54599e-05 -8.079385e-05 -0.00036196594 0.0 -0.00012218312 -1.19084525e-05 -0.00046103995
-9.5135576e-05 9.3546305e-06 -0.0005971096 0.0 9.839813e-05 8.179143e-06 0.0006248099 7.142208e-05
-9.119295e-05 0.00030621147 0.0 -0.00015951898 -4.9879345e-05 -6.351033e-05 2.3354178e-05 -1.7011806e-05
0.00037227254 0.0 5.0319173e-05 2.364743e-05 -8.1696664e-05 -2.9811645e-06 4.548647e-06 -0.000117182244
0.0 -9.937089e-06 -7.8351746e-07 7.353698e-05 1.3366186e-05 -4.0811037e-06 6.388423e-05 0.0
-1.8540766e-05 -2.4813746e-06 0.0013020885 0.0002009904 -0.00011630622 0.00091417873 0.0 -0.00028057175
-5.8906302e-05 -0.00067610806 -0.00010945234 6.133523e-05 -0.00033648947 0.0 0.00014831361 4.5793047e-05
1.188363e-05 1.7771184e-06 -5.4755847e-06 -2.2212667e-05 0.0 -7.5263674e-06 -2.465645e-06 -0.0015764011
-0.00015651084 8.08087e-05 -0.0018569981 0.0 0.0002391531 2.8646922e-05 6.119999e-05 -3.2679305e-05
-8.5282336e-05 -0.00018944779 0.0 -8.6521595e-06 -1.3501798e-05 0.00025170227 3.170385e-05 1.645108e-05
0.00033293452 0.0 -1.6637523e-05 -2.6619412e-06 -4.862735e-06 -1.000205e-06 -5.651493e-06 -1.1541771e-05
0.0 -4.280896e-06 -5.437244e-07 -0.00013384255 8.988339e-06 9.056202e-05 -6.53596e-05 0.0
5.0038332e-05 1.4867015e-05 -0.00069006585 -0.00010744534 2.7438038e-05 -0.0006250071 0.0 0.00015425512
3.064836e-05 -4.7441517e-05 -9.438686e-07 4.643697e-06 -5.5308963e-05 0.0 5.5996898e-06 2.9308212e-06
-0.00051701 -6.2498926e-05 9.1141235e-05 -0.00048158222 0.0 0.00013217212 1.597254e-05 -0.0003219736
-6.0692193e-05 3.9374805e-05 -0.0002625068 0.0 0.000115870425 1.5073388e-05 -3.1712545e-05 -1.5962885e-05
1.9923498e-05 -7.0250535e-05 0.0 -2.5791025e-05 2.8592292e-06 4.648032e-06 9.770289e-07 1.6932923e-06
-5.438688e-06 0.0 -4.8247443e-06 -1.9974773e-06 -0.0003305272 -4.528852e-05 -7.079051e-06 -0.00038328697
0.0 8.9161564e-05 8.037128e-06 -0.00080940005 -0.00015652053 9.732777e-05 -0.00070073566 0.0
0.00023327666 3.0256782e-05 0.00085154717 7.401472e-05 -0.000106261454 0.000632696 0.0 -0.00014858115
-3.8564704e-05 -4.7284106e-05 -1.49657e-05 1.5100388e-05 -0.00022826223 0.0 1.4268178e-05 -1.6094351e-05
4.8928017e-05 -6.624439e-07 -1.75329e-05 -0.00014406182 0.0 -1.3999357e-05 -2.184028e-05 8.634007e-06
5.728753e-06 2.2188538e-06 9.597737e-06 0.0 7.5832095e-06 2.0627144e-08 0.00036040775 2.1899716e-05
-3.0553932e-05 0.0004389762 0.0 -7.129683e-05 -1.0513055e-05 2.0974356e-05 2.3889845e-06 -4.2565052e-06
-5.2806035e-06 0.0 -7.407569e-06 -2.466358e-06 -0.00041955806 -8.6257e-05 -3.299432e-05 -0.00036088628
00000000: 66ff 01ba e765 71b8 25cf 9f38 b65f f3b9
00000010: 0000 0000 b14e 1739 4880 db37 0f3e 2236
00000020: 6c81 3fb5 2cc2 99b1 e9fb 9bb7 0000 0000
00000030: 738c 05b4 0c08 d2b5 942f 5937 d15c 6f36
00000040: 95d2 e3b6 d26a f736 0000 0000 d8fd 47b7
00000050: fb48 0db5 3d29 b837 0f0b 53b6 fcde 04b6
00000060: f540 a737 0000 0000 6906 d3b6 4f07 3936
00000070: 627e a1b6 c0f4 e5b5 2b55 edb4 b629 4cb7
00000080: 0000 0000 e14f 85b5 4bcb 1bb5 b4ff f6b6
00000090: b789 3f36 8272 e8b6 e056 0c36 0000 0000
000000a0: d048 65b6 ba5e 39b2 65d0 8eb8 e822 abb7
000000b0: 1efd 2f38 16ab 36b7 0000 0000 91d8 f436
000000c0: 0e03 8bb5 666f 4f34 5a3c b1b6 34f9 5a36
000000d0: 7525 0037 0000 0000 d87d 1935 93e6 d536
000000e0: d536 40b9 8447 89b8 de6f a9b8 3fc6 bdb9
000000f0: 0000 0000 481e 00b9 6aca 47b7 bcb7 f1b9
00000100: 8683 c7b8 d5f1 1c37 5987 1cba 0000 0000
00000110: 185b ce38 2739 0937 48ca 233a 70c8 9538
00000120: d83e bfb8 028b a039 0000 0000 8d44 27b9
00000130: 8a35 51b8 d930 85b8 b7e8 c337 93b4 8eb7
00000140: 932d c339 0000 0000 cd0d 5338 785e c637
00000150: 9054 abb8 0410 48b6 95a0 9836 bdbf f5b8
00000160: 0000 0000 79b7 26b7 e952 52b5 de37 9a38
00000170: 553f 6037 6af0 88b6 96f9 8538 0000 0000
00000180: fe87 9bb7 b185 26b6 d7aa aa3a f3c0 5239
00000190: 6de9 f3b8 7fa5 6f3a 0000 0000 b419 93b9
000001a0: 2912 77b8 d83c 31ba c789 e5b8 1aa1 8038
000001b0: da6a b0b9 0000 0000 a284 1b39 e911 4038
000001c0: cd5f 4737 5385 ee35 eaba b7b6 5755 bab7
000001d0: 0000 0000 018b fcb6 7577 25b6 3e9f ceba
000001e0: 0f1d 24b9 d777 a938 8466 f3ba 0000 0000
000001f0: 2cc5 7a39 cc4e f037 7f58 8038 2311 09b8
00000200: 9bd9 b2b8 81a6 46b9 0000 0000 be28 11b7
00000210: c885 62b7 e8f6 8339 c0f9 0438 6d00 8a37
00000220: b78d ae39 0000 0000 cf90 8bb7 cda3 32b6
00000230: 932a a3b6 c83e 86b5 f5a1 bdb6 87a3 41b7
00000240: 0000 0000 9ea4 8fb6 75f4 11b5 1658 0cb9
00000250: 9fcc 1637 1dec bd38 ab11 89b8 0000 0000
00000260: 40e0 5138 586d 7937 89e5 34ba 4754 e1b8
00000270: bd2a e637 84d7 23ba 0000 0000 8bbf 2139
00000280: 6d8c 0038 f1fb 46b8 285e 7db5 0ed1 9b36
00000290: 8cfb 67b8 0000 0000 f8e4 bb36 20af 4436
000002a0: f487 07ba db11 83b8 1423 bf38 df7c fcb9
000002b0: 0000 0000 af97 0a39 c5fc 8537 91ce a8b9
000002c0: bf8f 7eb8 6026 2538 11a1 89b9 0000 0000
000002d0: 76ff f238 b5e3 7c37 1603 05b8 09e8 85b7
000002e0: 6321 a737 7853 93b8 0000 0000 ce59 d8b7
000002f0: 2fe1 3f36 4af6 9b36 7522 8335 1545 e335
00000300: f97d b6b6 0000 0000 3de4 a1b6 660c 06b6
00000310: 9c4a adb9 2ef4 3db8 9688 edb6 e8f3 c8b9
00000320: 0000 0000 40fc ba38 34d7 0637 eb2d 54ba
00000330: a91f 24b9 731c cc38 93b1 37ba 0000 0000
00000340: ba9b 7439 f2cf fd37 5d3a 5f3a 5a38 9b38
00000350: afd8 deb8 83db 253a 0000 0000 73cc 1bb9
00000360: 89c0 21b8 ec52 46b8 3115 7bb7 ac57 7d37
00000370: ad59 6fb9 0000 0000 5c61 6f37 5b02 87b7
00000380: 0f38 4d38 ccd2 31b5 9e13 93b7 4d0f 17b9
00000390: 0000 0000 c8de 6ab7 a535 b7b7 c7da 1037
000003a0: 9d39 c036 9ee7 1436 f705 2137 0000 0000
000003b0: 4673 fe36 922f b132 1cf5 bc39 48b5 b737
000003c0: 0927 00b8 6326 e639 0000 0000 3285 95b8
000003d0: 3a61 30b7 16f2 af37 7152 2036 1ad3 8eb6
000003e0: 0a30 b1b6 0000 0000 888e f8b6 b583 25b6
000003f0: 21f8 dbb9 e0e4 b4b8 6263 0ab8 5635 bdb9

exp_avg_sq f4 [128, 7]
1.6295836e-06 1.2939599e-07 7.853658e-08 4.373757e-06 0.0 8.410161e-08 4.110313e-09 6.3069255e-10
2.7017957e-10 2.0388483e-10 5.0139626e-09 0.0 1.759219e-10 7.2208858e-12 6.55038e-09 5.5000743e-10
3.7320153e-10 1.4669474e-08 0.0 3.2522451e-10 1.5657215e-11 5.898795e-09 3.3378192e-10 4.3223553e-10
1.5971265e-08 0.0 4.2968673e-10 6.111361e-11 1.9121363e-10 3.5350025e-11 3.0904487e-11 9.695456e-10
0.0 2.9845182e-11 2.2810623e-12 6.1273724e-09 6.1469596e-10 2.7137076e-10 1.0434202e-08 0.0
2.6446598e-10 3.2686152e-12 2.6361067e-07 1.9583764e-08 1.9305325e-08 5.9804705e-07 0.0 1.6479124e-08
9.440105e-10 8.253977e-09 1.3392406e-09 1.7861175e-09 7.65614e-08 0.0 1.6322814e-09 1.09141564e-10
1.4032074e-06 7.684048e-08 6.122298e-08 2.3574037e-06 0.0 4.5363077e-08 2.48593e-09 4.3844446e-07
2.800263e-08 1.3405006e-08 7.981644e-07 0.0 1.4978605e-08 6.363665e-10 2.8028965e-06 1.517578e-07
1.0015698e-07 6.5455943e-06 0.0 1.123042e-07 6.8850268e-09 3.4806863e-08 1.03957225e-08 1.1885766e-08
5.702186e-07 0.0 1.09979315e-08 4.6008905e-10 9.376332e-08 4.116223e-09 1.3271408e-08 2.7430409e-07
0.0 9.303866e-09 1.3945171e-09 9.370809e-09 6.927542e-10 4.162311e-10 2.8972208e-08 0.0
4.6252818e-10 2.6072861e-11 4.221304e-06 2.567432e-07 1.7247798e-07 1.0767106e-05 0.0 1.9270502e-07
9.958883e-09 1.5665423e-06 1.406521e-07 9.2456524e-08 4.9521964e-06 0.0 9.760159e-08 5.7381313e-09
1.0484069e-09 2.0672204e-10 1.5733037e-10 6.4892824e-09 0.0 1.7540014e-10 1.4069041e-11 7.891244e-06
4.1262197e-07 2.4822495e-07 1.4806961e-05 0.0 2.7149707e-07 1.4652759e-08 1.9384598e-07 2.0778412e-08
2.2176815e-08 1.1814027e-06 0.0 3.2016672e-08 1.7497523e-09 4.605378e-07 3.4878482e-08 1.7661861e-08
8.575922e-07 0.0 1.7715358e-08 3.6643885e-10 1.8787734e-09 2.6655533e-10 1.445795e-10 4.8395807e-09
0.0 1.4770987e-10 5.944137e-12 1.6643919e-06 1.1250287e-07 7.293557e-08 4.013845e-06 0.0
7.337812e-08 3.25663e-09 8.623907e-07 6.956422e-08 4.157867e-08 2.362071e-06 0.0 4.3538503e-08
1.8054565e-09 9.781948e-09 1.2444915e-09 3.7728536e-09 6.7125455e-08 0.0 2.0341662e-09 1.4217315e-10
1.9817776e-06 1.4262584e-07 7.740654e-08 4.4143535e-06 0.0 8.262933e-08 1.4941439e-09 8.981412e-07
6.4830225e-08 3.7540868e-08 2.042289e-06 0.0 3.7142385e-08 1.975521e-09 3.3168995e-08 4.794084e-09
7.3820865e-09 2.3023046e-07 0.0 5.2232787e-09 2.8079236e-10 8.637549e-10 4.8760624e-11 2.1850469e-10
5.9069425e-09 0.0 1.3071548e-10 2.6668582e-11 7.400479e-07 7.347773e-08 3.0847684e-08 1.7551093e-06
0.0 3.572473e-08 9.9020014e-11 2.4545445e-06 1.5062959e-07 9.030081e-08 5.806545e-06 0.0
9.7378454e-08 3.570075e-09 3.3053768e-06 1.7087451e-07 1.03512434e-07 6.759562e-06 0.0 1.1551323e-07
6.223252e-09 2.4550195e-08 7.2474724e-09 7.291828e-09 3.5967713e-07 0.0 6.396499e-09 5.5036276e-10
1.4643054e-08 3.2384835e-09 4.9071707e-09 2.258804e-07 0.0 4.4829047e-09 5.195164e-10 5.433493e-09
3.879468e-10 2.88556e-10 1.130123e-08 0.0 2.6634106e-10 9.3475375e-12 3.9998986e-07 2.607256e-08
3.5609112e-08 1.2761168e-06 0.0 3.1609773e-08 2.6677982e-09 1.8423448e-09 2.1307721e-10 3.2680283e-10
9.042959e-09 0.0 3.4818332e-10 2.1565612e-11 8.5249843e-07 6.655817e-08 3.797032e-08 2.1377464e-06
00000000: 11b8 da35 19f0 0a34 f1a7 a833 49c2 9236
00000010: 0000 0000 599b b433 b23a 8d31 0b5d 2d30
00000020: 6588 942f 7a2c 602f 4847 ac31 0000 0000
00000030: 9d6d 412f f50f fe2c c011 e131 552f 1730
00000040: 722b cd2f 0705 7c32 0000 0000 48cb b22f
00000050: eab8 892d 59ae ca31 a17f b72f be9f ed2f
00000060: 2f31 8932 0000 0000 0839 ec2f e763 862e
00000070: da3d 522f 9778 1b2e 5ceb 072e da40 8530
00000080: 0000 0000 b042 032e f783 202c f088 d231
00000090: 62f7 2830 0a30 952f 1b42 3332 0000 0000
000000a0: 4764 912f 2302 662c 6086 8d34 2739 a832
000000b0: dcd4 a532 7b89 2035 0000 0000 fa8d 8d32
000000c0: 6bbe 8130 60cd 0d32 5710 b830 6c7b f530
000000d0: 136a a433 0000 0000 cc56 e030 3d01 f02e
000000e0: d755 bc35 8003 a533 b079 8333 e333 1e36
000000f0: 0000 0000 3bd5 4233 f1d4 2a31 5963 eb34
00000100: 6f8a f032 d74b 6632 7141 5635 0000 0000
00000110: 4daa 8032 50ec 2e30 6519 3c36 def2 2234
00000120: e215 d733 3aa2 db36 0000 0000 e32b f133
00000130: 5691 ec31 8d7e 1533 df98 3232 2732 4c32
00000140: 2011 1935 0000 0000 6af1 3c32 c7ef fc2f
00000150: ee5a c933 ae6e 8d31 4500 6432 1144 9334
00000160: 0000 0000 d6d6 1f32 35a9 bf30 41fd 2032
00000170: 3e6c 3e30 52d3 e42f 8fde f832 0000 0000
00000180: 0e47 fe2f dd56 e52d baa4 8d36 84d6 8934
00000190: 6332 3934 5ea4 3437 0000 0000 5aea 4e34
000001a0: a117 2b32 fc41 d235 2806 1734 838c c633
000001b0: 0b2b a636 0000 0000 0b99 d133 2329 c531
000001c0: 8a17 9030 154b 632f 90fc 2c2f 55f8 de31
000001d0: 0000 0000 c0da 402f 5481 772d a364 0437
000001e0: 5586 dd34 c743 8534 6a6b 7837 0000 0000
000001f0: 46c2 9134 84bb 7b32 fa23 5034 367c b232
00000200: 557f be32 b090 9e35 0000 0000 b482 0933
00000210: f07b f030 d53f f734 4ccd 1533 d8b6 9732
00000220: 4a35 6635 0000 0000 7c2c 9832 af73 c92f
00000230: bb1b 0131 548a 922f 83f7 1e2f 6749 a631
00000240: 0000 0000 a268 222f 0724 d12c 1264 df35
00000250: 1b99 f133 c1a0 9c33 aaae 8636 0000 0000
00000260: 0c94 9d33 3ecb 5f31 0a7f 6735 5663 9533
00000270: 3b94 3233 1284 1e36 0000 0000 17ff 3a33
00000280: da23 f830 760d 2832 a70a ab30 5fa2 8131
00000290: 9c26 9033 0000 0000 6ec9 0b31 2f52 1c2f
000002a0: aefe 0436 b124 1934 b23a a633 021f 9436
000002b0: 0000 0000 f471 b133 845a cd30 cb17 7135
000002c0: cb38 8b33 9f3c 2133 420e 0936 0000 0000
000002d0: 7c86 1f33 bcc1 0731 b275 0e33 35b9 a431
000002e0: 85a5 fd31 4435 7734 0000 0000 7278 b331
000002f0: 035e 9a2f 596d 6d30 9573 562e 9a3f 702f
00000300: 04f6 ca31 0000 0000 23b9 0f2f 4f94 ea2d
00000310: b4a7 4635 cfca 9d33 637d 0433 1991 eb35
00000320: 0000 0000 c26f 1933 50bf d92e c1b8 2436
00000330: bfbc 2134 65eb c133 d7d5 c236 0000 0000
00000340: 5f1e d133 6c55 7531 f1d1 5d36 a179 3734
00000350: 904a de33 32d0 e236 0000 0000 1210 f833
00000360: 4ed4 d531 73e2 d232 7105 f931 998b fa31
00000370: a619 c134 0000 0000 33c8 db31 5648 1730
00000380: d590 7b32 018c 5e31 ee9b a831 8889 7234
00000390: 0000 0000 0c08 9a31 b7cd 0e30 83b1 ba31
000003a0: a946 d52f a6a2 9e2f 5627 4232 0000 0000
000003b0: 2c6c 922f 9171 242d 30be d634 2af6 df32
000003c0: a2f0 1833 0a47 ab35 0000 0000 50c3 0733
000003d0: 6754 3731 bf35 fd30 e747 6a2f 69a9 b32f
000003e0: 5b5b 1b32 0000 0000 726a bf2f 71b1 bd2d
000003f0: 3fd7 6435 beee 8e33 cf14 2333 3476 0f36

exp_avg f4 [128]
-1.9740248e-05 -1.7879084e-06 1.0441244e-06 3.6946201e-07 -1.5487433e-06 1.780191e-07 -9.084542e-06 1.5983404e-06
-5.7896214e-05 -5.2745127e-05 -8.259542e-06 3.7319354e-05 -1.108037e-05 6.2928257e-06 7.556791e-05 -2.7407223e-05
-1.9307097e-06 -0.00012101792 -1.1786399e-05 2.662566e-05 -1.2623431e-06 1.0962216e-05 -4.2479583e-05 -3.928609e-06
-2.3441575e-05 -2.1844098e-05 -5.9084823e-06 1.0392655e-09 -2.0275718e-05 -6.176396e-05 2.772165e-05 -2.3817785e-05
-1.5589623e-05 2.3405273e-06 1.9045445e-05 1.771594e-08 -3.1467847e-05 9.349834e-08 6.376689e-05 1.0963647e-06
-8.397559e-05 4.3170872e-05 2.5872794e-05 -1.9057536e-05 3.7827085e-06 3.2990763e-06 -1.2645039e-05 3.1694057e-05
3.7383305e-07 -1.628942e-05 -7.978133e-05 -3.0412434e-07 9.683254e-06 -3.5082867e-05 2.5409645e-06 -6.288506e-05
2.1428414e-05 -2.026085e-06 8.7017404e-05 6.321344e-06 6.7641263e-06 7.712732e-06 -9.635253e-07 -4.966604e-07
-7.0440196e-06 -4.317229e-05 2.7774743e-06 -6.09941e-05 -1.3368814e-06 1.45302365e-05 -8.584097e-05 9.799602e-09
-2.4136054e-05 8.290935e-05 -2.8286495e-05 -4.5260476e-05 -1.2329816e-05 -3.7201808e-06 -1.0047522e-05 -2.695186e-05
5.6334233e-05 -7.139143e-08 -2.2180166e-06 -3.5377611e-06 -2.1232248e-05 -2.0441464e-06 3.5073812e-05 -5.1267557e-06
-5.00106e-06 5.4266384e-05 8.133062e-07 -3.147789e-06 -4.9066466e-06 7.085359e-05 4.1062638e-05 -5.8684924e-05
-3.2442122e-06 -3.2416094e-05 -1.6902584e-05 -2.0492892e-06 -2.7324053e-05 -1.1179246e-05 9.285077e-06 -1.4621472e-06
3.0261164e-05 1.009756e-06 2.8422113e-05 5.4802582e-05 6.9179056e-05 -8.305319e-05 3.1624415e-05 3.3740263e-05
-8.299826e-06 -4.8939473e-06 -3.0599094e-05 -1.4977269e-05 -4.1437506e-05 -2.9264813e-05 4.5797566e-05 1.7103272e-05
-2.5400788e-05 -3.4409231e-06 8.641825e-06 -7.646382e-06 3.449398e-05 -5.2822845e-05 6.461215e-05 8.1917796e-07
00000000: dc97 a5b7 11f8 efb5 d723 8c35 795a c634
00000010: 6ade cfb5 8525 3f34 d069 18b7 8f86 d635
00000020: 96d5 72b8 a63a 5db8 7692 0ab7 5a87 1c38
00000030: d4e5 39b7 f626 d336 367a 9e38 90e8 e5b7
00000040: 5791 01b6 00cb fdb8 33be 45b7 2b5a df37
00000050: c76d a9b5 5cea 3737 1b2c 32b8 7fd2 83b6
00000060: 66a4 c4b7 d83d b7b7 7a41 c6b6 e7d5 8e30
00000070: c615 aab7 4687 81b8 ca8b e837 4ecc c7b7
00000080: 76c6 82b7 f411 1d36 c8c3 9f37 c42d 9832
00000090: 58fc 03b8 42c9 c833 97ba 8538 ce26 9335
000000a0: 0d1c b0b8 5f12 3538 6709 d937 bfdd 9fb7
000000b0: 70da 7d36 b365 5d36 0726 54b7 3cef 0438
000000c0: 39b3 c834 43a5 88b7 4750 a7b8 8846 a3b4
000000d0: 4275 2237 f125 13b8 7085 2a36 29e1 83b8
000000e0: 2bc1 b337 e0f7 07b6 1d7d b638 ee1b d436
000000f0: 67f7 e236 ef65 0137 7a52 81b5 3e52 05b5
00000100: ab5b ecb6 e513 35b8 a564 3a36 ebd3 7fb8
00000110: e56e b3b5 e4c6 7337 8505 b4b8 1b5b 2832
00000120: c877 cab7 9edf ad38 c948 edb7 11d6 3db8
00000130: 28dc 4eb7 38a8 79b6 c791 28b7 ae16 e2b7
00000140: 6c48 6c38 db4f 99b3 3cd9 14b6 466a 6db6
00000150: e81b b2b7 2b2e 09b6 381c 1338 7f06 acb6
00000160: c7ce a7b6 169c 6338 fa51 5a35 9a3e 53b6
00000170: c6a3 a4b6 3b97 9438 ac3a 2c38 7524 76b8
00000180: 24b7 59b6 84f6 07b8 06ca 8db7 8586 09b6
00000190: f535 e5b7 7f8e 3bb7 1ac7 1b37 ff3e c4b5
000001a0: 5bd9 fd37 f486 8735 066c ee37 d3db 6538
000001b0: 3914 9138 d82c aeb8 75a4 0438 5584 0d38
000001c0: 7b3f 0bb7 b036 a4b6 8757 00b8 e146 7bb7
000001d0: 2fcd 2db8 b57d f5b7 c316 4038 ff78 8f37
000001e0: c713 d5b7 9cea 66b6 5bfc 1037 f648 00b7
000001f0: a1ad 1038 198e 5db8 6280 8738 7be5 5b35
