results/LavaTest/Lava/Lava-101837.pt (torch, 451049 bytes, 42 tensors)

network_body._body_endoder.seq_layers.0.weight f4 [128, 7]
000000 f4 04 af bd c8 72 5c be 79 a5 c1 3e 0d 28 97 be
       -0.085458666 -0.2152816 0.37821558 -0.29522744
000010 90 81 fc 3e cc 62 df be 8b ae ae 3c 4a 73 27 3e
       0.49317598 -0.43630064 0.021323463 0.16352573
000020 78 6e 1b be 91 f5 c0 be 74 dd 92 be 89 52 8a be
       -0.15178859 -0.37687352 -0.2868458 -0.27016094
000030 3b 14 bc be 89 a6 dc be 17 49 3e bf 97 1e e5 3d
       -0.36734185 -0.43095806 -0.74330276 0.11187475
000040 f6 fe 33 bf d2 3e a5 3e 92 65 28 bf 72 4d 2c 3e
       -0.70310915 0.3227449 -0.65779984 0.16826418
000050 ee 4f f2 be e4 c6 d9 3e b5 16 a5 be b5 26 4a 3e
       -0.47326607 0.42534554 -0.32243887 0.19741328
000060 9b 71 ae 3e 3b 02 02 be 2c d7 01 3f 5a f2 29 be
       0.3407105 -0.12696163 0.5071895 -0.16596356
000070 7b 0d 0e 3f df e7 2e 3e f6 8f d0 3d 64 c2 dd bc
       0.5548932 0.1708064 0.10183708 -0.027070232
000080 31 66 01 bf bc 41 60 be 5d 63 de be df 8a ee be
       -0.50546557 -0.21900076 -0.43435183 -0.46590325
000090 4c ff a1 bd dd 43 d2 3d df 13 19 bf 75 2c 9f 3e
       -0.07910022 0.1026685 -0.59795946 0.31088606
0000a0 83 cb 29 3f 5f 1e 01 bf 42 22 b2 3c 98 5b 48 be
       0.6632616 -0.5043697 0.021744851 -0.1956619
0000b0 da f1 eb be 46 bd 94 3e a2 37 0e be fb a6 a6 bd
       -0.46082956 0.29050654 -0.1388841 -0.08137318
0000c0 28 f5 9f bd 18 3b d9 be e1 bf 23 bd 86 f8 92 be
       -0.07810432 -0.42427897 -0.03997791 -0.28705233
0000d0 21 4a 78 be 0d 90 02 bf b3 70 c3 3e d3 8f 1e 3f
       -0.24247028 -0.51001054 0.3817192 0.6193821
0000e0 2c 34 b3 be 94 74 62 be 88 5a b4 be 99 8e 27 3f
       -0.3500074 -0.22114784 -0.3522532 0.6545196
0000f0 bf fd 3a bf 93 87 8a be 88 2b cb 3e 9f 59 da 3c
       -0.73043436 -0.2705656 0.3968165 0.026654063
000100 d0 55 b2 be 3b 8d 5d 3d bc 1d ac 3e ff bd c7 be
       -0.34831095 0.054089766 0.33616436 -0.39012143
000110 45 f7 79 be 34 0a 17 3e fd a4 8f be 94 a3 32 bc
       -0.24410732 0.14749986 -0.28055564 -0.010903258
000120 42 bf c0 3e 44 bf af ba b1 d1 09 3f 5e 17 04 bf
       0.37645918 -0.0013408442 0.5383559 -0.51598155
000130 68 c5 7b 3e 5d eb ea 3e b6 53 56 bd 3e 8e 60 be
       0.24587023 0.45882693 -0.052325927 -0.21929261
000140 f6 3a c0 3e 11 4a 84 ba 9a c0 f8 be 18 e5 92 be
       0.37544984 -0.0010092874 -0.48584443 -0.2869041
000150 c8 47 1c 3e 33 7a 60 be de 27 83 be 5c c8 1b bf
       0.15261757 -0.21921615 -0.25616354 -0.608526
000160 a4 41 af be 50 f2 bf be 9c 1a ab 3d f8 c7 c8 3d
       -0.34229767 -0.37489557 0.08354685 0.09803766
000170 0f 75 e0 be e1 a1 f3 bd 1b da 59 be 84 41 c4 be
       -0.4383931 -0.1189611 -0.21274607 -0.38331234
000180 8c 35 9e 3e a4 29 86 be 76 0d 0e be 43 d9 3c bf
       0.30900228 -0.26203644 -0.13872322 -0.73769015
000190 0d 90 73 be 42 9d 06 3f ba 4b 93 3d a1 3e 07 3e
       -0.2378542 0.52583706 0.07192178 0.13207485
0001a0 90 42 12 bf ba 1a 8e bc 5d 1d 25 be fb 41 53 be
       -0.57132816 -0.017346729 -0.16124482 -0.20630638
0001b0 44 d5 1a 3f bc c1 c9 be dc a4 b3 be a2 6e d7 bd
       0.6048167 -0.3940562 -0.35086715 -0.105191484
0001c0 5f fe 4e 3c f4 50 16 bf e0 8a 7e 3e 37 15 fc be
       0.012633889 -0.58717275 0.24857664 -0.49234936
0001d0 e4 74 26 3d be a7 33 be b6 42 a9 bc fa da 3d 3e
       0.04063882 -0.17544457 -0.020661693 0.18540564
0001e0 b9 96 79 be 6e 14 15 3e 2f d9 2b 3e 2e 49 1d bf
       -0.24373902 0.14558575 0.16782068 -0.6143979
0001f0 cf 10 d0 3e 75 e4 f6 be 9b 63 83 bd 59 ca a6 3e
       0.40637824 -0.48221174 -0.064154826 0.32576254
000200 8d bb 8e 3e 11 df f5 be 2f 7a bd 3e 63 fe cd 3e
       0.27877465 -0.4802175 0.3700728 0.40233144
000210 89 9a a0 be 5d aa 85 3e 84 a4 1e 3e e8 16 00 be
       -0.313679 0.2610654 0.15492445 -0.12508738
000220 4c 87 4c be 86 a6 b9 be 8b 47 76 3e 5b 43 80 be
       -0.19973487 -0.3625986 0.24050729 -0.25051388
000230 f1 1c c1 3d 84 dd 21 be 08 49 98 3e 7d b1 93 be
       0.09429348 -0.15807158 0.29743218 -0.2884635
000240 bf b9 ec be 89 b1 34 3e f0 ad 19 3f d2 8c f8 3d
       -0.46235463 0.1764585 0.6003103 0.12136234
000250 54 7a 13 bf d3 ef 07 bf d8 84 9b bd 9d 0f 89 3e
       -0.5760853 -0.5310032 -0.07593697 0.26769724
000260 dd 3a 21 3f b0 46 c9 3e 20 a5 7f 3e fa 3c 02 be
       0.62980443 0.39311743 0.24965334 -0.12718573
000270 9e e0 0a bf 43 5f 9e 3e 97 b9 87 3e 30 d6 89 be
       -0.5424899 0.30932054 0.2650878 -0.26921225
000280 d2 ed ca be 28 54 a8 3d 2f c8 02 3e e1 5d 9f be
       -0.39634567 0.082191765 0.12771676 -0.3112631
000290 36 94 48 bf 8d cb d1 be f8 a3 01 be ad 75 f1 3e
       -0.7835115 -0.4097561 -0.12660205 0.47160092
0002a0 65 ff 29 3f 8f f7 ca bd e0 0e 6e be f8 f3 dd be
       0.66405326 -0.09910499 -0.23247862 -0.43350196
0002b0 a0 eb 1f be 2c 0f e0 bd 25 2f 7c 3e 01 9e 79 be
       -0.15617228 -0.10940394 0.24627359 -0.2437668
0002c0 60 78 c7 3d 67 4d 17 be 8a 3f 67 bf 88 4b bf be
       0.097397566 -0.1477562 -0.9033133 -0.37362313
0002d0 9e df c1 be 42 80 ae 3e 64 66 19 3e ca 3c c5 be
       -0.3786592 0.34082228 0.14980465 -0.3852294
0002e0 a2 50 2b 3f 50 c9 0c 3f 4f ca 74 3e e8 cf 16 bf
       0.6691991 0.5499468 0.239053 -0.5891099
0002f0 4c 0d ac be 0b 8a d2 be c3 e9 1b 3d a9 da b2 3e
       -0.33603895 -0.41120943 0.03806473 0.3493245
000300 60 f5 3c 3f f9 40 cb 3d 56 d2 00 3e 1f e7 0e be
       0.7381191 0.09924502 0.12580237 -0.13955353
000310 2a c7 1b bf a5 00 b4 3d 7a 9c cd be e5 5a d0 bc
       -0.60850775 0.087891854 -0.40158445 -0.025433967
000320 2e 27 fc 3e 2a d6 77 3e 94 4b a3 3e e5 1b 27 3f
       0.49248642 0.24202791 0.318936 0.6527694
000330 6c 5f 1c 3e 9d 79 73 3e 91 58 16 be 66 00 13 bf
       0.15270776 0.2377686 -0.14682223 -0.5742248
000340 3a 21 02 bf fe 19 ba 3e 45 57 10 be 10 b4 c0 bd
       -0.5083195 0.36347955 -0.1409579 -0.09409344
000350 69 b3 a8 be 49 b1 98 3e e3 7e e1 bd a9 d0 00 bf
       -0.3294938 0.29822758 -0.1101053 -0.5031839
000360 2e aa 4e be b0 f4 80 3d f0 cd 09 bd 81 49 28 3f
       -0.20182106 0.062966704 -0.033643663 0.6573716
000370 3a 72 9d be fb f2 ff be 86 c4 bc 3e 71 0c 8a 3e
       -0.3075121 -0.49990067 0.36868685 0.26962617
000380 17 13 3f 3e 52 e9 66 be 6d f7 51 3f 0b 71 1f 3d
       0.18659626 -0.22549942 0.82018167 0.038926166
000390 a3 c9 78 bc 5d 3b 80 3e 6c af 76 be 03 5a b1 3d
       -0.015184793 0.2504529 -0.24090356 0.086597465
0003a0 0f 3a 5c 3d 61 01 55 bf ef 46 e4 be a4 5f c2 bd
       0.053766306 -0.8320523 -0.44585368 -0.09490898
0003b0 c9 ac d4 be b4 8e 15 bf b9 63 8b 3e 0b 6e 0a be
       -0.41538075 -0.5842087 0.2722452 -0.1351854
0003c0 04 f7 aa be 15 fc 41 3e 9d 9c 84 bd 6d 9a 01 bc
       -0.33391583 0.18943818 -0.06475184 -0.007910353
0003d0 0f 0b ad be 82 ea 20 3c 24 2f 19 3e 9f 7b 38 3f
       -0.337975 0.009821536 0.14959389 0.7206363
0003e0 11 ba 71 3d 20 bc 0d 3e d2 c9 97 bd 2c a9 95 3e
       0.059015337 0.13841295 -0.07411541 0.2923063
0003f0 6b f1 bc bc 52 8f 20 3f b9 eb 85 3e 9b 95 33 3e
       -0.023064336 0.6271869 0.26156405 0.17537539

network_body._body_endoder.seq_layers.0.bias f4 [128]
000000 3b e7 d2 3b 96 6d 0d bc 57 86 62 bb 8f e4 54 bb
       0.006436256 -0.008632084 -0.0034564936 -0.0032484864
000010 98 1b ac bb bb a9 c6 3b f2 ff ff 39 b4 7f e2 bc
       -0.005252313 0.006062714 0.00048828084 -0.027648784
000020 77 c0 d0 3b fa 9a c1 ba 19 24 0b 3c 27 f7 0f bc
       0.0063706 -0.0014770918 0.008492493 -0.008786953
000030 8e 4d 83 bc b3 bf 91 b9 fd c3 2f 3b 58 c8 3f 3b
       -0.016028192 -0.00027799382 0.00268197 0.0029263701
000040 b8 4e 7a 3c f5 1e 84 bb 0e de da 3b a4 9f 89 3a
       0.015277557 -0.0040320107 0.006679303 0.0010499847
000050 52 d3 bb bb 56 16 dc 3c 68 21 fc ba 85 0f a4 3b
       -0.0057319785 0.02686612 -0.001923603 0.005006733
000060 f4 49 ce 3b 03 2b b0 3c 6e 1c d7 ba d3 8b 1a 3b
       0.006295437 0.021504885 -0.0016411671 0.0023581877
000070 09 5f 97 3c 8a bc c9 bb d5 77 04 3c b8 a5 b1 3b
       0.018477933 -0.006156509 0.008085211 0.0054213665
000080 4d 5a b7 3c 2a 39 22 3b 1d 72 b8 3a af d4 86 3b
       0.022381926 0.002475331 0.0014072094 0.0041147093
000090 b7 0a 19 ba c2 6d 02 3d 29 d6 d3 3b 8b dd b5 bb
       -0.00058380835 0.031842954 0.006464739 -0.0055500916
0000a0 24 8c ac 3c 8e 8e 4a bb 3d bd 5b bc 1f 8b 1f bb
       0.021062918 -0.0030907723 -0.013411817 -0.0024344397
0000b0 9d ba f6 bb 50 06 d5 39 0b ea ec bb 4e 71 24 bc
       -0.0075295703 0.0004063123 -0.0072300485 -0.01003678
0000c0 ae 11 ae ba 64 3c 25 3b 4c 25 9b bb 67 61 6a 3b
       -0.0013280415 0.0025212998 -0.0047346707 0.0035763623
0000d0 96 fb fa bb e4 ad 1d bc 74 7d f7 3b a8 77 53 3b
       -0.007659386 -0.009623978 0.007552797 0.0032267366
0000e0 e3 e3 04 3b 28 27 99 3c d0 dd 14 3a ce 2e 10 bc
       0.0020277433 0.018695429 0.00056788046 -0.008800222
0000f0 ee e0 ef bb bb 0b 7f 3a 74 37 d2 3a 20 48 0a bc
       -0.007320515 0.0009729226 0.0016038255 -0.0084400475
000100 96 81 00 3c 9d 8b b5 3b 97 4c 1d 3b 38 fd 32 bc
       0.007843396 0.005540325 0.002400195 -0.01092463
000110 d8 4a 7c bc a6 30 11 3b 81 96 b7 b8 17 91 38 3c
       -0.0153987035 0.002215424 -8.7541535e-05 0.011265061
000120 4b e7 b2 bc b1 67 40 3c bf 26 7b 3b b0 44 2a ba
       -0.021838805 0.011743472 0.0038322655 -0.00064952206
000130 56 ad 38 38 1b f2 53 3c d2 4f f1 3a 4d cf 55 3c
       4.403045e-05 0.01293614 0.0018410629 0.013049913
000140 f2 71 2d 3c c2 c6 42 3b bf 7b a7 3c 11 21 6e bb
       0.010586249 0.002972052 0.020444749 -0.0036335627
000150 21 67 0c bb 2f a8 fa ba d1 13 83 bb f3 21 48 b9
       -0.0021423774 -0.0019123609 -0.004000165 -0.00019086133
000160 1d 64 95 3b 53 04 0c bc c0 a7 7e 3a 8d 10 db 3b
       0.0045590536 -0.008545953 0.0009714328 0.0066853226
000170 8a 9b d5 bb d1 61 d6 3b aa fd 22 3c ff 5b 64 bc
       -0.006518786 0.0065424223 0.009948174 -0.013937949
000180 91 64 07 3b 90 44 c5 ba a5 e2 a4 38 be e6 3c 3a
       0.0020659307 -0.001505034 7.862345e-05 0.0007206014
000190 67 cc 7c 3b 2a ba 55 bb b6 26 a7 bb 36 15 30 39
       0.0038573982 -0.0032612183 -0.0051010503 0.0001679257
0001a0 b3 39 38 bc b3 93 e2 3b 0d 3d 5f 3c 3e 58 86 bb
       -0.011244225 0.00691458 0.0136253955 -0.0040998748
0001b0 17 5a 74 bb 9f d6 df ba 3d 6a 1c bb 42 70 5c bb
       -0.0037285143 -0.0017077512 -0.0023867034 -0.0033636247
0001c0 51 89 9d 3b 22 11 e7 b8 39 c1 25 3c d4 6e 26 bb
       0.004807629 -0.000110181296 0.010116869 -0.0025395649
0001d0 6e b4 8e 3a 6d c5 09 3a f7 fc 4e bb 39 44 1c 3d
       0.0010887512 0.0005255554 -0.0031583884 0.038151
0001e0 34 62 78 bb a7 ce d2 39 29 4c b0 3c 6d 66 84 3b
       -0.003790033 0.0004020829 0.021520691 0.0040405304
0001f0 3f 03 3b ba a9 a4 86 3b e3 a3 8c 3b bb 5a 93 39
       -0.00071339676 0.0041089845 0.0042919978 0.00028105624

network_body._body_endoder.seq_layers.2.weight f4 [128, 128]
000000 84 11 80 3e 84 66 1c be b2 45 8e bd cc d5 8b bd
       0.25013363 -0.15273482 -0.06946887 -0.06827888
000010 e0 05 14 bd 7b 89 3d bd 24 39 d8 bd 19 9f ec 3c
       -0.036138415 -0.04627369 -0.10557774 0.028884457
000020 63 dc 8e bd 05 46 00 3d 2a e2 19 be d3 a0 2d 3e
       -0.06975629 0.031316776 -0.15027681 0.16955881
000030 ff a2 37 3d d9 07 99 3d 62 be 98 3d 26 88 4e be
       0.04483318 0.074722 0.07458188 -0.20169124
000040 4d 0f 8e 3c 84 2d 5a bc 0a f8 c6 3c 52 d9 06 be
       0.01734128 -0.013316516 0.024288196 -0.13168839
000050 7a c2 f9 3d 24 db b5 3d a7 0b d9 3d d7 98 27 be
       0.121952966 0.088796884 0.10597926 -0.16366898
000060 c1 b8 83 bd 9f f4 ea bb 44 fe ca 3d 10 02 7f 3d
       -0.064317234 -0.0071702744 0.099117786 0.062257826
000070 6b b2 63 3d e7 66 50 3e 05 25 53 3d 4e b8 d2 3d
       0.055590075 0.20351754 0.051548976 0.102890596
000080 3e ca 42 3c 99 9b 80 3c 76 1b 85 3d f0 88 8d 3d
       0.011889039 0.015699195 0.064993784 0.069108844
000090 2c 67 4c 3d 7b ed 04 3e 5a fb 7f bd cf da 0a be
       0.04990308 0.12981217 -0.062495567 -0.13560031
0000a0 c8 3c 04 be e8 9d 51 bc bb 3f 3d 3c d0 28 93 3d
       -0.12913811 -0.012793995 0.011550839 0.07185519
0000b0 94 b0 1a bc b4 f5 bf 3d d5 f2 bf 3d cf a0 15 3d
       -0.009441514 0.09373036 0.093724884 0.036530312
0000c0 11 77 19 be 0b 83 63 3d 84 95 72 be 95 f4 e4 bd
       -0.14986826 0.055544894 -0.23689848 -0.11179463
0000d0 fe 5d 85 bc 48 28 56 bc 40 1d 7e bd ae f8 a7 bc
       -0.01628017 -0.013071127 -0.062039614 -0.020504322
0000e0 56 00 a3 3c a7 ac 8c 3d 4a f2 d4 bd d1 b1 b9 3d
       0.019897621 0.06868868 -0.103977755 0.09067119
0000f0 dd db 73 3b 24 5b 6e bd 45 96 79 bd 04 65 ff 3b
       0.0037209906 -0.058192387 -0.060934324 0.0077940244
000100 1f d9 b6 bc 8e 1b c3 3c a7 47 38 be 08 b7 10 3e
       -0.022320328 0.02381685 -0.17996083 0.14132321
000110 ad 6e 05 3e 3c 1c 00 be 61 df d7 bd 46 0e c2 3d
       0.130305 -0.1251077 -0.10540653 0.09475379
000120 4c 33 a2 3d 6e a8 93 be 96 44 d6 ba 0a 93 a3 bd
       0.0791994 -0.2883944 -0.0016347344 -0.0798703
000130 65 7c f5 bc 75 b8 1b bd fa 01 b3 bd f5 8f 5d 3d
       -0.029966542 -0.03801771 -0.087406114 0.054092366
000140 14 b4 0e bd 32 7b ea bc 8a 9f 4a 3d c6 d9 75 bd
       -0.034839705 -0.028623197 0.049468555 -0.060022138
000150 1e ed 8c 3c 35 94 36 3d 84 9d 2c 3e 1d af 2a bb
       0.01720291 0.044574935 0.16856962 -0.0026044317
000160 3c cb 36 3e bc cc e8 3d f9 f6 fc bd 3d ab 80 bd
       0.17850965 0.11367175 -0.12351794 -0.06282661
000170 f0 12 c3 bc da 52 98 bd c0 bf cc 3d c7 53 b0 bc
       -0.023812741 -0.07437678 0.09997511 -0.021524323
000180 1e 83 d6 3d 78 cd 18 be 55 51 1e 3e 4e 42 96 3e
       0.10474227 -0.1492213 0.15460713 0.2934746
000190 50 b5 7d 3d 92 52 51 3d de b4 ae 3d b0 42 04 bd
       0.06194049 0.051104136 0.085305914 -0.03229016
0001a0 5a 77 56 bd e7 50 98 3d d8 e9 34 3d a3 d9 16 bd
       -0.052359916 0.07437306 0.044168323 -0.03682865
0001b0 d8 67 23 bd ce af 30 bc b5 f6 39 bd 89 a7 ea 3d
       -0.039893955 -0.010784103 -0.045401294 0.11457736
0001c0 9e fc df 3b 3f fe 65 bc 35 f4 80 3d f8 04 35 be
       0.0068355342 -0.014037668 0.06296579 -0.17677677
0001d0 d8 a2 ca bd 5f f8 d4 bc 60 78 c9 3d ae cd 80 bd
       -0.09894341 -0.025997339 0.09837413 -0.0628923
0001e0 d5 1b 64 3e 9e 3d de 3c 42 0a ab 3d 01 8a c4 3c
       0.22276242 0.02712899 0.08351566 0.023991587
0001f0 42 2c 9b bd 8b 4c 83 3d 5c 9b 27 3e a3 e6 4a bc
       -0.07576801 0.06411084 0.16367859 -0.01238409
000200 73 54 ca bc bd a9 25 bc 70 a0 aa b8 fc ec 81 bc
       -0.024698472 -0.01011127 -8.1361155e-05 -0.015860073
000210 70 b1 2e 3d 66 f7 72 bd b5 60 a2 bc 3b 98 59 bd
       0.042649686 -0.05931797 -0.019821504 -0.053123694
000220 4e 53 d0 bd 9d 5e 25 3d 31 47 8d bc ec f1 28 3d
       -0.10172139 0.040373433 -0.01724586 0.04124634
000230 3a a5 82 bb 9b 16 c4 39 15 d3 b4 3c 62 ea 07 3e
       -0.0039869817 0.00037400876 0.022073308 0.13273004
000240 6b 3b 11 ba 61 c7 89 bc de 4c 04 be 20 bd 06 be
       -0.0005540165 -0.016818704 -0.12919948 -0.13158083
000250 81 f3 84 bd cd 88 30 bd 5a 17 f2 3c 02 9b e6 bc
       -0.06491757 -0.043099213 0.02955215 -0.028150085
000260 89 5e bc 3d cd 36 66 bc 41 2f 26 3d 12 1c 43 3d
       0.09197719 -0.014051151 0.04057241 0.04763419
000270 4d ef 74 bd bb b1 37 bd a4 43 28 bd 3f fc 0c 3d
       -0.059798528 -0.04484723 -0.041080132 0.034420248
000280 71 da 11 3d 1b 35 ac 3d f0 30 c3 3d f0 14 13 be
       0.035608713 0.084085666 0.095308185 -0.14363456
000290 f2 a4 59 be 4d 36 45 bd b9 8b 00 be c1 97 5c bd
       -0.21254328 -0.04814749 -0.125533 -0.05385566
0002a0 7c 22 66 bd f8 13 6f bc da 4a 1a be eb de fd 3c
       -0.05618523 -0.014592163 -0.15067616 0.030990085
0002b0 6b 0c 39 3e 69 1e cb bd 5d da 98 bd 81 52 e4 bc
       0.18071143 -0.0991791 -0.074635245 -0.027871372
0002c0 41 ec 54 3d 20 94 f9 3c db 46 ee 3d 83 13 aa bd
       0.05198312 0.03046614 0.11634608 -0.08304503
0002d0 23 f6 58 3d d5 c3 84 bc 5f a9 8c 3d 32 26 c7 3d
       0.05296911 -0.016206661 0.068682425 0.09724082
0002e0 c7 59 9a bc 6f 86 8d 3d 82 89 0e be 1d 6a bc 3d
       -0.018841637 0.06910407 -0.13919643 0.09199927
0002f0 df 4a b1 3d 51 5c a1 bd 97 97 73 bd 86 44 f6 3d
       0.08656859 -0.07878936 -0.05947074 0.120247886
000300 8a a0 1a bc b8 ea cd bd 65 9b 1d 3d 0e d9 89 bc
       -0.00943769 -0.10054535 0.038478274 -0.016827133
000310 d8 6a 38 bc 67 aa ac bd 88 c9 ce 3d 44 3e e9 b8
       -0.011255942 -0.08430939 0.10097033 -0.00011121904
000320 1c 9b 93 3c d4 68 a6 3b 0b 98 26 bd 2f 77 7c 3c
       0.018018298 0.0050784145 -0.040672343 0.015409275
000330 85 40 bd bc 6c 90 ce bc bc 5a d5 bb 95 d7 29 3d
       -0.023102054 -0.02521535 -0.0065110605 0.04146536
000340 34 88 95 bd 32 52 03 be a3 8f 9f bc 29 a4 96 bb
       -0.07301369 -0.12824324 -0.019477671 -0.004597206
000350 8b 6c fe 3d c4 ab 75 bd f7 eb a9 3d 28 d7 07 be
       0.12423047 -0.05997826 0.0829696 -0.1326567
000360 34 8c 07 3e c2 1f cc 3d 48 75 b7 bd 12 34 6f bd
       0.13237077 0.09966995 -0.089579165 -0.058399267
000370 f8 2c 70 3b 0a ad 2d bd 67 e0 b1 bd 7f 06 89 3d
       0.0036647897 -0.04240135 -0.086853795 0.06690692
000380 9d ae 01 3d 36 cc 8a bd b4 f2 a1 3d 82 f6 d1 3d
       0.031660665 -0.067772314 0.0790762 0.10252096
000390 40 b6 fd 3d 5f 2d d3 3d 71 1e 28 be e7 75 37 3e
       0.12388277 0.10311388 -0.16417862 0.1791607
0003a0 b3 37 07 bd e5 56 4d 3d 6b 6c 00 3d 93 b6 5d bd
       -0.033012103 0.050131697 0.031353395 -0.054129194
0003b0 4a 57 47 bd 94 cf c0 3c d8 e1 1e 3e 21 b6 b8 bd
       -0.04866723 0.023536481 0.1551584 -0.09019113
0003c0 50 cf 83 3d 91 d5 93 3d 89 11 1d bd 8f fc 61 bc
       0.06436026 0.07218469 -0.0383468 -0.013793125
0003d0 e2 18 03 3e a6 e2 a9 bd 00 3e 95 3d 1d eb 96 3d
       0.12802461 -0.08295183 0.07287216 0.07369063
0003e0 c1 d4 d3 3d 1d 8d aa bd 9f 1b ad b9 21 dc 62 3d
       0.10343314 -0.083276965 -0.0003301771 0.055385713
0003f0 31 e2 13 3e a7 41 a7 3d c3 9d 0a 3d ea 0d 02 bd
       0.14441754 0.08166819 0.03384186 -0.03175155

network_body._body_endoder.seq_layers.2.bias f4 [128]
000000 4f d1 98 bb d7 82 d0 39 a6 22 44 ba cb 5a 10 bc
       -0.0046636234 0.00039770335 -0.00074819697 -0.008810709
000010 d1 f8 cf 3a 00 9c 3f 3c cc 57 f4 3a d3 b3 dd 3b
       0.0015867 0.011694908 0.0018641888 0.0067658215
000020 cf fa dd 3b ef ae 3f ba 4d 68 a0 3b c7 ff a1 3b
       0.0067742835 -0.0007312139 0.004895246 0.004943821
000030 46 72 26 3a 2d 11 b0 ba 49 cd 25 3c a6 6f 52 3b
       0.00063494255 -0.0013432853 0.010119745 0.0032110005
000040 b8 1f e1 bb d3 1f cb 3b e3 0e 62 bb 4e f3 c8 3a
       -0.0068702362 0.006198862 -0.0034493736 0.00153313
000050 02 f3 ab 3b ab f6 80 3c 23 9b e2 3b ca b8 02 bb
       0.0052474746 0.01574262 0.0069154664 -0.0019946569
000060 46 31 c9 38 17 61 ce bb 96 6c af 3b 9e 15 1f 3b
       9.593605e-05 -0.006298195 0.0053535206 0.002427436
000070 90 eb db bb e3 eb c8 39 95 aa 86 3b 6f 06 c0 ba
       -0.006711431 0.00038322722 0.0041096904 -0.0014650355
000080 da 9d 4c 3b 26 ff d8 ba 9a 3d 1a bb 29 d6 7a 3c
       0.0031222017 -0.0016555532 -0.0023535253 0.015309849
000090 b3 ea a5 bb e6 c5 e2 bb 6f 09 f4 bb 8f a4 d0 3a
       -0.0050633787 -0.006920564 -0.0074474136 0.0015918183
0000a0 63 2a ab ba ec c1 a8 3b fb 81 37 3c ff a8 10 3b
       -0.0013058897 0.0051500704 0.011200423 0.0022073386
0000b0 84 3a a1 b9 9c ee 8b bb 95 4e 73 3b 26 4c 4b 38
       -0.0003075191 -0.004270388 0.0037125696 4.846989e-05
0000c0 20 fb a2 ba 23 fa e7 bb 8a 67 ea 3b 89 35 4f 3b
       -0.001243446 -0.007079379 0.007153456 0.0031617603
0000d0 e3 e3 73 3b 46 c4 a3 3b 0d 9e 5c 3c 0b 39 cc ba
       0.0037214688 0.004997763 0.013465417 -0.0015580965
0000e0 46 09 e9 bb 28 e8 83 ba 30 9c d1 3a 8d 4b 44 3b
       -0.007111701 -0.0010063695 0.0015991982 0.0029952258
0000f0 ad 16 aa bb 87 9b 6a 3c 5f 90 48 bb ba 7f 0d ba
       -0.0051906914 0.014319307 -0.003060363 -0.0005397756
000100 61 ea f6 ba 94 17 0f bc bd 48 95 3b cd 31 72 3b
       -0.0018838161 -0.008733649 0.00455579 0.0036955953
000110 7f ce c8 3a 9b c5 ed ba df 53 47 39 7b 24 21 bb
       0.001532033 -0.0018140556 0.00019009363 -0.0024588394
000120 bf 65 41 3b 13 e2 01 bc a5 67 37 bb dc cc 06 3b
       0.0029510108 -0.007927435 -0.002798536 0.0020568883
000130 1c 5c 8d 3b e3 b8 70 bb 9a 0b 59 bb 79 68 bb bb
       0.004313959 -0.0036731295 -0.0033118487 -0.005719241
000140 f0 15 73 3a d3 4c b6 bb d4 4c 94 ba 34 7c 34 3b
       0.00092729833 -0.0055633574 -0.00113144 0.002753985
000150 2f ee 9b 3b 9f 20 c8 bb 1e b5 62 bb 81 b3 78 bb
       0.0047586183 -0.0061074044 -0.0034592818 -0.003794879
000160 75 eb 93 3b b7 6e 7b ba a7 b2 9a 3c 03 25 46 ba
       0.0045141526 -0.0009591388 0.018884016 -0.0007558616
000170 d9 0f 45 3c fb e9 9f 3b 4f b6 4e 3b fe a5 0f bc
       0.012027704 0.0048801876 0.003154177 -0.008767603
000180 5b a8 07 bc 03 87 3e 3b d0 60 07 3c 46 9a 11 bc
       -0.008279885 0.0029072172 0.008262828 -0.008886879
000190 17 1d 57 b9 73 94 78 bb e7 90 f9 ba e5 96 a2 bb
       -0.00020514835 -0.003793028 -0.0019040377 -0.0049618357
0001a0 f1 35 1b 3c ac a9 7e bb 7d df b0 ba 34 2c d4 3b
       0.00947331 -0.0038858457 -0.0013494339 0.006474996
0001b0 66 97 88 3c c3 37 e6 3b 93 24 92 3c b2 f8 09 3b
       0.016673755 0.0070256903 0.017839706 0.0021052775
0001c0 77 9f b0 3b ae a1 53 bb b0 97 35 3b 63 65 30 3b
       0.0053901034 -0.0032292414 0.002770882 0.00269159
0001d0 7e f8 d9 b9 30 0c 33 3b 18 1a 14 3b e4 bd 93 3c
       -0.00041574606 0.0027320497 0.002259856 0.018034883
0001e0 f1 73 a5 3b ab 8b d0 3a f0 56 c4 3b 0a 5b 47 ba
       0.0050492217 0.0015910765 0.005991809 -0.00076048134
0001f0 9d ec 37 bc 12 52 89 3b 86 40 26 3b 1e da 60 3b
       -0.011225847 0.0041906917 0.0025368049 0.0034309695

action_model._continuous_distribution.log_sigma f4 [1, 2]
000000 cb 2f 2e 3c 7b b2 d0 bc
       0.010631512 -0.025475731

action_model._continuous_distribution.mu.weight f4 [2, 128]
000000 6f 81 01 bc 16 73 a8 3c 7d 7c 90 bc 22 97 b7 bc
       -0.0079043945 0.02056269 -0.017637486 -0.022410933
000010 2f c9 13 3c 89 7f 98 bd c7 f4 f3 bc ea 15 7e 3c
       0.009020134 -0.074462004 -0.029779805 0.015508154
000020 7d 41 1b 3d 79 b8 00 bd 0f de ce 3b 8e b4 57 bc
       0.03790425 -0.031425927 0.0063130925 -0.013165606
000030 d1 89 e6 bc df b5 05 bc 6f fc 0b bd fa cd 40 3c
       -0.028141888 -0.008161037 -0.034176286 0.011767859
000040 46 c6 6b bc ae fb 23 3d c2 32 fc bc 4a b1 05 bb
       -0.014390534 0.040034942 -0.030785922 -0.0020399862
000050 ef c0 a0 bc dd 5b 2b bc 8a f8 1a 3d 75 74 82 3b
       -0.019623248 -0.010458914 0.03783468 0.003981168
000060 2c af aa bc 62 7e cd bc cd 6c e0 bc ea d4 04 bc
       -0.020835482 -0.025084678 -0.02739563 -0.008107403
000070 1f 7b 83 bc c9 e4 d6 3a 36 9c 07 bd 74 ec c3 3a
       -0.01604992 0.0016395088 -0.03310796 0.0014947788
000080 93 97 86 bc ea 1e 81 bc 9f c3 ed bc 2b b1 29 bd
       -0.016429698 -0.015761811 -0.029023943 -0.041428726
000090 a0 20 06 3b dc aa f6 b8 b0 d7 eb bb 56 70 06 3d
       0.0020466223 -0.00011762019 -0.007197343 0.032821976
0000a0 98 7e 3b 3c 83 03 51 3c 86 96 2c 3c 83 f5 20 bc
       0.0114437565 0.012757185 0.010533934 -0.00982416
0000b0 51 2f 11 3c d9 17 9c 3a ce da 97 3b 50 24 0f 3d
       0.008861379 0.0011908963 0.004634238 0.03494674
0000c0 be af 3c bc 33 29 05 bd 39 9f 6b 3b 1e 11 e3 3b
       -0.01151651 -0.032509994 0.0035953058 0.0069295308
0000d0 09 0e b7 bc 1b db 01 3d 71 f9 ad bc d9 48 26 bc
       -0.02234556 0.031703096 -0.021237107 -0.010149204
0000e0 10 ee 2e bc f0 9a b4 bc 8c 72 52 bc 09 15 d2 bc
       -0.010676876 -0.022046536 -0.012844693 -0.025644796
0000f0 3f db 1e 3b 49 4a b2 3c b6 9d 5a bc 5e b5 29 3c
       0.0024239568 0.021763938 -0.013343265 0.010358183
000100 e7 69 04 bd a2 80 7a bb 35 7f b5 3c 96 f5 39 39
       -0.03232756 -0.0038223644 0.022155384 0.00017734463
000110 59 8d 5b 3d 3e 57 e3 3b a8 54 d5 bc 5b 97 d2 bc
       0.053601597 0.0069378903 -0.026041344 -0.025706938
000120 b2 02 e7 3c a1 3f 4e bc 73 6f 87 bb 2c 0f a8 3c
       0.028199527 -0.0125884125 -0.004133159 0.020515047
000130 84 75 3d bd 2b 5b a6 bc c8 72 3e bc ba 62 33 bc
       -0.04625465 -0.020307144 -0.011624046 -0.010948831
000140 c9 4e 5c 3c 36 39 30 b9 ec d0 43 bc 9b 38 9e bb
       0.013446518 -0.0001680598 -0.011951666 -0.0048285252
000150 30 30 02 3c af 51 ff ba 54 f6 98 bb 8c ca 1c bd
       0.007946059 -0.00194793 -0.0046680365 -0.0382791
000160 bd 18 04 3d b2 ef b6 ba f0 9d c5 39 1b 79 c8 3b
       0.032250155 -0.0013956933 0.0003769244 0.0061179525
000170 68 c1 45 3b 16 dd d6 3c ba 0b 3f bc 83 76 9a bc
       0.0030175094 0.026228469 -0.011660511 -0.018855339
000180 f8 7b 5e bb c0 38 a3 bc 3b ce b9 bb b7 95 10 bd
       -0.0033948403 -0.019924521 -0.0056703365 -0.03529903
000190 45 4b c7 bc 8e 93 34 3a 1c d9 70 bb eb 45 40 bc
       -0.024327883 0.00068884424 -0.00367505 -0.01173542
0001a0 7e 17 9a bc 60 ca 40 bc cf b9 86 bc e7 ca 23 3d
       -0.01881003 -0.011767 -0.016446022 0.039988425
0001b0 25 7f 40 3a 79 24 b3 3b f3 aa fa bc e9 37 2e 3c
       0.0007343165 0.0054669944 -0.030599093 0.010633447
0001c0 04 cf fd bc aa d3 07 3a 11 c9 81 bc 76 7c e4 bc
       -0.030982502 0.0005181382 -0.015842946 -0.027891379
0001d0 8b 15 50 39 3c 9b b1 3c 1b e5 d3 bc 66 e6 1c 3d
       0.00019844451 0.021680467 -0.025866082 0.038305663
0001e0 d2 46 90 3c 16 11 d8 3c 58 25 f5 3c a5 7b 30 bb
       0.017611895 0.026375335 0.029925033 -0.0026929167
0001f0 db fa 21 bc 1e 14 77 3c 24 76 83 bb ed ec 99 3b
       -0.009886469 0.01508048 -0.004011886 0.004697433
000200 33 b8 1f 3c d1 91 03 3a ab a2 05 3d b3 dc 8f 3b
       0.009748506 0.0005018982 0.032625835 0.004390323
000210 d4 fe 62 3c 19 1e d3 3c 9d af 8a 3c e2 b7 8a bc
       0.013854701 0.025771188 0.016929442 -0.016933385
000220 ce 9e 40 bb 9e af 26 3b 66 c8 cf bb f7 ba d5 bc
       -0.002939153 0.0025434266 -0.006341028 -0.026090128
000230 ec 65 c8 3c 4a 69 38 bc 6b 23 9b 3b e2 b4 45 bc
       0.024462663 -0.011255572 0.0047344468 -0.012067052
000240 47 00 78 bc 19 e3 51 bc 25 f5 75 3c 12 1b 3e bb
       -0.015136785 -0.012810492 0.01501206 -0.0029007834
000250 e0 2e 53 bb 0d 3b 1c bd 85 0a 22 3c 3a f8 3d bd
       -0.0032223985 -0.038142253 0.009890203 -0.046379305
000260 fa 29 18 bd d7 b9 02 3d fd 65 f8 bb a2 66 91 3c
       -0.037149407 0.031915512 -0.0075805173 0.017749134
000270 d5 a2 5e 3c b5 90 5a bc b1 17 83 bc 79 6a 70 bc
       0.013588627 -0.013340165 -0.016002508 -0.014673823
000280 1a c9 65 3c bc f0 e2 bb c2 86 3e 3b dd 09 8a 3c
       0.014024997 -0.0069256704 0.002907202 0.016850406
000290 e8 57 5a 3c 63 86 d7 b9 6c 06 29 bb 97 e6 33 3c
       0.013326623 -0.00041108122 -0.0025791181 0.01098027
0002a0 27 09 41 3c 64 90 00 3d b0 65 ff 3c 94 98 d8 bc
       0.011781967 0.0313877 0.031176418 -0.026439942
0002b0 2e 85 c5 3a 64 51 dd 3b 23 34 1d bd 45 a9 6f 3c
       0.0015069598 0.0067540873 -0.0383798 0.014627759
0002c0 16 cf c1 bb 17 30 04 bc 77 f7 41 3c 07 b5 f6 bb
       -0.005914579 -0.008068106 0.011838785 -0.0075289044
0002d0 01 45 9b 3c 74 d3 b2 3b 37 fa ae 3c 54 ab 1a 3b
       0.018953802 0.005457336 0.021359546 0.0023600655
0002e0 82 b1 87 bc 81 46 13 bc d5 36 5c bc 83 28 e0 bc
       -0.016564135 -0.008988977 -0.013440807 -0.027363067
0002f0 61 fb f9 ba e1 34 3c 3c 8d 38 93 3b 0a 84 30 3c
       -0.0019072109 0.011487217 0.0044928254 0.010773668
000300 6a 62 c2 bc d0 6e 4f bc 9f 7e d8 3c 0b 25 b9 3c
       -0.023728568 -0.012660697 0.026427565 0.022600671
000310 84 c2 a5 3c 9d f0 bb bc 40 17 05 bc 74 2d 24 bb
       0.020234354 -0.022941882 -0.008123219 -0.0025051506
000320 5d 14 c8 3c e9 d9 9a bc 5c 4f 02 3d 8c 14 97 3a
       0.024423772 -0.018902736 0.031813964 0.0011526509
000330 3c b3 59 bc 6b a1 df 3c a1 1e 9b bc ff b3 98 3c
       -0.013287362 0.02729865 -0.018935503 0.018640516
000340 cc 38 13 3c 9b 59 a0 bc 8f d4 e6 3b 60 27 56 3c
       0.008985709 -0.019573977 0.007044382 0.013070911
000350 e6 7b 66 bc e1 2e b8 3a 34 cd 3b 3d 7a 33 c8 bc
       -0.014067626 0.0014052057 0.045849994 -0.024438608
000360 5a 8a ca bc 18 38 4b 3c 48 9f 66 3d 49 3d a4 3b
       -0.024724174 0.0124035105 0.056304246 0.0050121886
000370 b6 fc df 3c 56 4c 59 bc 55 f2 27 bd 1a 64 d2 3b
       0.027342182 -0.013262829 -0.04100259 0.0064206244
000380 78 ee e3 3b 34 de d6 3c 6e 15 33 3c af d9 ab 3b
       0.006955918 0.026229002 0.010930402 0.0052444558
000390 b5 d2 44 bd 4a 5f d5 3c ed 28 e2 bc 0b 60 35 3c
       -0.04805251 0.026046414 -0.027607406 0.011070262
0003a0 d1 9b f5 3c b9 9a e3 3a 34 86 71 bc 8c 86 cc 3b
       0.029981526 0.0017364837 -0.014741469 0.006241625
0003b0 d7 c1 95 3c 33 55 45 3d 17 37 bf 3c 67 92 46 3c
       0.018280907 0.048176955 0.023341699 0.012119866
0003c0 7f 68 06 3d 7d 57 24 3c 18 76 53 bd 5f 45 99 bc
       0.0328145 0.010030624 -0.051626295 -0.018709837
0003d0 15 aa 99 bc 0a 20 67 3a ed 93 25 3b 25 59 b6 bc
       -0.01875786 0.0008816725 0.0025265173 -0.022259304
0003e0 8f 7e 9e bc 17 89 8a 3c 00 3f 8b 3b e5 94 1e 3c
       -0.019347457 0.016911073 0.0042494535 0.009679054
0003f0 d9 f7 dc bb f2 61 26 bc 23 3b 84 3c eb 74 34 3d
       -0.006743413 -0.010155188 0.01614148 0.044056814

action_model._continuous_distribution.mu.bias f4 [2]
000000 8c 5b 8c 3b 21 f1 29 bb
       0.004283374 -0.0025931078

action_model._discrete_distribution.branches.0.weight f4 [2, 128]
000000 a4 b2 17 3c 61 1d a7 bb 6c 8a 5a bc a6 07 95 3b
       0.0092589 -0.005099938 -0.013338666 0.004548031
000010 21 b7 40 3b aa ee 6f bc 9d 45 93 3a 72 fc 04 bc
       0.0029406028 -0.014644304 0.0011235956 -0.008116828
000020 fa 9c bd 3c 1e b3 86 bc 56 a1 3f 3c e0 a6 7f bc
       0.023146141 -0.016442832 0.01169618 -0.015603751
000030 48 c2 06 3c 08 57 2f 3c 53 49 ec bb 90 6f a7 bb
       0.008225031 0.010701902 -0.0072108894 -0.005109735
000040 91 17 0c bc ec ee 2b 3c e3 d8 04 bc dc 69 b1 3b
       -0.008550541 0.010493975 -0.00810835 0.0054142307
000050 25 2e 5c 3c 35 55 a3 3c 5f f1 11 bc f1 9b e3 3b
       0.013438736 0.01993809 -0.008907645 0.00694608
000060 2d ae 05 bd a4 e5 9d ba cf e9 d1 b9 9e b2 2b bb
       -0.03263681 -0.0012046588 -0.00040037787 -0.0026198993
000070 1a 26 8e bb ea 53 6f 3b fe 55 ba bc ad 05 77 bc
       -0.004338038 0.0036518523 -0.022746082 -0.015077037
000080 45 85 1b bc 55 59 27 bc 1a 7a 53 3b b7 0b 14 bd
       -0.009492223 -0.0102141695 0.0032268823 -0.036143985
000090 e0 0f 4c bc af 41 05 bb 61 8b 60 bc ab 0e 10 bc
       -0.012454957 -0.002033334 -0.0137051055 -0.00879256
0000a0 e7 99 82 bc 09 08 de bb d5 5c 47 3c bf d6 16 bc
       -0.015942527 -0.00677586 0.012168129 -0.009206473
0000b0 ac 29 0f ba f3 b2 eb ba ae 30 cd 3b e9 dd 69 bc
       -0.00054612267 -0.0017982408 0.0062619066 -0.014274099
0000c0 c2 5c de bb 3c b8 05 bc 59 81 a6 3a 53 f5 00 3b
       -0.00678596 -0.008161601 0.0012703344 0.0019677475
0000d0 d5 e7 ee bb b1 de bc ba ce 84 4f 3c 96 46 eb bb
       -0.00729082 -0.0014409629 0.01266594 -0.0071800454
0000e0 f2 72 19 bb b5 4b 9e 3b 4d 8d 5e 3c 6d 0d 16 3c
       -0.002341446 0.0048308023 0.013583493 0.009158474
0000f0 41 68 4c bc 69 37 c3 3c 55 39 a3 bc a1 79 8a ba
       -0.012476028 0.023830133 -0.019924799 -0.0010564813
000100 cc 64 48 ba cc 38 f7 3b 37 b5 60 bc 80 c4 e1 3b
       -0.00076444144 0.0075446125 -0.01371508 0.0068898797
000110 49 78 99 3b 0f 1e f6 39 65 dc d6 b9 7b c9 19 bc
       0.0046835286 0.00046943172 -0.00040981467 -0.009386416
000120 a1 a2 c2 39 23 91 5f bc a2 1c 70 3c a8 4b 29 3b
       0.0003712373 -0.013645443 0.014655264 0.0025832448
000130 5a 3f e5 3b 15 59 81 bb 12 d2 ec bb 16 13 7e bb
       0.0069960775 -0.003947387 -0.007227191 -0.00387687
000140 a5 6b c1 3b e7 5b 55 bc 2a bf fc ba a8 5f 3e bc
       0.005902725 -0.0130223995 -0.0019283046 -0.011619486
000150 e2 e8 8c 3c 00 8b 0f 3c 75 d5 04 3b a3 2b 4d bc
       0.01720089 0.0087611675 0.0020268832 -0.012522611
000160 a8 c8 1e bc b7 a3 9f 3b 9f ab 0d 3c df 69 d2 ba
       -0.009691395 0.0048718113 0.008646875 -0.001605328
000170 0a 20 e1 bb 16 65 19 3b 49 69 ff bb 20 d0 61 bb
       -0.0068702744 0.00234062 -0.0077945334 -0.0034456328
000180 ed e3 28 bc 48 4d c7 bb 38 d6 dc 3c c3 4c eb bb
       -0.010308248 -0.0060822107 0.026957616 -0.0071807816
000190 3e a2 b3 3a 57 e0 fa bb b0 8a 83 bb 8f 3a 96 bb
       0.0013704968 -0.007656138 -0.0040143356 -0.0045846174
0001a0 95 83 61 3c 5e 66 92 bb a2 d4 b1 3b da 09 cd ba
       0.013764282 -0.0044677695 0.005426959 -0.0015643195
0001b0 2b c3 02 bd 8e e5 b4 3c ca de 96 bc ee 54 6e 3b
       -0.031924408 0.022082116 -0.018416781 0.003636654
0001c0 ea b8 b0 3b 48 86 c8 3b 8a 2e 41 bc 18 47 3c ba
       0.005393137 0.006119523 -0.011790881 -0.00071822247
0001d0 9a fa f0 bc 49 25 39 bb 2b fa 8c 3c 7d c3 a2 3a
       -0.029416371 -0.0028250983 0.017209133 0.0012417879
0001e0 96 d3 aa 3c 2e b6 22 bb 72 27 20 3c 36 3e 80 3b
       0.020852845 -0.0024827826 0.0097750295 0.003913666
0001f0 ab 1d 9e bb ce dd a2 bc fd aa ae 3b b3 d5 81 3a
       -0.004825314 -0.019881155 0.005330442 0.0009905606
000200 dd fc 83 3c 53 b5 94 3b bf 92 78 3c cb 50 ba 3c
       0.016111786 0.004538217 0.015171706 0.022743603
000210 18 d3 b4 bc 00 41 12 3d 90 4e 54 3c 6b 58 aa bc
       -0.022073314 0.03570652 0.012958184 -0.020794114
000220 20 5c bc bc 92 ea 09 3c 5a 2e 30 3c be 3b 36 bb
       -0.022993147 0.008417742 0.010753239 -0.0027806605
000230 71 ca 87 ba ba ea f0 3b 59 b4 27 3c 5c fa 78 39
       -0.0010360015 0.0073522003 0.010235869 0.00023744389
000240 2f a8 51 3c 6d 84 01 ba 8b 9a bc 3b f1 c0 87 bc
       0.012796446 -0.00049406925 0.0057557276 -0.016571494
000250 a0 e3 38 3c 67 76 86 bc 9c 84 2b 3c 9a d0 ef 3b
       0.011284739 -0.01641388 0.010468628 0.0073185684
000260 6f 4d 9e 3c 8a df fd 3a 2b 70 75 3c 4c 88 00 3c
       0.019324033 0.0019368988 0.014980356 0.007844996
000270 57 45 c9 3a 90 ca bb 3b cc 46 d9 3b 20 f1 26 3c
       0.0015355748 0.0057309344 0.006630754 0.010189325
000280 33 e2 83 3b ab 89 08 bc 3f ee 39 ba 41 16 27 3d
       0.004024768 -0.008333604 -0.00070926914 0.040792707
000290 be 80 85 bb 01 2e 8d 3a 43 6a 3f 3c ab 43 73 3c
       -0.004074185 0.0010771157 0.01168305 0.014847676
0002a0 85 76 b9 3c 60 f6 d6 bb 43 d7 38 bc a6 ed 3c bc
       0.022639522 -0.006560132 -0.011281791 -0.011531269
0002b0 5e 0f ee bb c5 c1 84 3c d7 39 0b bc eb bb 90 bc
       -0.0072650155 0.016205678 -0.008497677 -0.017667731
0002c0 59 8f 07 b9 19 49 41 3c 8e 72 69 bb a7 b1 be ba
       -0.00012928004 0.011797213 -0.0035621258 -0.0014548794
0002d0 8b a1 a1 3c a0 61 e5 3b 7c 32 38 3a 8b 6e 3b 3c
       0.01973035 0.007000163 0.0007026566 0.01143993
0002e0 7c c5 81 3c ff e9 81 bc 7a 45 14 bc a0 99 46 bb
       0.015841238 -0.015858648 -0.009049768 -0.003030397
0002f0 05 86 f1 3b b5 5e a0 bc f2 24 69 3c cc 27 f8 bb
       0.0073707127 -0.01957641 0.01423 -0.0075731035
000300 f6 e7 fb bb 92 e0 1c 3a 89 07 75 3c 9e a2 b3 bc
       -0.007687564 0.00059843913 0.01495541 -0.021928128
000310 90 6d 36 3c bf 6a 3a 3c 6b df e7 ba 99 62 76 3c
       0.01113452 0.011377989 -0.0017690485 0.015038156
000320 c0 4a b3 3b c2 06 2c 3c 49 f1 80 ba 4e 71 10 bc
       0.0054715574 0.010499658 -0.0009837534 -0.008816076
000330 39 43 34 bc 86 b0 90 3c f8 7d 6a 3c 71 68 d4 b9
       -0.011002355 0.017662298 0.01431226 -0.00040513606
000340 9f 55 94 3b 52 9a b1 3a 6a 2c a1 bb 3e ad ec 3b
       0.0045268084 0.0013550019 -0.0049186246 0.0072228005
000350 d2 55 ee b9 a0 7f 9a bb 55 53 17 bc 2c 9c 7a 3b
       -0.0004545884 -0.004714921 -0.0092361765 0.0038240058
000360 9d dd 83 38 c6 91 0d bc 51 1a 7b bc dd f2 f5 3a
       6.2878455e-05 -0.008640712 -0.015326099 0.0018764395
000370 15 ae 00 3d b9 e6 45 bb d2 92 d9 3c 29 d8 a3 3c
       0.031416018 -0.0030197336 0.026559267 0.020000534
000380 ac f8 c9 bb 5c a3 6a 3c 6c 2e cd bc a8 0a a9 3b
       -0.006163677 0.0143211745 -0.02504655 0.005158741
000390 a6 86 c0 3b ce 6a 75 bb 50 ed 3a 3c d7 2e 87 3b
       0.0058754263 -0.0037447694 0.011409119 0.004125457
0003a0 7a 9e 07 bd aa 5e 4f bc be 96 a3 3b 0c 2d 7a bb
       -0.03311012 -0.012656847 0.004992335 -0.0038173823
0003b0 1a 28 48 3c 4d ff 49 bc 63 9b 32 3c 24 03 34 bc
       0.012216592 -0.012328935 0.010901305 -0.010987077
0003c0 32 b2 10 3c 50 c7 bf 3c 95 83 68 3c e0 3e 38 3c
       0.008831548 0.02341047 0.014191528 0.011245459
0003d0 fd 90 0d 3c a5 75 4f bb 75 84 9d bc 68 0d c6 bc
       0.008640525 -0.0031655815 -0.0192282 -0.024176314
0003e0 d8 08 e9 3b 03 29 ee 3b aa 22 06 bc 56 74 dd bb
       0.00711165 0.0072680726 -0.0081869755 -0.006758253
0003f0 c7 cd c5 3a 2f 9e 94 bc 06 b2 18 3c 54 1d 1a bc
       0.0015091234 -0.018141834 0.009319788 -0.009406406

action_model._discrete_distribution.branches.0.bias f4 [2]
000000 f9 25 a6 3b f7 25 a6 bb
       0.0050704447 -0.0050704437

exp_avg f4 [128, 7]
000000 0b dc 2e 38 4d 86 2d b6 a4 24 a2 35 a1 a4 23 b8
       4.1689764e-05 -2.5857182e-06 1.2080604e-06 -3.901555e-05
000010 00 00 00 00 40 96 cd 35 0e 3e bb b5 a7 02 cc 36
       0.0 1.5317419e-06 -1.3950646e-06 6.0799825e-06
000020 49 86 bc 34 db d2 b5 b6 72 49 5c 37 00 00 00 00
       3.5115434e-07 -5.418767e-06 1.3130122e-05 0.0
000030 67 68 c7 34 c0 75 e4 b3 54 31 1d b9 4a 2b 36 b8
       3.71426e-07 -1.0638496e-07 -0.00014991063 -4.3432497e-05
000040 f7 95 66 b7 8b 48 4d b9 00 00 00 00 d6 8e f6 b7
       -1.3743985e-05 -0.00019577348 0.0 -2.9391998e-05
000050 e9 f5 57 b7 0e 96 4c 36 52 6e 3b 38 ba 7e 22 b8
       -1.2872254e-05 3.0485712e-06 4.4687018e-05 -3.8741833e-05
000060 6f b9 85 39 00 00 00 00 83 3c 8b b8 e1 6a a3 b7
       0.00025505896 0.0 -6.639308e-05 -1.9480884e-05
000070 5d 03 11 b9 b1 95 7a b8 4d 1e f2 b5 82 e3 b1 b9
       -0.0001382953 -5.9744056e-05 -1.8039224e-06 -0.00033929577
000080 00 00 00 00 33 02 90 37 34 d1 bd 37 4b 4a f9 b4
       0.0 1.7167162e-05 2.2627974e-05 -4.643392e-07
000090 82 29 4f 36 4e a4 31 36 6e 97 51 37 00 00 00 00
       3.0869564e-06 2.6470693e-06 1.2492628e-05 0.0
0000a0 55 4d 41 36 36 59 c8 b4 b3 96 20 b9 ed 65 21 37
       2.8804254e-06 -3.7317812e-07 -0.00015314929 9.620079e-06
0000b0 ed f7 8d 38 24 cd 08 3a 00 00 00 00 ea f5 29 36
       6.769584e-05 0.00052185566 0.0 2.5326103e-06
0000c0 cf dc d4 37 1f 0b 1f b9 76 23 8f b6 4c b5 0a b8
       2.5375191e-05 -0.00015167565 -4.2658603e-06 -3.307061e-05
0000d0 58 e0 a4 39 00 00 00 00 6a de 48 b7 e7 20 1f 38
       0.00031447667 0.0 -1.1972714e-05 3.7939197e-05
0000e0 a6 67 6a 37 60 ce ac 36 52 15 da b7 05 fb d2 39
       1.3971619e-05 5.1500247e-06 -2.5997553e-05 0.00040241345
0000f0 00 00 00 00 cd 51 c0 b7 fd 7f 46 b6 71 0e e0 38
       0.0 -2.2926275e-05 -2.9578798e-06 0.00010683842
000100 4f 0e f5 37 f1 7f a5 37 81 82 08 39 00 00 00 00
       2.9212939e-05 1.972911e-05 0.00013018587 0.0
000110 a5 94 41 b8 25 11 c7 b7 42 d4 28 b7 f2 43 58 37
       -4.615322e-05 -2.3730632e-05 -1.0063e-05 1.2890423e-05
000120 25 05 27 b8 de a6 29 b8 00 00 00 00 0b e8 3d 38
       -3.9820694e-05 -4.0448147e-05 0.0 4.527722e-05
000130 c3 66 d1 b6 c7 17 8d b8 8f 62 e0 b7 42 bb 0e 38
       -6.2406484e-06 -6.727833e-05 -2.6748776e-05 3.4029836e-05
000140 98 62 33 b8 00 00 00 00 f4 37 87 b8 ad 2d 33 b7
       -4.276875e-05 0.0 -6.447724e-05 -1.0679866e-05
000150 75 64 1f 36 2c ce bb 35 c1 95 47 b4 cb 3b 2b 36
       2.375132e-06 1.399259e-06 -1.85878e-07 2.551579e-06
000160 00 00 00 00 f7 b9 5a 35 23 7d 19 b4 8e ea 24 b6
       0.0 8.1481943e-07 -1.429476e-07 -2.4574433e-06
000170 62 69 39 35 a7 01 82 35 f8 1e 61 36 00 00 00 00
       6.907122e-07 9.686236e-07 3.354564e-06 0.0
000180 e3 a7 ed 35 57 5c 94 35 25 16 0a b9 06 96 e9 34
       1.7706737e-06 1.1053734e-06 -0.00013168955 4.3508788e-07
000190 7a 82 7a 36 54 8a 98 39 00 00 00 00 5d 97 88 37
       3.732885e-06 0.00029094762 0.0 1.6282947e-05
0001a0 ec 2d 82 37 3b e9 4c 37 1a 16 41 b8 29 ea 60 38
       1.5518592e-05 1.2213651e-05 -4.603537e-05 5.362384e-05
0001b0 bc b2 ac b9 00 00 00 00 ab be 46 38 ba e3 ae b5
       -0.00032939564 0.0 4.7384452e-05 -1.3030287e-06
0001c0 6a 7a 95 36 f4 8e df 35 fa e1 49 b6 32 b3 75 b6
       4.454797e-06 1.66564e-06 -3.008287e-06 -3.661215e-06
0001d0 00 00 00 00 1d 77 f9 35 82 a3 25 b5 3f da bd 39
       0.0 1.8586612e-06 -6.1705225e-07 0.00036211495
0001e0 c3 02 35 38 15 06 99 b8 8c a2 e7 b9 00 00 00 00
       4.3156335e-05 -7.2967414e-05 -0.0004418086 0.0
0001f0 2c f1 cb 38 ff 97 86 37 fa 5f 2b 37 66 9d f1 b5
       9.724716e-05 1.6044823e-05 1.02147405e-05 -1.8001708e-06
000200 a6 1d df 35 88 9d b1 b6 00 00 00 00 cc 29 2e 36
       1.6623424e-06 -5.29335e-06 0.0 2.595235e-06
000210 40 ad e7 b2 51 f9 1d 38 f1 61 2b 38 2d 7a 26 b8
       -2.6970724e-08 3.766391e-05 4.0860792e-05 -3.969127e-05
000220 1c f5 20 39 00 00 00 00 2c 5d c3 37 1d 49 71 35
       0.000153501 0.0 2.3289198e-05 8.988589e-07
000230 a8 f5 4f 34 9a a8 72 b6 15 2e 20 37 5d 47 8b 36
       1.9367747e-07 -3.615895e-06 9.5474725e-06 4.1508306e-06
000240 00 00 00 00 cf e9 30 b6 dc a3 81 35 b2 44 13 b9
       0.0 -2.6362138e-06 9.658938e-07 -0.00014044603
000250 da 84 99 b8 69 92 b6 38 35 cb af b9 00 00 00 00
       -7.320354e-05 8.705707e-05 -0.00033530002 0.0
000260 16 f6 34 b8 38 e4 8e b7 9e 80 9c b9 7d 86 6c b8
       -4.314453e-05 -1.7033992e-05 -0.00029850466 -5.6392037e-05
000270 f6 ce 9e 38 c8 43 11 b9 00 00 00 00 b8 85 f7 b7
       7.5725766e-05 -0.00013853528 0.0 -2.9506962e-05
000280 6a 50 2e b7 85 22 9e b5 ae fe 76 34 42 db eb 34
       -1.0389931e-05 -1.1781964e-06 2.3003187e-07 4.3931692e-07
000290 aa cd f8 b4 00 00 00 00 01 21 a4 b5 bc 78 3f b4
       -4.634324e-07 0.0 -1.2228558e-06 -1.7832184e-07
0002a0 9c a5 74 b8 20 b3 96 b7 e1 ff 6c 37 62 4a cc b8
       -5.832837e-05 -1.7964805e-05 1.4126273e-05 -9.741333e-05
0002b0 00 00 00 00 9d e4 20 b7 42 61 0b b6 eb 2a 0f 36
       0.0 -9.589971e-06 -2.0769226e-06 2.1333642e-06
0002c0 63 e8 d6 34 bc 74 59 b4 04 dc c3 b5 00 00 00 00
       4.002969e-07 -2.0252168e-07 -1.4592665e-06 0.0
0002d0 f5 eb 25 34 64 08 6b b4 7a da 1d 39 3f 66 5e 38
       1.5452663e-07 -2.1889133e-07 0.00015054076 5.302415e-05
0002e0 e4 01 e4 b7 3a 18 04 3a 00 00 00 00 72 5e 75 b8
       -2.7180598e-05 0.00050390104 0.0 -5.850051e-05
0002f0 3c bb 04 b7 cd b6 7f 39 93 1b 57 37 25 39 12 b8
       -7.911407e-06 0.00024386794 1.2821419e-05 -3.4862333e-05
000300 c2 f8 f5 b9 00 00 00 00 ff d1 cf 38 27 28 1c 37
       -0.0004691538 0.0 9.909644e-05 9.307673e-06
000310 30 91 e5 38 88 47 e4 b6 3d 74 c9 37 4c 44 fd b8
       0.00010946614 -6.803257e-06 2.4015195e-05 -0.000120767014
000320 00 00 00 00 83 59 49 b7 80 e3 11 b8 8c 8c 88 b8
       0.0 -1.2001375e-05 -3.478257e-05 -6.511164e-05
000330 f0 f0 da b7 de b2 e9 b7 12 8e 69 b9 00 00 00 00
       -2.609982e-05 -2.7859056e-05 -0.00022273537 0.0
000340 1c d1 b1 37 79 38 a2 37 73 33 d7 37 56 e1 02 38
       2.1197418e-05 1.9338202e-05 2.5653955e-05 3.1204276e-05
000350 a2 fb 0a b6 c9 ff 5a 39 00 00 00 00 d0 d2 41 b8
       -2.0710072e-06 0.00020885387 0.0 -4.621112e-05
000360 a5 63 b7 b7 27 12 fe 37 ed 6d a4 b7 5a cc be b7
       -2.18617e-05 3.0287612e-05 -1.9601512e-05 -2.2744924e-05
000370 8d b1 49 b8 00 00 00 00 37 cb 4a b7 a4 4b ec 35
       -4.808749e-05 0.0 -1.2087453e-05 1.7605385e-06
000380 59 86 05 38 92 ba 69 b8 50 f0 24 37 36 30 12 b9
       3.1834792e-05 -5.5725286e-05 9.831114e-06 -0.00013941605
000390 00 00 00 00 90 f0 15 b8 b2 08 77 37 d3 45 b8 b7
       0.0 -3.574841e-05 1.4724372e-05 -2.1967024e-05
0003a0 e7 cc fe b5 09 ad 73 36 3e f8 08 b8 00 00 00 00
       -1.8984109e-06 3.6310541e-06 -3.265612e-05 0.0
0003b0 4f 06 13 36 e9 06 42 34 3c f2 72 b9 11 c9 04 b8
       2.190838e-06 1.8070172e-07 -0.00023169158 -3.165851e-05
0003c0 fb 31 ae 36 9c 59 f9 38 00 00 00 00 24 ea 94 b8
       5.1914226e-06 0.00011889936 0.0 -7.100802e-05
0003d0 81 9c 14 b7 8e fe 71 39 67 4a db b7 a2 9e fc 37
       -8.857926e-06 0.0002307838 -2.614148e-05 3.011461e-05
0003e0 f4 a8 dc b9 00 00 00 00 a5 7c c6 b8 50 c9 09 b8
       -0.0004208755 0.0 -9.4645926e-05 -3.2850832e-05
0003f0 de 8e d1 38 bf e0 23 b8 96 49 6c b8 46 08 b4 b9
       9.992508e-05 -3.907154e-05 -5.6335317e-05 -0.0003433844
