results/LavaTest/Lava/Lava-429.pt (torch, 152558 bytes, 14 tensors)

network_body._body_endoder.seq_layers.0.weight f4 [128, 7]
000000 dc 36 08 be ba aa fc be 69 72 28 bf 70 6a d2 be
       -0.13302177 -0.49349004 -0.65799576 -0.4109683
000010 2c 23 2c bd 74 8c 2f be e2 22 c5 3e 2d 08 87 bf
       -0.04202573 -0.17143422 0.38503176 -1.054937
000020 12 c2 13 3f a7 08 ea be 20 2b 79 be 67 cc c2 3e
       0.57718 -0.45709726 -0.24332857 0.38046572
000030 50 2e 64 be a7 c6 f0 3e 84 cd 0a 3d 38 75 b8 3d
       -0.22283292 0.4702656 0.0338874 0.09006733
000040 8f 57 0b be 31 79 aa 3e 07 56 4d be c3 da 79 3c
       -0.1360762 0.33295587 -0.20052348 0.015249911
000050 a2 ef 7a 3c 04 75 97 3e 4a 37 80 bc 16 c3 84 3e
       0.015315922 0.29581463 -0.015651364 0.2593009
000060 99 6b b8 bd 78 de 9b bd 0a 07 45 3f a2 5d 0d 3f
       -0.090048976 -0.07610792 0.76963866 0.55221
000070 ea 24 a4 3e f1 4a c2 3d 97 92 1b 3f c8 89 a7 3e
       0.32059413 0.0948695 0.60770553 0.32722306
000080 6d 68 0b be 1a 94 45 be 9b c8 e5 be 47 5b 81 3f
       -0.13614054 -0.19294778 -0.44879612 1.0105981
000090 fc fb 10 bf b2 18 f5 3e c1 ce 6c bf 39 cb a4 3e
       -0.566345 0.47870404 -0.9250298 0.32186297
0000a0 42 d6 d1 be 6e 69 05 3e 14 14 0f 3e a1 19 4e bd
       -0.40983778 0.130285 0.13972503 -0.05031741
0000b0 82 80 ea bd f4 b2 09 3f 94 d5 14 be 06 01 cd 3e
       -0.11450292 0.53788686 -0.14534599 0.40039843
0000c0 e1 7e bd 3d ab fd 83 3e c2 13 05 3f da 9a 83 3f
       0.09252716 0.2577947 0.51983273 1.0281632
0000d0 e5 c6 83 bd 8d 1c 71 3d 7a d7 7c 3e 18 f9 12 3e
       -0.064344205 0.05886512 0.24691573 0.14352834
0000e0 cd c8 91 bd 41 13 95 3e dc c8 0c 3f 85 3a 02 3f
       -0.07118378 0.29116252 0.5499399 0.50870544
0000f0 81 b1 24 3f 53 90 16 bf cb 65 e8 3b 68 52 a4 bd
       0.6433335 -0.5881397 0.007092213 -0.0802353
000100 e2 df 36 bd 0c ca dd be ff d6 02 3d 21 53 c1 3a
       -0.044647105 -0.43318212 0.031943318 0.0014749506
000110 c1 0a 64 3e b1 d8 a8 be af 20 48 bf 0c 4f 06 be
       0.22269727 -0.32977822 -0.7817487 -0.13116091
000120 88 e2 e1 bc 79 74 98 3e 11 2a 84 3e 4a 67 7f be
       -0.027573839 0.29776362 0.25813344 -0.24941745
000130 29 ba e7 bd 54 aa 6a be 13 8e e1 3d cb e9 c2 be
       -0.11314804 -0.22916538 0.11013427 -0.38068995
000140 6d eb cc be 19 e7 ef bd 53 e8 a3 be 7c 3b 51 3b
       -0.40023366 -0.11714 -0.32013187 0.0031926325
000150 3f 13 8f 3c be 9f 39 bf 35 4c 01 3e a1 6d 58 be
       0.017465232 -0.7250937 0.12626727 -0.2113557
000160 8e cf 14 3f a9 ac a5 3e 7e 34 34 be 2b 3a b2 3e
       0.58129203 0.32358292 -0.17598149 0.34810004
000170 95 39 33 3f a3 a9 da 3c 49 9e 5f 3e b5 ef 06 3f
       0.7000974 0.026692217 0.21837725 0.52709514
000180 44 7b b4 be 3b b1 47 3f 5f d0 74 bc b5 3f dd be
       -0.35250294 0.7800481 -0.014942258 -0.43212667
000190 e0 8d 61 3f 80 a6 8c 3e 4b 47 93 be 27 84 1c 3f
       0.8810711 0.2747078 -0.2876533 0.6113915
0001a0 7f 81 9d 3e ab 71 42 3e b2 a0 19 3e dd e0 92 3a
       0.3076286 0.18988673 0.15002707 0.001120593
0001b0 51 fa 1f bd cf d1 f8 3e f8 ce 39 be 42 63 29 bf
       -0.03905708 0.4859757 -0.18145359 -0.6616708
0001c0 59 fb f0 3c 4f c8 10 bd 74 66 cc be b6 20 1a 3f
       0.029416727 -0.03534728 -0.39921916 0.6020616
0001d0 28 db 98 3e ec 3e 91 3e 1f 84 8f 3e 73 86 05 bf
       0.29854703 0.28368318 0.28030488 -0.5215828
0001e0 fa 9c 25 bd 38 5b 2b be 7f 8c b1 3e c3 bb bb bc
       -0.040432908 -0.16734016 0.34677503 -0.02291668
0001f0 a4 e7 dc 3e 7b aa 07 bd e9 90 53 3e c6 dc da be
       0.43145478 -0.033121567 0.20660748 -0.42746562
000200 61 b5 ae be b7 a4 5e 3e c6 8c 90 be 70 9c 1b bc
       -0.34122756 0.21742521 -0.28232402 -0.009497747
000210 36 a3 dc be 00 8f 32 3f bc ea ca 3e ca b8 47 be
       -0.4309327 0.6974945 0.39632213 -0.19504085
000220 1c 27 da be 54 36 bb 3e 5a ce 0d 3f 4f f3 89 be
       -0.42607963 0.36564887 0.5539299 -0.26943442
000230 fd 01 39 be 2f 84 d3 3e bf 02 59 be 89 a3 84 bd
       -0.18067165 0.41311786 -0.21192454 -0.06476504
000240 82 26 33 be e0 60 09 be d5 77 49 bd a5 1f 83 3f
       -0.17495158 -0.13415861 -0.049186546 1.0244032
000250 23 92 01 bf 54 eb 25 bf c8 5b 03 3f cc a8 4d 3f
       -0.5061361 -0.6481221 0.5131192 0.8033569
000260 d0 a7 9c be 86 49 1b 3f 2a b9 91 bd da bc bf bd
       -0.3059678 0.6065906 -0.07115395 -0.093621925
000270 27 0b 93 be 67 1c 8a be 4f 5c 00 3e 6a 9d f9 be
       -0.28719446 -0.26974794 0.12535213 -0.4875291
000280 e0 68 7a 3e 28 c4 44 3e 60 f5 0d 3f 30 a2 3b 3c
       0.24454069 0.19215453 0.5545254 0.011452243
000290 10 7a 03 3e 43 68 2b 3f ba c3 d6 bd fa b7 af be
       0.12839532 0.66955966 -0.10486551 -0.3432005
0002a0 1a ba 91 3c ed 74 db be 2d 57 e8 3e 2a 20 a0 3e
       0.017788935 -0.42862645 0.4537901 0.3127454
0002b0 3b eb 56 3e c8 ab aa be ee b9 b4 be 5a a5 a7 3d
       0.20988171 -0.33334184 -0.35298103 0.08185835
0002c0 9e 01 b5 bc 67 8b d0 be bb ad b1 be c7 9d 06 3f
       -0.022095498 -0.40731356 -0.34702858 0.525845
0002d0 c4 52 37 3f 4d cd d8 3e 5c 1f 52 3e 33 63 8c be
       0.71610665 0.42344132 0.20519775 -0.27419433
0002e0 46 47 c2 3e d9 20 a0 bc b3 36 9f be 6b 05 8e be
       0.37945002 -0.019546913 -0.3109642 -0.2773851
0002f0 fd 7c ae 3e 32 ef 83 bd 80 c2 e1 3e d6 7d 09 bc
       0.34079733 -0.06442107 0.44093704 -0.008391818
000300 34 49 dd 3e a1 ad 1d bf 0e c6 d5 3e 89 87 95 be
       0.43219912 -0.6159306 0.41752666 -0.29204968
000310 fe 68 27 3f 83 55 72 3c cb 81 f6 3e 8d ad 89 bf
       0.6539458 0.014790895 0.481459 -1.0756088
000320 dc 1a ae be a6 5f 82 3e 46 c2 a8 be 26 58 b3 bd
       -0.34004867 0.254636 -0.3296072 -0.08757047
000330 9b 07 a8 3e 62 30 1e 3d 05 e1 d9 3d 4d 45 88 bc
       0.32818303 0.03862036 0.10638622 -0.016634608
000340 74 21 94 bd 29 86 48 be 84 0b 52 be 79 99 ac bd
       -0.07232943 -0.19582428 -0.20512205 -0.0842771
000350 e4 92 9b 3e b5 e2 c6 3d c1 2f 0f bf 38 5c c1 be
       0.30385506 0.0971121 -0.5593224 -0.3776567
000360 94 22 9f be 86 3e af bd 1f 21 51 3f 34 b3 8b be
       -0.3108107 -0.08556847 0.81691164 -0.2728516
000370 3e 42 07 3f 9d 25 38 be 01 04 e8 be 11 49 8b 3f
       0.5283545 -0.17983098 -0.45315555 1.0881673
000380 95 d6 96 be 4a 7e 60 be 79 6d c2 3e 74 6a f8 be
       -0.29460588 -0.21923175 0.37974146 -0.48518717
000390 dc ff a2 3e 29 67 b7 bd d8 8c 8d be 64 80 c1 3e
       0.3183583 -0.08955223 -0.27646518 0.37793267
0003a0 ff cf 07 3d c2 70 36 be 5e 79 cb bd f3 d2 42 3f
       0.033157345 -0.17816451 -0.09935258 0.7610313
0003b0 54 64 55 3d 25 a2 17 bf 38 28 54 be 52 3c 25 be
       0.052097633 -0.5923179 -0.20718467 -0.16136292
0003c0 40 51 42 be 40 2e f8 be 59 ca 7c 3f 16 02 44 3c
       -0.18976307 -0.48472786 0.9874626 0.011963388
0003d0 6c 0d ca 3d 51 41 5c be ab a7 31 be ab 34 57 3e
       0.09865841 -0.21509291 -0.17349117 0.21016185
0003e0 cc 32 24 3f 4e 48 b8 3e 18 41 4f 3e 42 0b 0c 3f
       0.6414001 0.35992664 0.20239675 0.5470468
0003f0 16 2a a4 3e d0 a6 3e bd af 15 f0 3e 12 1d 3b be
       0.3206336 -0.046545804 0.46891543 -0.18272808

network_body._body_endoder.seq_layers.0.bias f4 [128]
000000 00 00 00 00 00 00 00 00 00 00 00 00 00 00 00 00
       0.0 0.0 0.0 0.0
000010 00 00 00 00 00 00 00 00 00 00 00 00 00 00 00 00
       0.0 0.0 0.0 0.0
000020 00 00 00 00 00 00 00 00 00 00 00 00 00 00 00 00
       0.0 0.0 0.0 0.0
000030 00 00 00 00 00 00 00 00 00 00 00 00 00 00 00 00
       0.0 0.0 0.0 0.0
000040 00 00 00 00 00 00 00 00 00 00 00 00 00 00 00 00
       0.0 0.0 0.0 0.0
000050 00 00 00 00 00 00 00 00 00 00 00 00 00 00 00 00
       0.0 0.0 0.0 0.0
000060 00 00 00 00 00 00 00 00 00 00 00 00 00 00 00 00
       0.0 0.0 0.0 0.0
000070 00 00 00 00 00 00 00 00 00 00 00 00 00 00 00 00
       0.0 0.0 0.0 0.0
000080 00 00 00 00 00 00 00 00 00 00 00 00 00 00 00 00
       0.0 0.0 0.0 0.0
000090 00 00 00 00 00 00 00 00 00 00 00 00 00 00 00 00
       0.0 0.0 0.0 0.0
0000a0 00 00 00 00 00 00 00 00 00 00 00 00 00 00 00 00
       0.0 0.0 0.0 0.0
0000b0 00 00 00 00 00 00 00 00 00 00 00 00 00 00 00 00
       0.0 0.0 0.0 0.0
0000c0 00 00 00 00 00 00 00 00 00 00 00 00 00 00 00 00
       0.0 0.0 0.0 0.0
0000d0 00 00 00 00 00 00 00 00 00 00 00 00 00 00 00 00
       0.0 0.0 0.0 0.0
0000e0 00 00 00 00 00 00 00 00 00 00 00 00 00 00 00 00
       0.0 0.0 0.0 0.0
0000f0 00 00 00 00 00 00 00 00 00 00 00 00 00 00 00 00
       0.0 0.0 0.0 0.0
000100 00 00 00 00 00 00 00 00 00 00 00 00 00 00 00 00
       0.0 0.0 0.0 0.0
000110 00 00 00 00 00 00 00 00 00 00 00 00 00 00 00 00
       0.0 0.0 0.0 0.0
000120 00 00 00 00 00 00 00 00 00 00 00 00 00 00 00 00
       0.0 0.0 0.0 0.0
000130 00 00 00 00 00 00 00 00 00 00 00 00 00 00 00 00
       0.0 0.0 0.0 0.0
000140 00 00 00 00 00 00 00 00 00 00 00 00 00 00 00 00
       0.0 0.0 0.0 0.0
000150 00 00 00 00 00 00 00 00 00 00 00 00 00 00 00 00
       0.0 0.0 0.0 0.0
000160 00 00 00 00 00 00 00 00 00 00 00 00 00 00 00 00
       0.0 0.0 0.0 0.0
000170 00 00 00 00 00 00 00 00 00 00 00 00 00 00 00 00
       0.0 0.0 0.0 0.0
000180 00 00 00 00 00 00 00 00 00 00 00 00 00 00 00 00
       0.0 0.0 0.0 0.0
000190 00 00 00 00 00 00 00 00 00 00 00 00 00 00 00 00
       0.0 0.0 0.0 0.0
0001a0 00 00 00 00 00 00 00 00 00 00 00 00 00 00 00 00
       0.0 0.0 0.0 0.0
0001b0 00 00 00 00 00 00 00 00 00 00 00 00 00 00 00 00
       0.0 0.0 0.0 0.0
0001c0 00 00 00 00 00 00 00 00 00 00 00 00 00 00 00 00
       0.0 0.0 0.0 0.0
0001d0 00 00 00 00 00 00 00 00 00 00 00 00 00 00 00 00
       0.0 0.0 0.0 0.0
0001e0 00 00 00 00 00 00 00 00 00 00 00 00 00 00 00 00
       0.0 0.0 0.0 0.0
0001f0 00 00 00 00 00 00 00 00 00 00 00 00 00 00 00 00
       0.0 0.0 0.0 0.0

network_body._body_endoder.seq_layers.2.weight f4 [128, 128]
000000 c7 24 ae bd 80 c7 11 3e 0f fe 57 3e bd 74 f7 bd
       -0.085031085 0.1423626 0.2109301 -0.12082813
000010 ce be 91 3c e5 58 8f 3d be 85 f7 bc 89 01 bb bd
       0.017791178 0.06999377 -0.03021514 -0.09131152
000020 4c 9a cb 3d e0 f3 15 bd aa f6 62 3d 14 16 6a bc
       0.09941539 -0.03660953 0.05541102 -0.01428749
000030 0f 18 28 3d 16 1a bd 3d 77 d9 c3 bd 3a 06 cc 3b
       0.04103857 0.09233491 -0.095629625 0.006226328
000040 b2 95 ad bc 60 6b 25 3e b6 c4 92 bd 65 5d 36 be
       -0.021189544 0.16154242 -0.07166426 -0.17809065
000050 5d 03 ab 3d 88 21 b7 bc 20 6d 9a bd 7b ad 7c bd
       0.08350251 -0.022354856 -0.07540345 -0.06168888
000060 64 86 be 39 84 82 2e bd 50 e9 0a be 0f c9 bc 3d
       0.00036339753 -0.04260494 -0.13565564 0.092180364
000070 68 ed 1e bc 68 6f 90 bb c6 5b 82 3d 87 b0 85 3d
       -0.009700157 -0.004407812 0.06365161 0.065278105
000080 48 25 5c bd e2 94 ab bd d5 19 dc bc 88 6e 17 bd
       -0.05374649 -0.083780065 -0.026867786 -0.036970645
000090 39 fe 0b 3e 93 05 de bc 58 29 b7 3c c5 6a e0 bd
       0.13671197 -0.027102267 0.022358581 -0.10957865
0000a0 37 ac 8a 3d 8c 78 8e 3c c9 6b e7 bc e1 2e 27 bd
       0.067711286 0.017391466 -0.028249638 -0.04081619
0000b0 6e d9 3a 3d a9 a5 34 be b6 31 96 bd 4b fe 33 3b
       0.045617513 -0.1764132 -0.073337 0.0027464803
0000c0 04 eb 07 bc bb c3 e0 3d e9 62 27 bd 67 5c 0b 3b
       -0.008295778 0.109748326 -0.040865812 0.0021264793
0000d0 99 da 76 be 9c 18 73 bc d7 8c 05 3e 4a 92 cd bd
       -0.24106826 -0.01483741 0.13042007 -0.10037668
0000e0 62 53 49 3d c5 de 83 bc 26 c4 31 be 94 f4 c5 bd
       0.049151786 -0.016097436 -0.17359981 -0.0966579
0000f0 ec 22 fa 3c 65 3b 15 3d 07 b4 e9 bc bb 93 ef 3d
       0.03053423 0.036433596 -0.028528227 0.11698099
000100 33 50 5a 3d b0 55 0e 3b 91 b2 26 3d d9 6f bd bc
       0.05329914 0.0021718554 0.040697638 -0.023124622
000110 d7 23 14 3e 7c 35 b6 bd b8 07 cb bb 77 5d 1c be
       0.14466797 -0.0889692 -0.0061959885 -0.15270029
000120 1c 13 82 bd 7e d0 f2 bd 10 93 cb 3b d2 6d a9 3d
       -0.06351301 -0.11856173 0.0062125996 0.082729
000130 58 cd 66 bb 19 5e 08 bd ba cd 98 3d 5b af 0d 3d
       -0.003521761 -0.033292864 0.07461114 0.03459106
000140 32 53 a8 bd 58 c2 3a be 5f ed 5a 3e f9 05 17 3e
       -0.08218993 -0.18238199 0.21379612 0.14748372
000150 32 3e 24 3e 2b a0 d2 bd 34 68 c0 3d 99 4b 40 be
       0.1603935 -0.10284456 0.09394875 -0.18778838
000160 e7 b2 06 bb 2c b1 7e 3c 1c db df 3d cb a1 46 3c
       -0.0020553411 0.015545171 0.10930464 0.012123535
000170 74 c6 87 3d 62 56 1e bc ed b6 49 bc 63 8c 4c 3d
       0.06629649 -0.00966415 -0.012311679 0.04993857
000180 6e 67 f3 bd 23 ea 2c 3d 29 e3 6b bd e4 5b 83 3d
       -0.11884962 0.042215478 -0.057589684 0.06414011
000190 90 c3 44 bc bb d9 ed bb 12 81 0f 3e 7a 9f 75 bd
       -0.012009516 -0.0072586215 0.1401408 -0.05996654
0001a0 e5 ce c9 bd 6b 53 12 be 01 06 09 bc 32 2f e7 bd
       -0.09853915 -0.14289634 -0.008363248 -0.11288299
0001b0 51 3b 58 3d 41 db f4 bc 87 24 69 bd e4 a3 d1 bd
       0.052790944 -0.029889705 -0.0569196 -0.10236338
0001c0 a2 70 d3 bd bb cf 9a bd fe b1 75 3d ce ec 9f 3d
       -0.103242174 -0.07559153 0.0599842 0.07808839
0001d0 e3 61 7c 3d 4d 74 ff bb ec ec 6f 3d 62 69 83 bd
       0.06161679 -0.0077958466 0.058575556 -0.064165846
0001e0 54 93 66 bd 53 ed 42 3d e3 d8 2f 3d e5 38 dd 3d
       -0.056292847 0.04758961 0.04293145 0.108018674
0001f0 1d 56 48 bd ab 25 45 be ad a2 80 3d 81 30 2e be
       -0.04891025 -0.1925265 0.06281028 -0.1701069
000200 40 5f 23 bd c0 4a 85 bd 85 17 0e 3d 5a 4b 02 3d
       -0.03988576 -0.06508398 0.0346904 0.031810142
000210 e7 73 08 3d c0 5c 52 3e ac 1a 81 3d 37 8c 5a 3c
       0.033313658 0.20543194 0.063039154 0.013339094
000220 1c 04 b5 3d 4a d8 21 3e dd ad ef bc 2c 06 20 3d
       0.088386744 0.15805164 -0.02925771 0.039068386
000230 83 fa 01 bd 0e 47 e7 bd 44 c0 ff 3d ab 86 f8 3d
       -0.031733047 -0.112928495 0.12487844 0.12135061
000240 49 a2 da bd f1 b7 79 3e ed cb ee bd f5 0f 5b bd
       -0.10675485 0.24386574 -0.116599895 -0.053482015
000250 15 87 70 3d a5 44 20 bd 36 33 74 be 67 ee ee bc
       0.058722574 -0.039127965 -0.2384766 -0.029166413
000260 a0 e3 c0 ba 0c b9 81 3d e8 c9 e2 3c 7e 75 b4 bc
       -0.0014716275 0.06334123 0.027684167 -0.02202868
000270 df e6 88 bb 43 cb 62 be 69 59 12 3d c2 d9 e3 b9
       -0.0041779126 -0.2214785 0.0357298 -0.00043459056
000280 16 4c 80 3a d1 1e f7 bd a5 8b ed 3c fa 86 54 3d
       0.00097883 -0.12066425 0.028997252 0.051886536
000290 fc 8a ec bd d1 95 59 3d 54 10 01 3b a1 3d f5 3c
       -0.11549947 0.05312139 0.001969357 0.029936614
0002a0 67 cd 1b 3e 7f 8e 81 bc a3 cc 71 bd 20 c8 64 bd
       0.15215074 -0.015815018 -0.059033047 -0.055854917
0002b0 52 ee a8 bd a0 b5 d8 bd 72 8d 8d 3d 95 28 1f 3c
       -0.08248581 -0.10581517 0.06911744 0.009714265
0002c0 d9 8e 96 3b 47 2f 21 be 03 a6 b9 bd ba 9a 30 be
       0.0045946655 -0.15740691 -0.09064867 -0.17246523
0002d0 41 ff 15 be 44 7d 8d 3d e0 00 1e 3d 08 0a 2b bd
       -0.14648153 0.06908658 0.038575053 -0.041757613
0002e0 ac 5a 07 bd 7a bf 62 3d 0b 1e f5 bd 13 2d e2 bd
       -0.033045456 0.055358388 -0.11968621 -0.110437535
0002f0 83 bd d6 bd 9c 20 0f bd ae 07 e8 3d 2f 17 f2 bd
       -0.10485365 -0.034943208 0.1132959 -0.11820828
000300 27 2d ce bc bd 52 a1 3d 3c df a8 3d aa fa d3 bc
       -0.025168015 0.07877109 0.082457036 -0.025876362
000310 60 7b 4e bc 60 0f 2b bd 6c f9 04 bd 52 fb c6 3c
       -0.012602657 -0.04176271 -0.03246443 0.02428976
000320 aa ff 4b 3c 93 24 2c be 30 46 84 bd 3e 83 34 bd
       0.012451092 -0.16810827 -0.064587 -0.044070475
000330 a0 92 ef 3d a6 96 d0 bd c3 e4 cc bd ee 14 84 3c
       0.116978884 -0.10184984 -0.1000457 0.016123261
000340 af 51 21 3d 63 0e 63 bc eb b7 a0 3d c9 e2 ac 3c
       0.03938454 -0.0138584105 0.078475796 0.021104233
000350 7f f8 ed bd 4a ff 1f 3e cf a2 0d 3e 76 59 04 bd
       -0.116196625 0.15624729 0.13831638 -0.03231188
000360 98 d3 13 3d ff d4 02 bc 90 50 fa 3d c1 84 de 3d
       0.036090463 -0.007985353 0.12222397 0.108651645
000370 13 c9 3a 3d e4 a1 59 3d 68 30 a5 3d 4c 8f bf bc
       0.045601916 0.053132907 0.080658734 -0.023383759
000380 2b 85 f2 3d 97 6a 7f bd 7e 42 e9 bd 4c e9 e1 bd
       0.11841806 -0.06235751 -0.113896355 -0.11030826
000390 09 2d 0d be 48 f7 7e bd 4a 17 b6 bd a3 98 e8 bd
       -0.13786711 -0.062247545 -0.08891161 -0.11357238
0003a0 6d 3c 99 3d c6 0d c2 b9 a0 7c 8a bd 95 a7 55 bd
       0.074822284 -0.00037012825 -0.067620516 -0.05216177
0003b0 c9 8c cd bd b5 3a 9d bd e6 42 a3 3d fa db 71 bd
       -0.10036618 -0.07677213 0.07971744 -0.059047677
0003c0 e5 61 0f 3d 04 a7 23 3e 1c 1e 10 bc 66 eb f1 bd
       0.03500547 0.1598168 -0.008796241 -0.11812477
0003d0 ed 35 22 3e f6 9e 74 bd 38 28 b9 bd 21 86 72 3e
       0.15840884 -0.05972191 -0.09040874 0.23683979
0003e0 f0 87 30 3d 39 e5 1a 3e 1d d9 a2 bd 02 3b 01 3e
       0.04309839 0.15126504 -0.07951567 0.12620166
0003f0 4c f5 1e 3d 0f b0 11 3d 3a 7f 46 bd bc 92 16 be
       0.038808152 0.035568293 -0.048461176 -0.14704412

network_body._body_endoder.seq_layers.2.bias f4 [128]
000000 00 00 00 00 00 00 00 00 00 00 00 00 00 00 00 00
       0.0 0.0 0.0 0.0
000010 00 00 00 00 00 00 00 00 00 00 00 00 00 00 00 00
       0.0 0.0 0.0 0.0
000020 00 00 00 00 00 00 00 00 00 00 00 00 00 00 00 00
       0.0 0.0 0.0 0.0
000030 00 00 00 00 00 00 00 00 00 00 00 00 00 00 00 00
       0.0 0.0 0.0 0.0
000040 00 00 00 00 00 00 00 00 00 00 00 00 00 00 00 00
       0.0 0.0 0.0 0.0
000050 00 00 00 00 00 00 00 00 00 00 00 00 00 00 00 00
       0.0 0.0 0.0 0.0
000060 00 00 00 00 00 00 00 00 00 00 00 00 00 00 00 00
       0.0 0.0 0.0 0.0
000070 00 00 00 00 00 00 00 00 00 00 00 00 00 00 00 00
       0.0 0.0 0.0 0.0
000080 00 00 00 00 00 00 00 00 00 00 00 00 00 00 00 00
       0.0 0.0 0.0 0.0
000090 00 00 00 00 00 00 00 00 00 00 00 00 00 00 00 00
       0.0 0.0 0.0 0.0
0000a0 00 00 00 00 00 00 00 00 00 00 00 00 00 00 00 00
       0.0 0.0 0.0 0.0
0000b0 00 00 00 00 00 00 00 00 00 00 00 00 00 00 00 00
       0.0 0.0 0.0 0.0
0000c0 00 00 00 00 00 00 00 00 00 00 00 00 00 00 00 00
       0.0 0.0 0.0 0.0
0000d0 00 00 00 00 00 00 00 00 00 00 00 00 00 00 00 00
       0.0 0.0 0.0 0.0
0000e0 00 00 00 00 00 00 00 00 00 00 00 00 00 00 00 00
       0.0 0.0 0.0 0.0
0000f0 00 00 00 00 00 00 00 00 00 00 00 00 00 00 00 00
       0.0 0.0 0.0 0.0
000100 00 00 00 00 00 00 00 00 00 00 00 00 00 00 00 00
       0.0 0.0 0.0 0.0
000110 00 00 00 00 00 00 00 00 00 00 00 00 00 00 00 00
       0.0 0.0 0.0 0.0
000120 00 00 00 00 00 00 00 00 00 00 00 00 00 00 00 00
       0.0 0.0 0.0 0.0
000130 00 00 00 00 00 00 00 00 00 00 00 00 00 00 00 00
       0.0 0.0 0.0 0.0
000140 00 00 00 00 00 00 00 00 00 00 00 00 00 00 00 00
       0.0 0.0 0.0 0.0
000150 00 00 00 00 00 00 00 00 00 00 00 00 00 00 00 00
       0.0 0.0 0.0 0.0
000160 00 00 00 00 00 00 00 00 00 00 00 00 00 00 00 00
       0.0 0.0 0.0 0.0
000170 00 00 00 00 00 00 00 00 00 00 00 00 00 00 00 00
       0.0 0.0 0.0 0.0
000180 00 00 00 00 00 00 00 00 00 00 00 00 00 00 00 00
       0.0 0.0 0.0 0.0
000190 00 00 00 00 00 00 00 00 00 00 00 00 00 00 00 00
       0.0 0.0 0.0 0.0
0001a0 00 00 00 00 00 00 00 00 00 00 00 00 00 00 00 00
       0.0 0.0 0.0 0.0
0001b0 00 00 00 00 00 00 00 00 00 00 00 00 00 00 00 00
       0.0 0.0 0.0 0.0
0001c0 00 00 00 00 00 00 00 00 00 00 00 00 00 00 00 00
       0.0 0.0 0.0 0.0
0001d0 00 00 00 00 00 00 00 00 00 00 00 00 00 00 00 00
       0.0 0.0 0.0 0.0
0001e0 00 00 00 00 00 00 00 00 00 00 00 00 00 00 00 00
       0.0 0.0 0.0 0.0
0001f0 00 00 00 00 00 00 00 00 00 00 00 00 00 00 00 00
       0.0 0.0 0.0 0.0

action_model._continuous_distribution.log_sigma f4 [1, 2]
000000 00 00 00 00 00 00 00 00
       0.0 0.0

action_model._continuous_distribution.mu.weight f4 [2, 128]
000000 2a 6b 0f 3d 13 4c 62 3c 93 ff 1e bc 80 c7 73 3c
       0.03501431 0.013812083 -0.009704488 0.0148791075
000010 df 71 7f bb 6b 95 2c bc bb c2 51 3c 84 98 a3 ba
       -0.0038977785 -0.010533671 0.012802775 -0.0012481366
000020 f4 54 21 3c 9d e7 25 bc 1d 39 c3 bb d0 3b 94 bc
       0.009846915 -0.010126022 -0.005957736 -0.018094927
000030 80 24 d6 bc 97 79 98 bc a3 42 04 3d 2d 38 cd bc
       -0.026140451 -0.018612666 0.032290112 -0.0250512
000040 a7 dc 07 3b 46 e0 3b 3c ca 1c 25 3a c7 16 13 bb
       0.0020730884 0.011467045 0.00062985404 -0.0022443996
000050 9f 4f c9 bc d3 e3 d1 3a 2b 1a 85 3c ca f1 0c bd
       -0.0245741 0.0016013331 0.01624783 -0.034410276
000060 03 88 7a 3c b3 26 01 3b af 9d 56 bd 7e 02 8a bb
       0.015291217 0.0019706904 -0.052396473 -0.004211723
000070 49 87 a4 bc 4e ce af 3c 07 d2 af 3c 7a 3d d3 bb
       -0.02008404 0.021460678 0.021462454 -0.0064465376
000080 df 11 aa bc 02 3d eb bc 29 7a 48 bc 67 a9 1c bc
       -0.020760475 -0.028715614 -0.0122361565 -0.009561873
000090 52 0e c4 bc 27 2a d8 3b 8a a6 92 3c a2 a2 93 bc
       -0.02393261 0.006596822 0.017901678 -0.018021885
0000a0 16 49 8e 3b d1 e3 8f bc 28 29 5e bb df 99 b2 3c
       0.0043422086 -0.017564686 -0.0033899043 0.021801887
0000b0 ec 9d 48 3c 72 3f a1 bc 93 e4 9f bb 99 84 8a bb
       0.012244683 -0.019683573 -0.004879543 -0.0042272327
0000c0 dc 7a c6 bc 1b 9e 87 3c bc b8 8c ba e4 5e 22 3c
       -0.024228506 0.016554883 -0.0010736207 0.009910319
0000d0 13 41 d7 3b bd 05 8d bc a5 1d 80 3c ed b6 3f 3a
       0.0065690367 -0.01721465 0.015639136 0.000731333
0000e0 7b 9a 97 3b c7 14 35 bd e8 fe 4e bc db 75 13 3c
       0.00462657 -0.044209268 -0.012634017 0.009000267
0000f0 62 03 3b 3b ed 04 7d b9 de c8 08 bc 13 a0 24 bd
       0.0028535952 -0.00024129795 -0.008348672 -0.04019172
000100 7f 91 0a b9 46 5b c8 bc 4f ba 99 bc 24 53 11 bc
       -0.00013214907 -0.024457585 -0.018765597 -0.00886992
000110 f2 c5 38 bc 24 6a 9f bc 92 be 61 bc 67 30 fa 3b
       -0.011277663 -0.019459791 -0.013778346 0.0076351645
000120 5b a0 3b bb 98 d5 de bb 85 8f 59 bc 93 30 c1 bb
       -0.0028629515 -0.0068003647 -0.013278847 -0.005895683
000130 c9 3b af bb 27 c1 1a 3c dd c3 87 3c 6f 28 b7 ba
       -0.005347703 0.009445465 0.016572887 -0.0013973842
000140 33 b0 40 bb fb d3 fd bc 7b 5c 7d bc 67 7a 44 3c
       -0.0029401898 -0.03098487 -0.015463944 0.011992074
000150 a1 97 43 3b 2a 92 25 3c b7 21 d7 3c 99 07 9b 3b
       0.0029845017 0.010105649 0.026261194 0.0047311303
000160 f7 91 8d 3c 82 c7 83 bc 69 26 b3 3b a2 2d 1f bc
       0.017281516 -0.016086344 0.0054672253 -0.00971547
000170 d0 84 e1 3b 7e 3d b7 39 03 b6 29 3c 30 05 ff 3b
       0.0068822876 0.00034950295 0.010358336 0.007782601
000180 36 34 3c 3c 27 a1 3f bc 90 bf 3c 3c 40 de 5c 3d
       0.011487057 -0.011696137 0.011520281 0.05392289
000190 31 e1 31 bb 27 ba fc bb e7 20 48 3d e3 50 02 bc
       -0.0027142281 -0.007712621 0.048859503 -0.007953855
0001a0 c2 0a 49 bc f7 d0 fe bb fe 5e a5 3c 1f 6f 55 3a
       -0.012270631 -0.0077763754 0.020186897 0.00081418635
0001b0 37 a6 0e bd 8f f6 eb 3c cf c5 a1 bc 7b 14 cf 39
       -0.034826484 0.028804092 -0.019747643 0.00039497376
0001c0 dd e3 d6 bc 91 db 94 3c 1f 96 b8 bb 18 91 dd bb
       -0.0262317 0.018171104 -0.00563313 -0.0067616813
0001d0 99 44 36 3c 7f 98 58 bc 41 2f b9 3b 73 9a 8b 3c
       0.011124753 -0.013219952 0.005651385 0.01704142
0001e0 70 ac b2 bc ba e8 c1 3b af 8d 37 3b bb 9e 20 3c
       -0.02181074 0.0059176357 0.0028008034 0.009803469
0001f0 84 a6 10 3d 85 40 d3 3b 15 4b be 3c 68 c1 e8 bb
       0.03531505 0.0064469003 0.023229161 -0.007103134
000200 23 11 05 3d d0 a2 ec 3b 83 9f a0 3c f8 9d 28 bd
       0.032487046 0.007221557 0.019607311 -0.041166276
000210 e7 c5 04 bd 49 87 2d 3c 5a e1 cd 3c 7d de c2 bc
       -0.032415297 0.0105913365 0.02513187 -0.023787731
000220 2f f4 e0 3c 37 91 b8 b9 40 9d e9 bb c7 b6 bc bc
       0.027460186 -0.00035203408 -0.0071293414 -0.023036374
000230 23 06 05 3c b3 4c d0 3c 29 37 3f bd c1 4a 04 3d
       0.008119139 0.025427198 -0.046683464 0.032297853
000240 46 d5 49 bb 9a bb 57 bc e6 25 99 bc cf 8b f0 3b
       -0.0030797287 -0.013167286 -0.01869483 0.0073408852
000250 81 2e 00 bd bb 7b d6 bc 00 5e 8d bb b5 2c 4d bc
       -0.03129435 -0.026182046 -0.004314184 -0.012522866
000260 1d 19 34 3d 9a 53 54 bb 97 e4 81 bc 17 95 a9 bc
       0.043969262 -0.0032398463 -0.01585607 -0.020700974
000270 67 a6 d3 bb 08 e5 75 bb 4f d6 80 3c 1b 96 01 bc
       -0.0064590457 -0.0037520546 0.01572719 -0.007909323
000280 6a e1 0f bc 08 c2 29 bd e8 4a 76 bb 05 aa 89 bb
       -0.00878177 -0.04144481 -0.0037581269 -0.004201176
000290 bf da d0 3a 30 b4 89 3b 3d 5b c6 3b 2b 01 8b 3a
       0.0015934332 0.004202388 0.006053357 0.0010605206
0002a0 a3 e3 11 3c 1d f6 8f bb 6e 17 c7 bc fb 70 9a bb
       0.0089043705 -0.0043933527 -0.024303164 -0.0047131754
0002b0 b8 b1 5a 3c 07 e0 ec 3b 8c 90 b4 3c 2b f9 14 3c
       0.0133480355 0.0072288546 0.022041582 0.009092609
0002c0 d5 80 17 bc d3 27 09 3c 8d 04 a1 bb 57 ca a7 3c
       -0.009247025 0.008371311 -0.0049138726 0.020482225
0002d0 4c 9f 14 bb 03 8d ae bb e4 a0 a8 bb d3 da 1e bc
       -0.0022677956 -0.0053268685 -0.005146133 -0.009695726
0002e0 9e ae 45 bd c3 c7 49 3d 7b ed 57 bc d3 4a e1 bc
       -0.04826223 0.049262773 -0.013179178 -0.0275015
0002f0 99 a7 29 3c 13 88 8f 3b d5 d8 81 bc b7 50 85 3c
       0.0103549 0.004380235 -0.015850464 0.01627384
000300 b0 eb bf 3a a8 de fd 3b 0e 98 8c 3c c3 d3 64 bc
       0.0014642384 0.00774749 0.01716235 -0.013966504
000310 b5 89 13 bd 8b d9 79 3c 73 bf ca 3c f2 d3 c4 bc
       -0.03602 0.01524962 0.024749493 -0.024026845
000320 74 4a 88 bc da 90 82 3b a1 3f 96 bb e3 39 39 3b
       -0.016637065 0.003984553 -0.004585222 0.0028263263
000330 d7 ca 06 bd 9b 6d 0e bc 95 49 e7 ba 0f 4f b0 3c
       -0.032908287 -0.008693124 -0.001764583 0.021522073
000340 d0 a5 eb bc 6f 23 47 bc 8f 2e be bb ef 41 03 3c
       -0.028765589 -0.012154444 -0.00580389 0.008011325
000350 9b 77 cd 3a d0 f9 ab bc 6c a9 29 bc 4b d4 52 bb
       0.0015675904 -0.020993143 -0.010355335 -0.0032169994
000360 93 12 1a 3c fc f3 a1 3b d6 d0 3f 38 97 ec 97 ba
       0.0094038425 0.0049424153 4.5732442e-05 -0.0011590895
000370 7b 53 8b bb af 44 88 bc 03 e7 5e 3b ff 50 c8 ba
       -0.004251895 -0.016634313 0.0034012205 -0.0015282928
000380 0f d3 6a b9 84 04 41 3b 5b 83 53 bc 44 54 0c bc
       -0.00022394604 0.0029452154 -0.012909736 -0.008565012
000390 bc 17 01 3c 0a 54 13 3d 5d 79 76 3b f2 44 fb 3c
       0.007879194 0.035968818 0.003760896 0.030672524
0003a0 56 bd b0 bc fe 70 c5 3b 07 2f f2 bc 10 cb fe 3a
       -0.021574657 0.0060254326 -0.02956344 0.001943918
0003b0 1e 97 85 3b 2c 4a a5 bc 71 4c cb bc 75 eb f1 bb
       0.0040768525 -0.02017697 -0.024816724 -0.007382805
0003c0 5f d4 cf 3c 2b 13 cd bb 4d ee d3 ba 8f 4b 96 3b
       0.025369821 -0.0062583885 -0.0016169042 0.004586644
0003d0 12 86 f5 3c fb 75 94 3c 4b b1 a5 3c 4a 2e 8d bc
       0.029971156 0.018122664 0.020226141 -0.017233986
0003e0 26 6b c5 bb 85 33 fb 3b 18 ed c2 bc 1f 04 62 3b
       -0.006024736 0.0076660537 -0.023794696 0.003448732
0003f0 c4 6b bc 3c ea 7e 67 3c 97 eb 65 3c 8f 8b fc 39
       0.023000605 0.01412938 0.01403322 0.00048169165

action_model._continuous_distribution.mu.bias f4 [2]
000000 00 00 00 00 00 00 00 00
       0.0 0.0

action_model._discrete_distribution.branches.0.weight f4 [2, 128]
000000 33 1f 08 3c 40 83 d3 bb 99 a9 26 3c 3f e5 11 3c
       0.00830822 -0.006454855 0.010172271 0.008904754
000010 a6 de af 3a b2 1f 63 bb 48 96 d3 bb 87 8b 20 3c
       0.0013417795 -0.0034656343 -0.006457124 0.009798891
000020 f6 51 1c bc 5a a4 da bb 1a 53 7d bc 9f f2 a3 3b
       -0.009541025 -0.0066724243 -0.0154617075 0.005003288
000030 bf e1 87 3b bf f1 f7 bb 6c 4c 31 bc 50 fc de 3a
       0.004146784 -0.00756666 -0.010821443 0.0017012451
000040 57 59 8a bb 3c 6f 93 bc 7b 70 1f bc f3 60 19 3c
       -0.004222076 -0.017997377 -0.009731407 0.009361493
000050 d3 c4 3b bc b3 28 a7 3b 62 b9 b5 3b ba 1e 7d bb
       -0.011460501 0.0051012873 0.005545781 -0.003862305
000060 c9 ef 29 3c d3 1c de bb 7b 75 d3 bb 7f a8 f1 3c
       0.010372111 -0.0067783385 -0.0064532137 0.02949929
000070 b7 c8 fe 3b f9 88 9a bb a0 b0 57 3c 55 e1 72 bb
       0.007775392 -0.0047160354 0.013164669 -0.0037060578
000080 35 b0 f6 bb ed b4 28 3c db 34 e7 bb 1d c9 09 3b
       -0.0075283297 0.010297042 -0.0070558614 0.0021024414
000090 07 0f 02 bc 96 45 3d 3a 87 b3 eb bb 8b ee eb 3b
       -0.007938153 0.0007220147 -0.007193032 0.0072000674
0000a0 6b 7a c7 bb 25 d5 11 bc d9 65 90 bc b0 36 47 3a
       -0.0060875914 -0.008900915 -0.01762669 0.00075993966
0000b0 bd 5c d8 bb 68 e7 ac 3a 13 c3 12 bb 05 5a b4 b9
       -0.006602852 0.0013191523 -0.0022394105 -0.00034399345
0000c0 4b 45 e2 bb 38 4c ef 3a 6d ed 04 3c 9d 03 59 bc
       -0.006905233 0.0018256968 0.008113247 -0.01324549
0000d0 2e 98 21 3c aa b5 7c bb 35 91 61 3b 1a b4 21 bc
       0.009862943 -0.0038560429 0.0034418826 -0.0098696
0000e0 df de 33 3b e8 1a 78 3b 56 20 a8 ba f2 07 1b 3c
       0.0027446074 0.0037857834 -0.001282702 0.0094623435
0000f0 f2 3a 2b bc e3 04 f8 bb 20 42 61 bb 43 08 90 bb
       -0.010451065 -0.007568942 -0.003437169 -0.004395516
000100 48 af a1 3a f2 38 d8 bb 47 97 e0 3b 84 1a 97 bc
       0.0012335563 -0.0065985853 0.006853971 -0.01844526
000110 23 0c 41 3c ad cf c2 3b 9d 9e 0e 3c 45 71 fa 3a
       0.011782679 0.005945167 0.008704809 0.0019107243
000120 7d 67 01 bc f0 2f 08 bb 40 fb 53 bc b5 c9 ba 3a
       -0.007898209 -0.0020780526 -0.012938321 0.0014250787
000130 8e 32 1e bc 5d 24 af bc 43 61 47 3c 13 90 8c bb
       -0.009655608 -0.021379644 0.012169185 -0.004289636
000140 23 db 12 3c c0 12 68 ba a2 27 98 3b 8e df 34 3b
       0.008963379 -0.00088528916 0.0046433965 0.002759907
000150 9b b1 df ba 4b fe 29 3b 5d 6b 1c bb 98 91 15 bb
       -0.001706648 0.0025938924 -0.0023867704 -0.0022822376
000160 b2 c7 d3 3b a7 d3 a5 bb aa 81 51 bc 22 bc 5a 3c
       0.0064630145 -0.0050606313 -0.012787262 0.013350518
000170 e7 0c 8e bc 2c 88 2a bc d7 71 a9 3a e6 32 83 3b
       -0.017340137 -0.0104084425 0.0012927604 0.0040038703
000180 0f 5b a6 3c 5b 88 ba 3b e7 f2 db 3a 5f cc 3e 3b
       0.020307092 0.0056925244 0.0016780765 0.0029113514
000190 6f e0 b5 3b 68 e8 59 bc bd 5c ec 3b c1 4d 20 bc
       0.005550436 -0.013300039 0.0072132037 -0.009784163
0001a0 60 4c d4 bb 31 96 1a bc a0 df 5b bc bb cb e2 bb
       -0.006478831 -0.0094352225 -0.013420016 -0.006921259
0001b0 e7 0e a0 ba a0 d7 f0 bb 95 a2 61 3c e7 71 86 bc
       -0.0012211472 -0.0073499233 0.013771673 -0.016411735
0001c0 57 49 c8 b9 5f af 91 3b f1 da b1 bb 49 4b 0c 3a
       -0.00038201615 0.0044459547 -0.005427711 0.00053517945
0001d0 15 b9 88 bb fa 74 67 3b 47 18 1f 3c d8 1b f2 bb
       -0.004172454 0.0035317526 0.009710378 -0.007388573
0001e0 8f 75 93 bc 98 cf e3 bc bd 02 0d bb b8 18 4c 3b
       -0.018000392 -0.02780895 -0.0021516525 0.0031142663
0001f0 49 35 b9 bb df 20 51 3c f2 e2 cb bb e5 69 f4 bb
       -0.005652104 0.012764185 -0.0062221223 -0.0074589127
000200 a6 e3 22 3c c0 69 01 3b af 09 3d 3c 74 c2 2f 3c
       0.009941971 0.001974687 0.011537953 0.010727514
000210 59 b8 1a 3c 75 11 3f ba 74 8d 84 3c fa 13 9b ba
       0.009443366 -0.0007288673 0.016180731 -0.0011831515
000220 88 f9 9e b9 4d 54 15 bc a3 04 07 3c 60 ef 70 3b
       -0.00030322024 -0.009114337 0.008240852 0.0036763772
000230 50 1e e0 ba 4d 50 21 3c dd ed d9 3b 52 cd 78 bb
       -0.0017098878 0.009845805 0.00665067 -0.0037964177
000240 60 23 91 bc 32 32 d5 3a 42 70 c5 bb 62 4a ee 3a
       -0.017717063 0.001626557 -0.006025345 0.0018180127
000250 6d 91 e2 3b 45 98 98 3a 67 2d a0 3c 42 8b 93 3b
       0.0069143088 0.001164206 0.0195529 0.004502685
000260 72 68 67 bb f9 93 00 bb c7 1f ea 3a 4f ef c5 3b
       -0.0035310057 -0.0019619449 0.0017862254 0.0060404907
000270 0b 2f 78 3c ba 96 b4 3a 18 05 f5 3b 23 fe ca 3b
       0.015147935 0.001377783 0.007477414 0.0061948462
000280 1a c2 d5 bb 83 4d 29 3a c5 a8 b8 3b e5 ff 45 3b
       -0.006523383 0.00064583885 0.0056353533 0.003021234
000290 99 8e 91 b9 68 b9 5d ba de 14 9f bc 79 10 ca 3c
       -0.000277628 -0.00084581086 -0.01941913 0.024666058
0002a0 ef ee 39 3c 43 61 52 bb 38 9f d6 b9 45 cc 0c bc
       0.01134847 -0.003210143 -0.00040935888 -0.0085936235
0002b0 79 ff 45 bc af ed 58 bc a1 3d 15 bc 8d f1 13 bc
       -0.012084835 -0.013240262 -0.009108932 -0.009029758
0002c0 e2 8b dc 39 0d 54 6a bc ff a8 80 bb 33 0e b4 bb
       0.0004206589 -0.014302266 -0.003926396 -0.0054948567
0002d0 8b 30 9e bb d0 5a 33 3a 92 ae d2 bb 2e 83 15 3c
       -0.004827564 0.000684184 -0.006429502 0.009125514
0002e0 ba bf 65 3a d7 21 73 ba 4a 57 4f bc 97 dc bd 3a
       0.0008764226 -0.0009274757 -0.012655089 0.0014485297
0002f0 40 6a f7 3b f1 77 a9 3b 77 56 c0 3b b2 cc 72 3c
       0.007550508 0.005171769 0.0058696824 0.014819311
000300 ab de 42 3b 47 28 f8 3b 3a e1 f4 bb fa 78 ea 3b
       0.0029734771 0.007573161 -0.007473138 0.007155535
000310 62 c8 67 bb 6b 8b 1a bb 92 91 6e bb 30 f5 b5 b9
       -0.003536724 -0.0023581635 -0.0036402685 -0.0003470569
000320 7f 33 36 3c b7 2e 56 3c db 2d 37 3c f5 60 a0 bb
       0.011120676 0.013072661 0.011180366 -0.0048943707
000330 1c be 03 3d 9b e0 2f bb 30 af 7c bc 67 af 9b bb
       0.032163724 -0.0026836756 -0.015422627 -0.004751134
000340 af 95 3b 3a 4b 5a 01 3c 2f 6c 22 3c a1 7b 85 bc
       0.00071557885 0.007895063 0.009913488 -0.016294302
000350 8a 72 9a 3c 6a 47 4d 3c 25 cf 5a 3b 63 42 ab bc
       0.018853445 0.0125292335 0.0033387628 -0.02090568
000360 34 11 20 3c 17 f1 45 ba 55 24 35 bb 40 76 5f bb
       0.009769727 -0.0007550879 -0.0027640064 -0.0034097582
000370 12 0e 75 bb 9b 64 e9 ba 4b 2e bd bc 67 3c 03 bb
       -0.003739242 -0.0017806472 -0.023093363 -0.0020025016
000380 6f 84 11 bb 1f c9 a9 bb 8d e1 86 bc ef 84 a1 3c
       -0.002220418 -0.005181446 -0.016464973 0.019716708
000390 4c 4b af 3c 73 44 05 3c 90 a5 69 bc c7 92 34 3b
       0.021398209 0.008133995 -0.014260665 0.0027553306
0003a0 8f dd 8f 3b af 8e c1 3a 63 13 07 bc 63 38 86 39
       0.0043904255 0.0014767254 -0.008244368 0.00025600483
0003b0 60 5d cf bb 3d 5d b3 b9 5f 7e f0 3b c2 81 59 3b
       -0.00632827 -0.00034211008 0.0073392834 0.0033188914
0003c0 77 c1 9d ba df 4d 3a 3c b3 8e 49 bb 58 9c d5 bb
       -0.0012035806 0.011371105 -0.0030755221 -0.006518882
0003d0 28 ba 1e 3b 28 43 78 bc a3 d4 a8 3a a7 1c 20 bb
       0.0024219844 -0.01515273 0.0012880753 -0.002443114
0003e0 8f 63 c2 3a 14 48 8f bb 2b 70 8e 3b 93 8c d0 bb
       0.0014830696 -0.004372606 0.0043468676 -0.006364414
0003f0 a2 a5 15 3c 25 0e ed 3b 41 ba 0f bb c2 75 4d bb
       0.009133728 0.007234352 -0.0021931084 -0.0031350707

action_model._discrete_distribution.branches.0.bias f4 [2]
000000 00 00 00 00 00 00 00 00
       0.0 0.0

network_body._body_endoder.seq_layers.0.weight f4 [128, 7]
000000 9e 3c 9b 3d 2a fd 11 3f e1 07 f4 3d 82 0b 2f bf
       0.07579921 0.5702692 0.11915565 -0.68376935
000010 40 07 97 bd 1e 37 13 bf 92 34 15 3e ce a9 2a bf
       -0.0737443 -0.5750598 0.14570835 -0.6666535
000020 44 78 9f be 32 53 9b 3e b7 23 87 be b1 27 c9 be
       -0.31146443 0.3033691 -0.26394436 -0.39288095
000030 1e 67 28 3e 59 1d 6f be c9 98 5b bf 2d f9 78 bc
       0.16445586 -0.23351039 -0.85780007 -0.015196127
000040 b6 53 3b 3e 0a 0f fc 3e c2 02 5e bd 19 d4 4d 3e
       0.18293652 0.49230224 -0.05420185 0.2010044
000050 bf 07 f0 3e ce 21 23 3f ce d9 0d bf a4 11 82 3e
       0.4688091 0.63723457 -0.5541047 0.25404084
000060 33 91 08 3f cd 7c 90 be d7 e3 43 3f c8 64 e3 bd
       0.53346556 -0.28220215 0.7651953 -0.11103207
000070 7c c9 42 3d 6f fa 66 be 74 ef 57 3e 8e f0 c9 bd
       0.04755543 -0.2255647 0.21087438 -0.09860335
000080 5c 0a 0e bf 79 8d ff bd 43 7b a1 3d eb a0 e5 be
       -0.5548456 -0.12478156 0.078848384 -0.44849333
000090 ca 46 04 bf 0d 12 78 3f dd 48 59 bf d5 10 d5 bc
       -0.51670516 0.96902543 -0.84876806 -0.026009003
0000a0 e9 e8 a4 3b 2c c3 db bd cd 1f 9e 3e 9c 3c 8a bf
       0.005032648 -0.107305855 0.30883637 -1.0799747
0000b0 94 b4 0e bf 55 70 08 3e f6 50 d1 3e 95 d4 d4 be
       -0.5574429 0.13324101 0.4088208 -0.41568437
0000c0 7d 90 32 bf 07 4b 90 bd 6d 4a 6c 3e 28 82 bb 3e
       -0.6975172 -0.0704556 0.23075266 0.3662274
0000d0 9e bf 09 be d6 39 ac 3e e1 0d eb 3e ec e3 87 3d
       -0.13452002 0.33637875 0.45909026 0.066352695
0000e0 8f 81 0d 3f 7d ce 64 3e 76 3e 1d 3e 77 c6 ae bd
       0.55275816 0.22344394 0.15355858 -0.08533948
0000f0 c1 a4 a6 be 15 4f 47 bc ad bd 32 3b a4 5e d5 be
       -0.32547572 -0.012164851 0.00272737 -0.41673768
000100 cd 17 50 3f 1f 70 94 3e dc 1c 1a 3e dc 86 80 bd
       0.8128632 0.28991792 0.15050071 -0.062757224
000110 65 14 fb be 6e ac 04 be 88 44 df bc 05 34 2a be
       -0.49038997 -0.12956402 -0.027254358 -0.16621406
000120 d4 96 6a bc 01 72 c9 be a1 c2 ab be 63 b5 58 3e
       -0.014318187 -0.3934479 -0.33546928 0.21162944
000130 15 7d d7 bd 74 fc 2c 3f ef ac 1c be 96 f8 01 3f
       -0.105219044 0.6757271 -0.15300344 0.5076994
000140 0b e3 34 bf af fb 8f bd 91 06 d9 3d e6 cd 3c ba
       -0.7065894 -0.07030427 0.105969556 -0.0007202312
000150 42 13 11 be 0d ca 58 3e fb fd 23 3d bb 71 87 bf
       -0.14167503 0.21170826 0.040037137 -1.0581583
000160 9b b7 e6 3c fd c4 1b 3f b6 92 e4 be da e2 a5 bd
       0.028163722 0.60847455 -0.44643182 -0.08099909
000170 bc 85 eb be 6a fe b6 3c b2 21 f8 3d cf 65 bf 3e
       -0.4600047 0.022338111 0.12115802 0.3738236
000180 f2 7b 7d be 0c b0 0b 3f ec 00 4e 3f 9e e8 f0 bc
       -0.24754313 0.545655 0.80470157 -0.029407796
000190 c1 46 8b be 72 bf c6 be b4 08 24 be 78 08 cb 3c
       -0.27202418 -0.38817936 -0.16018945 0.024784312
0001a0 82 45 6e be bf 15 e1 bd 9e 19 91 3e 4d 2d c6 be
       -0.23268703 -0.10990476 0.28339857 -0.38706437
0001b0 f9 fb 39 be 41 98 c1 be 06 23 85 be b1 d9 4d be
       -0.18162526 -0.37811473 -0.26003283 -0.20102574
0001c0 6b fb e3 be 80 f2 90 be ac 83 00 3f 99 6e cc 3e
       -0.44527754 -0.28310013 0.50200915 0.3992813
0001d0 71 c3 28 bf 6d 45 76 bf ac c7 07 3e 12 eb 55 be
       -0.6592322 -0.96199685 0.13259763 -0.20890453
0001e0 91 e7 04 3b fb 76 26 bf 22 b8 43 3e 80 ce fd be
       0.0020279626 -0.650253 0.1911321 -0.4957161
0001f0 e9 e7 cf 3d 7d 47 8a be 54 3a 6c 3d bd 34 0d bd
       0.10151655 -0.27007666 0.057672814 -0.034474123
000200 d5 70 14 3d 62 bb e9 be 0e 6a ea bd 2a 90 2e bf
       0.036240418 -0.45650774 -0.114460096 -0.68188727
000210 a9 b9 f3 3e 1f 14 73 bc 03 c8 f6 be 45 b5 30 be
       0.47602585 -0.01483634 -0.48199472 -0.17256649
000220 4a 90 27 be 80 d6 d2 3e 34 72 c7 bd 41 df cb bc
       -0.16363636 0.41179276 -0.097385794 -0.02488673
000230 3d 3b 4c 3f 54 2b 75 bd 20 35 e5 bd c5 0a 01 be
       0.7977789 -0.059855774 -0.111917734 -0.12601765
000240 0a c7 4a be cd df c7 be 11 a9 8e 3b d8 6a c3 be
       -0.1980249 -0.39037934 0.0043536504 -0.38167453
000250 9f 4d 7b bd 11 88 cd be c3 23 fb be e7 90 b8 be
       -0.061353322 -0.40142873 -0.49050722 -0.36048052
000260 a6 48 a1 3e 50 51 80 bd 0e 2c 76 3e 3b fd 65 3e
       0.3150074 -0.06265509 0.24040243 0.22459881
000270 2e 8d ff 3d 81 29 2f bf 69 eb 87 3e e7 94 f7 3e
       0.124781 -0.68422705 0.2654679 0.4835579
000280 39 32 50 be a3 ea 83 be dd 78 0e bf 7c a8 1e 3f
       -0.20331658 -0.2576495 -0.5565317 0.61975837
000290 94 e5 58 be 82 6e d8 bd 54 87 11 3e 0c 29 07 3f
       -0.21181327 -0.10567953 0.1421178 0.5279701
0002a0 10 2b 0b 3f c3 de 15 bd ac 51 93 be 8e 29 b4 3e
       0.54362583 -0.036589395 -0.28773248 0.35187954
0002b0 b5 38 bf be c5 cf 5d bd 41 75 ed bd 96 be 07 bf
       -0.37347952 -0.054153223 -0.1159463 -0.53025186
0002c0 7a 52 07 3f 83 72 ef bd d3 f6 4c 3e 4d a7 4c be
       0.52860224 -0.11691763 0.20016031 -0.19985695
0002d0 58 68 f6 be a9 8d ce 3d 91 9c 59 3c 18 ec 01 bf
       -0.48126483 0.10085613 0.013281957 -0.50750875
0002e0 54 e9 95 3e ed fe 05 3f ad 47 36 3d 4f 6d 1a 3e
       0.29279578 0.5234211 0.04450195 0.1508076
0002f0 6f 10 ae bd 36 be de 3e 4d 19 10 3f fd b5 06 3c
       -0.08499228 0.43504494 0.56288606 0.0082221
000300 4a 1d a7 bc 8d a0 47 3e bd 70 1d bc b5 c4 c2 3d
       -0.020399708 0.19494839 -0.009609398 0.09510175
000310 24 9d 21 be 82 c0 56 be 75 d3 b0 3d cc af e5 bd
       -0.157826 -0.20971873 0.08634082 -0.11215171
000320 4d c5 f1 3e 69 7a 81 3e eb fb 87 be 5f f2 77 3e
       0.4722084 0.25288704 -0.26559386 0.24213551
000330 3a 73 d6 3c 3c 4f 9d be ee dd 02 bf c4 d4 08 bf
       0.026177991 -0.30724514 -0.5111989 -0.53449655
000340 6e 51 71 be 86 4a 42 3e c0 a3 90 be e7 2b 83 be
       -0.23566219 0.18973741 -0.2824993 -0.25619432
000350 fc 57 ad 3e e9 cf 06 3c bc ff 43 be 78 74 5d be
       0.3385619 0.008228281 -0.19140524 -0.2162646
000360 ef f0 25 3b e7 51 a0 3e cc 54 81 3f ef b7 5c 3e
       0.002532061 0.31312487 1.0104003 0.2155454
000370 8d 1c 7f bc e8 99 aa 3d 93 2b 5f be 75 6c 33 be
       -0.015570772 0.083301365 -0.21793966 -0.17521842
000380 e3 bc af 3d 76 ea 0d 3f 13 8c 84 bd 31 7a df 3d
       0.08580949 0.55435884 -0.064720295 0.10911978
000390 fa 3d 2d bf 33 4a 48 3e 51 7d 79 be 50 40 e4 bd
       -0.67672694 0.19559555 -0.2436421 -0.11145079
0003a0 f8 a5 ff bc a1 f1 b0 3e fb 56 46 3e ea 4e 37 3d
       -0.03120707 0.34559348 0.19369118 0.044752993
0003b0 5c 0a 8f be f3 1c 0a bf 9b dc 13 be 7f 56 9b bd
       -0.2793759 -0.53950423 -0.14439623 -0.07584857
0003c0 ae ee 0d 3e d6 d7 2b 3e eb a6 51 be 16 e4 fa 3e
       0.1386058 0.16781554 -0.2047383 0.4900214
0003d0 16 99 1a bf 5f 65 cf be 25 81 fe 3e 5f 59 94 3d
       -0.6038984 -0.40507028 0.49707904 0.07243609
0003e0 75 ba c0 3e d3 c4 34 bf 6c 89 a4 3e 62 be a9 3e
       0.37642255 -0.7061283 0.32136095 0.33153063
0003f0 6f bb 20 bf b1 3d 19 3c d2 5e c4 be 88 4c 51 bf
       -0.62786 0.009353087 -0.38353592 -0.817574

network_body._body_endoder.seq_layers.0.bias f4 [128]
000000 00 00 00 00 00 00 00 00 00 00 00 00 00 00 00 00
       0.0 0.0 0.0 0.0
000010 00 00 00 00 00 00 00 00 00 00 00 00 00 00 00 00
       0.0 0.0 0.0 0.0
000020 00 00 00 00 00 00 00 00 00 00 00 00 00 00 00 00
       0.0 0.0 0.0 0.0
000030 00 00 00 00 00 00 00 00 00 00 00 00 00 00 00 00
       0.0 0.0 0.0 0.0
000040 00 00 00 00 00 00 00 00 00 00 00 00 00 00 00 00
       0.0 0.0 0.0 0.0
000050 00 00 00 00 00 00 00 00 00 00 00 00 00 00 00 00
       0.0 0.0 0.0 0.0
000060 00 00 00 00 00 00 00 00 00 00 00 00 00 00 00 00
       0.0 0.0 0.0 0.0
000070 00 00 00 00 00 00 00 00 00 00 00 00 00 00 00 00
       0.0 0.0 0.0 0.0
000080 00 00 00 00 00 00 00 00 00 00 00 00 00 00 00 00
       0.0 0.0 0.0 0.0
000090 00 00 00 00 00 00 00 00 00 00 00 00 00 00 00 00
       0.0 0.0 0.0 0.0
0000a0 00 00 00 00 00 00 00 00 00 00 00 00 00 00 00 00
       0.0 0.0 0.0 0.0
0000b0 00 00 00 00 00 00 00 00 00 00 00 00 00 00 00 00
       0.0 0.0 0.0 0.0
0000c0 00 00 00 00 00 00 00 00 00 00 00 00 00 00 00 00
       0.0 0.0 0.0 0.0
0000d0 00 00 00 00 00 00 00 00 00 00 00 00 00 00 00 00
       0.0 0.0 0.0 0.0
0000e0 00 00 00 00 00 00 00 00 00 00 00 00 00 00 00 00
       0.0 0.0 0.0 0.0
0000f0 00 00 00 00 00 00 00 00 00 00 00 00 00 00 00 00
       0.0 0.0 0.0 0.0
000100 00 00 00 00 00 00 00 00 00 00 00 00 00 00 00 00
       0.0 0.0 0.0 0.0
000110 00 00 00 00 00 00 00 00 00 00 00 00 00 00 00 00
       0.0 0.0 0.0 0.0
000120 00 00 00 00 00 00 00 00 00 00 00 00 00 00 00 00
       0.0 0.0 0.0 0.0
000130 00 00 00 00 00 00 00 00 00 00 00 00 00 00 00 00
       0.0 0.0 0.0 0.0
000140 00 00 00 00 00 00 00 00 00 00 00 00 00 00 00 00
       0.0 0.0 0.0 0.0
000150 00 00 00 00 00 00 00 00 00 00 00 00 00 00 00 00
       0.0 0.0 0.0 0.0
000160 00 00 00 00 00 00 00 00 00 00 00 00 00 00 00 00
       0.0 0.0 0.0 0.0
000170 00 00 00 00 00 00 00 00 00 00 00 00 00 00 00 00
       0.0 0.0 0.0 0.0
000180 00 00 00 00 00 00 00 00 00 00 00 00 00 00 00 00
       0.0 0.0 0.0 0.0
000190 00 00 00 00 00 00 00 00 00 00 00 00 00 00 00 00
       0.0 0.0 0.0 0.0
0001a0 00 00 00 00 00 00 00 00 00 00 00 00 00 00 00 00
       0.0 0.0 0.0 0.0
0001b0 00 00 00 00 00 00 00 00 00 00 00 00 00 00 00 00
       0.0 0.0 0.0 0.0
0001c0 00 00 00 00 00 00 00 00 00 00 00 00 00 00 00 00
       0.0 0.0 0.0 0.0
0001d0 00 00 00 00 00 00 00 00 00 00 00 00 00 00 00 00
       0.0 0.0 0.0 0.0
0001e0 00 00 00 00 00 00 00 00 00 00 00 00 00 00 00 00
       0.0 0.0 0.0 0.0
0001f0 00 00 00 00 00 00 00 00 00 00 00 00 00 00 00 00
       0.0 0.0 0.0 0.0

network_body._body_endoder.seq_layers.2.weight f4 [128, 128]
000000 7e f3 35 3d 52 4f 40 bd 6b 65 a7 3d 9a b5 9a 3c
       0.044421665 -0.046950646 0.08173641 0.018885422
000010 7b 13 f6 bd 23 82 83 3c a2 dc 94 3d fc f0 db 3d
       -0.12015434 0.016053265 0.07268645 0.107393235
000020 76 2e ce 3d 04 e0 83 bd ae 03 95 3d 3d cb 31 3d
       0.100674555 -0.06439212 0.072760925 0.043406714
000030 e8 2c 72 bd be a7 56 3d 81 f3 cc bd dd 37 02 3e
       -0.059124857 0.052406065 -0.10007382 0.12716623
000040 ea 2b 02 be 0e 39 b1 3d 5b 02 e3 3b 49 74 4d bd
       -0.12712064 0.086534604 0.006927771 -0.050159726
000050 2c 8e 9b 3c d1 1d a3 bd 12 92 83 bc c4 12 4c 3e
       0.018988691 -0.079646714 -0.016060863 0.19929034
000060 51 c1 dd bc 22 48 1e bd 5f 0f 2a bc bb 73 4e bd
       -0.02706972 -0.03864301 -0.010379641 -0.050403338
000070 63 9d 33 3e 69 41 94 3d 63 54 d4 3d f0 67 0c bd
       0.17540507 0.072390385 0.10367658 -0.03427881
000080 29 9c b5 3d 4f 67 75 bc 96 6b ab 3d 14 d5 4b 3e
       0.08867676 -0.014978244 0.0837013 0.19905502
000090 f9 ee 27 3c 12 8d 9e bd 63 d1 bb 3d e5 3a bb bd
       0.010249847 -0.07741751 0.09170797 -0.091420926
0000a0 7a fa 49 bd 96 d3 88 3d c1 d9 1a be 58 cc fc 3d
       -0.04931114 0.06680982 -0.15122129 0.12343663
0000b0 7d 0d d2 bd 29 8e af 3d 55 68 36 3d 4d 69 d1 3d
       -0.10256479 0.08572037 0.044533093 0.10225163
0000c0 e8 f1 b2 3d 4a 1b 1a be 04 a0 f9 bb 40 d6 8a 3a
       0.08737546 -0.15049472 -0.0076179523 0.0010592416
0000d0 f4 2e e9 bc 51 b1 d8 3d 92 f3 48 3e a8 57 22 bd
       -0.028464772 0.105806954 0.19624165 -0.039634377
0000e0 c1 1d cd bb 28 28 93 bd 64 67 02 3d 13 65 99 bd
       -0.0062596505 -0.071853936 0.031836882 -0.074899815
0000f0 6a f6 1a bd 35 51 7a 3b 82 55 e7 3d 98 7f ec 3c
       -0.037832655 0.0038195376 0.11295606 0.028869435
000100 b9 94 18 bd 2c 2a f9 3b d1 e9 80 bd 2d d9 17 bd
       -0.037251208 0.007603904 -0.06294597 -0.03707235
000110 ab a0 78 be 60 90 c5 3d 3a b9 06 3e 2b 04 89 3d
       -0.2428004 0.09646678 0.13156596 0.06690248
000120 8d a4 aa bb 56 87 31 bc a7 45 ef bd ce 5a ef bc
       -0.0052076043 -0.010835489 -0.11683207 -0.029218104
000130 e4 6f 25 bb 47 4a 67 bc da 5d 4b bd 36 c7 b6 bc
       -0.0025243694 -0.01411683 -0.04965005 -0.022311788
000140 ad fa ca 3d 56 f2 e8 bc fb 68 40 3c 64 c1 01 3e
       0.09911094 -0.028435867 0.011743779 0.12671429
000150 06 cb 09 bc d8 82 98 3c 9a da 37 3a 05 02 ad 3c
       -0.008410221 0.018617079 0.000701347 0.021119127
000160 1a 26 a9 bd 5c b5 65 bd 00 f6 b7 bd f0 5a c1 bd
       -0.082592204 -0.05608116 -0.08982468 -0.09441173
000170 96 74 2d 3e 51 95 ce 3d 04 0f 8d 3d 13 43 10 3e
       0.16939005 0.100870736 0.0688763 0.14088087
000180 b7 8d 17 be bd 84 a3 3d c6 76 91 3d 6f 01 23 3d
       -0.14800154 0.07984302 0.07102732 0.03979629
000190 e9 cf 91 be 76 75 47 be e6 67 1c 3e a1 b9 ea bd
       -0.28478935 -0.19478402 0.15274009 -0.11461187
0001a0 19 2e dc 3d d4 76 d3 3d 27 92 24 be cf 07 91 bc
       0.1075098 0.10325399 -0.16071378 -0.017703919
0001b0 21 f0 6d bb 1e 6a 74 3d 0d 17 d2 bd 2b bf 9d bd
       -0.0036306458 0.059671514 -0.10258303 -0.07702478
0001c0 71 21 92 bd b7 db c6 bd 3a ca ba 3d 49 5c d3 bc
       -0.07135285 -0.09709876 0.09120603 -0.02580084
0001d0 41 a5 c8 3c aa 59 3b be 9f 42 aa bd e4 45 ae 3c
       0.024492862 -0.18295923 -0.08313488 0.02127356
0001e0 7d c2 2b 3e 3b e9 88 bd 02 dd 17 bd 17 b8 d7 3c
       0.1677341 -0.0668511 -0.037076004 0.026332898
0001f0 c2 df 20 3d 15 eb fd 3b e6 6d 42 3e 9f 1c 5a 3e
       0.039275892 0.007748971 0.18987235 0.2129998
000200 c1 76 d5 bc 1b 84 8e bd ea de 03 3e b6 68 34 bd
       -0.026057603 -0.06958791 0.12878004 -0.044045173
000210 11 5b 04 be 2b 87 8a 3d 94 bf a2 3b 89 d0 5d bd
       -0.12925364 0.067640625 0.0049666855 -0.054153953
000220 2d 17 f9 bc f8 4a 5e bd 25 db a4 3d 99 92 7b 3d
       -0.030406559 -0.054270715 0.08049611 0.061419103
000230 f9 fb 8c bd 9c 2b 13 bd 56 95 01 be 90 a8 08 bd
       -0.068839975 -0.03593026 -0.12654623 -0.03336388
000240 2b c1 5f bd 58 1e 59 bc db e5 07 3d 97 19 72 3d
       -0.05462758 -0.013251863 0.03317819 0.059106436
000250 40 d3 51 bc d2 ee bb 3c e4 4b 2c 3d ae 72 38 3d
       -0.012806714 0.022941027 0.042064562 0.045031242
000260 13 eb 74 bc f0 86 b6 3d 1d 21 ce 3c 8c 2c 24 be
       -0.014948624 0.08912456 0.025162274 -0.16032618
000270 45 5b 80 3c 9f 33 8e 3d 30 66 b5 bd 07 73 cc 3d
       0.01566852 0.0694344 -0.08857381 0.09982877
000280 e9 43 bf bd 64 9a 8a bd 7d 19 a2 3d 42 9d 2d be
       -0.09339125 -0.06767729 0.07915018 -0.1695452
000290 6c fb 65 bd bd 6e 84 3e b4 47 52 3d 98 7f 8f bd
       -0.056147978 0.25865737 0.051337913 -0.070067585
0002a0 2f ae 9d 3d 57 22 fc 3d f5 dd 89 3d 5f a7 6a 3a
       0.076992385 0.12311237 0.06731788 0.0008951332
0002b0 3f 28 c3 3d 63 2f b9 bd 7f 35 5a bb d8 d6 4b bd
       0.09529161 -0.090422414 -0.0033296046 -0.049765438
0002c0 96 f1 ec 3b 69 39 fc 3d 21 18 d9 bd 0f 0f 34 be
       0.0072309477 0.123156376 -0.10600305 -0.1758387
0002d0 43 5c e5 bd fa 39 c5 bc 06 ae 10 be 76 00 9f bd
       -0.11199238 -0.024075497 -0.14128885 -0.0776376
0002e0 86 25 12 be b9 8b 00 bd d5 27 8b bd 1e 0f dc 3d
       -0.14272127 -0.03138325 -0.06794707 0.10745071
0002f0 d6 3e 08 bd eb fc 37 bd 72 88 54 bc 90 e7 42 3c
       -0.03326305 -0.044918936 -0.012971984 0.011896029
000300 70 21 0d 3d 03 9e 12 bd 00 7f aa bc 13 3f 0c 3c
       0.034455717 -0.035795223 -0.020812511 0.00855996
000310 d6 62 2e bd 33 49 92 bd 56 12 a5 ba 86 40 89 ba
       -0.042574726 -0.07142868 -0.0012593966 -0.00104715
000320 cd 3a dc bd 52 b0 06 3d c9 b3 82 3d 7a 85 f3 3d
       -0.10753403 0.032882996 0.063819475 0.11890693
000330 de d6 83 bd a3 ab 00 3e 53 6e c9 3d a3 ec 61 bd
       -0.06437467 0.12565474 0.09835496 -0.055157315
000340 a0 25 6d 3d ad 92 0a be b2 68 2e bd 74 d7 25 bd
       0.05789721 -0.13532515 -0.042580314 -0.040488675
000350 cd 85 04 be 6a fd f5 bc c6 cd 4a 3d 75 8b 07 be
       -0.12941666 -0.030028064 0.049512647 -0.13236792
000360 db 11 8f bd 24 8a b5 bd 55 d6 12 3e 5f 27 4e bd
       -0.069858275 -0.08864239 0.14339574 -0.050330516
000370 95 f7 d1 3c f5 96 00 3c 23 dd 71 bd 0a 67 b9 3d
       0.025630752 0.007848491 -0.059048783 0.09052856
000380 29 a7 fb bd b2 76 36 3e bd cb 32 3e 1f b8 7a 3e
       -0.12287743 0.17818716 0.17460532 0.24484299
000390 6d 41 7b 3d 90 e9 7b bc 69 1a 8d bc 76 57 dc 3d
       0.06134169 -0.01537551 -0.017224507 0.10758869
0003a0 2d 3a 14 3c d5 e0 81 bc d9 55 62 3d 2c 83 b6 bd
       0.009047073 -0.015854279 0.055257652 -0.08911738
0003b0 e7 42 34 3e 9a c6 83 3d 47 f0 1c 3d c4 e6 c9 bd
       0.17603646 0.064343646 0.038315084 -0.09858468
0003c0 2c c1 33 be 57 4d db 3d 6c 0c ae bd a6 80 cd 3c
       -0.17554158 0.10708111 -0.08498463 0.025085758
0003d0 11 c3 c5 bc 01 cb d7 3c 11 c3 1b 3e 72 ab e2 3d
       -0.024140866 0.026341917 0.1521113 0.11067857
0003e0 e4 6b 07 be 79 c6 d5 bd f1 da 20 be f3 b4 92 3d
       -0.13224751 -0.10438246 -0.1570852 0.071634196
0003f0 52 b7 80 bd 12 80 04 be b2 6f 96 3d 71 80 cd 3c
       -0.062849656 -0.1293948 0.07345523 0.02508566
