results/LavaTest/Lava/Lava-320.onnx (onnx, 78852 bytes, 7 tensors)

network_body._body_endoder.seq_layers.0.weight f4 [128, 7]
0.3696738 -0.44166523 0.16319497 0.37402382 0.007507732 0.65810806 0.21248089 0.17353617
-0.6806573 -0.719021 0.36927488 -0.69444865 -0.050187092 0.6879052 0.08217777 -0.36134014
0.079923056 -0.15843393 -0.5441551 0.0764337 -0.3176922 -0.06835645 -0.2191691 -0.74322087
-0.29269946 0.2798501 0.47606784 -0.1617727 -0.13732803 0.12608428 0.01614114 -0.26882505
-0.44518554 -0.48441768 0.27068403 0.927357 -0.44641533 -0.25508797 0.9117917 0.061614707
0.0036604186 0.34222355 0.33069545 -0.23125939 0.47228763 0.7015384 -0.4218785 -0.030924471
0.015066638 0.39667714 -0.5304087 0.3533408 0.32410356 0.17168006 0.18232879 -0.049608663
-0.49461514 -0.33313075 -0.31535247 -1.0288911 0.42612702 0.41438106 0.5717165 0.63742834
-0.28059745 0.24197449 -0.4077356 0.4452192 0.389295 0.4037756 -0.66189027 0.092864834
-0.5293084 0.14386204 -0.027504781 0.13023257 -0.20175557 -0.29305092 0.100793496 -0.24164419
0.2740557 0.34939742 -0.10530091 0.25432542 -0.01580289 -0.43027648 -1.0250667 -0.25335327
0.7531091 -0.2804122 -0.72168005 -0.32332242 0.046095386 0.25503674 0.08110684 -0.08039306
-0.15741715 -0.20214759 -0.027602628 -0.084431134 0.825273 0.19817147 -0.69857717 -0.060298625
-0.14408095 -0.9675324 0.030205969 -0.010232082 0.06010394 -0.22268292 0.91795605 0.322545
-0.10555928 -0.62586415 -0.37677222 -0.20074639 -0.20489752 0.25799766 0.3798204 0.29673558
0.52527976 0.36137062 -0.14291145 -0.39940703 -0.0174021 -0.018393619 -0.15030384 -0.06836599
0.21528564 0.5243122 0.34478295 -0.53297955 -0.44537 0.13827425 0.5698047 -0.23659897
-0.07013642 -0.4746758 -0.46218666 0.42484352 0.2176262 0.03749987 0.12256684 -0.07934147
0.5089156 -0.38164264 0.16793564 0.017681146 0.9293521 -0.41369227 0.17482482 -0.027252588
-0.1735277 0.30087945 0.036897212 -0.73686576 -0.04558666 1.2621781 -0.15626717 0.40184775
-0.36954373 0.25504917 -0.5836651 0.9012888 0.22398965 -0.094223246 0.29964682 -0.13586417
-0.5144086 0.22360891 0.74230754 -0.6055601 0.29242668 0.42191786 0.52147555 -0.7500369
0.13744402 -0.24909426 0.16364448 -0.34363776 -0.2758426 0.2113349 0.031003267 0.19415721
-0.23896146 -0.43190017 0.31380743 -0.36513922 0.15389836 0.12221057 -0.2539633 0.069676675
-0.5496769 -0.28080347 -0.16750585 0.21854652 0.19753876 -0.26331612 0.2029047 0.045888364
0.481098 0.1251125 -1.0274395 -0.41855747 -0.108876176 0.37535095 0.38076097 -0.33578628
0.087095484 -0.17842682 0.027170371 0.09857044 -0.06593299 -0.069485985 0.09816378 -0.1475929
0.71354777 0.1281463 -0.21437906 -0.2434648 0.15688604 0.10742988 0.03150359 0.4813942
0.25127158 0.25491664 -0.31068236 -0.64248765 -0.4190015 0.109857395 -0.3442717 0.7720479
-0.6200625 0.11370553 -0.114688605 -0.28019246 -0.9232517 0.1733817 0.34906027 0.5913663
-0.038303416 0.5865488 0.20869619 0.10841063 -0.25533488 1.241861 0.7259972 0.03988023
-0.048456624 -0.0015016957 0.5957354 -0.051563613 -0.09239434 -0.26673186 -0.4326382 -0.19475357
00000000: e245 bd3e f221 e2be 951c 273e 0d80 bf3e
00000010: 6c03 f63b c579 283f 9794 593e 77b3 313e
00000020: 8f3f 2ebf c311 38bf 9911 bd3e 63c7 31bf
00000030: fb90 4dbd 8e1a 303f d24c a83d 9301 b9be
00000040: b3ae a33d 813c 22be c04d 0bbf 4689 9c3d
00000050: 8da8 a2be 77fe 8bbd dd6d 60be b943 3ebf
00000060: b4dc 95be 8348 8f3e 2abf f33e bea7 25be
00000070: b89f 0cbe 3d1c 013e 6d3a 843c 70a3 89be
00000080: 5cef e3be 9805 f8be 1997 8a3e 4567 6d3f
00000090: 8d90 e4be e49a 82be 2e6b 693f b45f 7c3d
000000a0: a2e3 6f3b ed37 af3e ea50 a93e 43cf 6cbe
000000b0: afcf f13e 0598 333f 7500 d8be 5155 fdbc
000000c0: 0fda 763c 4419 cb3e ddc8 07bf 16e9 b43e
000000d0: e7f0 a53e e6cc 2f3e 66b4 3a3e 7432 4bbd
000000e0: 323e fdbe 1d90 aabe e175 a1be b4b2 83bf
000000f0: 522d da3e c129 d43e 035c 123f 812e 233f
00000100: 78aa 8fbe 29c8 773e b8c2 d0be c5f3 e33e
00000110: ad51 c73e adbb ce3e a471 29bf eb2f be3d
00000120: c180 07bf 9250 133e b551 e1bc b05b 053e
00000130: 0399 4ebe c50a 96be d26c ce3d 9371 77be
00000140: 0751 8c3e 38e4 b23e 01a8 d7bd f136 823e
00000150: 1075 81bc 334d dcbe 6335 83bf 85b7 81be
00000160: c2cb 403f 3092 8fbe 06c0 38bf 848a a5be
00000170: 84ce 3c3d 2d94 823e 581b a63d 1ea5 a4bd
00000180: f631 21be c7ff 4ebe e81e e2bc 3bea acbd
00000190: 1745 533f 76ed 4a3e f4d5 32bf b1fb 76bd
000001a0: f589 13be 34b0 77bf 8272 f73c 76a4 27bc
000001b0: 8d2f 763d fe06 64be 2bff 6a3f 9e24 a53e
000001c0: 772f d8bd a238 20bf 4ae8 c0be 7690 4dbe
000001d0: a8d0 51be 4518 843e d277 c23e baed 973e
000001e0: bc78 063f 9205 b93e 6157 12be 147f ccbe
000001f0: d98e 8ebc 37ae 96bc 40e9 19be 7803 8cbd
00000200: d773 5c3e 5339 063f 6487 b03e 5971 08bf
00000210: 8907 e4be c497 0d3e b9de 113f 0047 72be
00000220: afa3 8fbd b508 f3be bba3 ecbe 1785 d93e
00000230: 67d9 5e3e 7799 193d 5304 fb3d c87d a2bd
00000240: 4b48 023f aa66 c3be 52f7 2b3e 0dd8 903c
00000250: 05ea 6d3f 79cf d3be 4705 333e d240 dfbc
00000260: 3fb1 31be df0c 9a3e 8821 173d 3ca3 3cbf
00000270: 14b9 3abd 0d8f a13f 8004 20be fdbe cd3e
00000280: d634 bdbe ce95 823e 136b 15bf ddba 663f
00000290: 8b5d 653e 1ef8 c0bd 4f6b 993e fa1f 0bbe
000002a0: 48b0 03bf bcf9 643e de07 3e3f fd05 1bbf
000002b0: f3b8 953e 9e05 d83e 6c7f 053f 6b02 40bf
000002c0: 20be 0c3e 9112 7fbe 6b92 273e 4af1 afbe
000002d0: 3e3b 8dbe 2d68 583e 90fa fd3c 26d1 463e
000002e0: 50b2 74be 0522 ddbe 5eab a03e 87f3 babe
000002f0: 8897 1d3e 8949 fa3d 7a07 82be a5b2 8e3d
00000300: a0b7 0cbf 79c5 8fbe a786 2bbe a9ca 5f3e
00000310: 9a47 4a3e 5fd1 86be 40c6 4f3e 70f5 3b3d
00000320: 7a52 f63e 7e1d 003e 2383 83bf 2a4d d6be
00000330: 79fa debd 002e c03e 1af3 c23e 2eec abbe
00000340: 1e5f b23d 85b5 36be 6694 de3c 4ddf c93d
00000350: e007 87bd ab4e 8ebd 180a c93d 9822 17be
00000360: 11ab 363f c938 033e 2f86 5bbe d64e 79be
00000370: bca6 203e 3204 dc3d e909 013d 4d79 f63e
00000380: aba6 803e 6f84 823e c211 9fbe 127a 24bf
00000390: 5d87 d6be eafc e03d 6144 b0be eea4 453f
000003a0: 6abc 1ebf 72de e83d dce1 eabd 6375 8fbe
000003b0: 395a 6cbf f98a 313e 07b8 b23e c863 173f
000003c0: 0be4 1cbd 1028 163f 74b4 553e 6406 de3d
000003d0: 41bb 82be 4df5 9e3f f4da 393f 7459 233d
000003e0: 747a 46bd 8cd4 c4ba 1d82 183f 5e34 53bd
000003f0: 3e39 bdbd 1491 88be c182 ddbe 7b6d 47be

network_body._body_endoder.seq_layers.0.bias f4 [128]
0.0 0.0 0.0 0.0 0.0 0.0 0.0 0.0
0.0 0.0 0.0 0.0 0.0 0.0 0.0 0.0
0.0 0.0 0.0 0.0 0.0 0.0 0.0 0.0
0.0 0.0 0.0 0.0 0.0 0.0 0.0 0.0
0.0 0.0 0.0 0.0 0.0 0.0 0.0 0.0
0.0 0.0 0.0 0.0 0.0 0.0 0.0 0.0
0.0 0.0 0.0 0.0 0.0 0.0 0.0 0.0
0.0 0.0 0.0 0.0 0.0 0.0 0.0 0.0
0.0 0.0 0.0 0.0 0.0 0.0 0.0 0.0
0.0 0.0 0.0 0.0 0.0 0.0 0.0 0.0
0.0 0.0 0.0 0.0 0.0 0.0 0.0 0.0
0.0 0.0 0.0 0.0 0.0 0.0 0.0 0.0
0.0 0.0 0.0 0.0 0.0 0.0 0.0 0.0
0.0 0.0 0.0 0.0 0.0 0.0 0.0 0.0
0.0 0.0 0.0 0.0 0.0 0.0 0.0 0.0
0.0 0.0 0.0 0.0 0.0 0.0 0.0 0.0
00000000: 0000 0000 0000 0000 0000 0000 0000 0000
00000010: 0000 0000 0000 0000 0000 0000 0000 0000
00000020: 0000 0000 0000 0000 0000 0000 0000 0000
00000030: 0000 0000 0000 0000 0000 0000 0000 0000
00000040: 0000 0000 0000 0000 0000 0000 0000 0000
00000050: 0000 0000 0000 0000 0000 0000 0000 0000
00000060: 0000 0000 0000 0000 0000 0000 0000 0000
00000070: 0000 0000 0000 0000 0000 0000 0000 0000
00000080: 0000 0000 0000 0000 0000 0000 0000 0000
00000090: 0000 0000 0000 0000 0000 0000 0000 0000
000000a0: 0000 0000 0000 0000 0000 0000 0000 0000
000000b0: 0000 0000 0000 0000 0000 0000 0000 0000
000000c0: 0000 0000 0000 0000 0000 0000 0000 0000
000000d0: 0000 0000 0000 0000 0000 0000 0000 0000
000000e0: 0000 0000 0000 0000 0000 0000 0000 0000
000000f0: 0000 0000 0000 0000 0000 0000 0000 0000
00000100: 0000 0000 0000 0000 0000 0000 0000 0000
00000110: 0000 0000 0000 0000 0000 0000 0000 0000
00000120: 0000 0000 0000 0000 0000 0000 0000 0000
00000130: 0000 0000 0000 0000 0000 0000 0000 0000
00000140: 0000 0000 0000 0000 0000 0000 0000 0000
00000150: 0000 0000 0000 0000 0000 0000 0000 0000
00000160: 0000 0000 0000 0000 0000 0000 0000 0000
00000170: 0000 0000 0000 0000 0000 0000 0000 0000
00000180: 0000 0000 0000 0000 0000 0000 0000 0000
00000190: 0000 0000 0000 0000 0000 0000 0000 0000
000001a0: 0000 0000 0000 0000 0000 0000 0000 0000
000001b0: 0000 0000 0000 0000 0000 0000 0000 0000
000001c0: 0000 0000 0000 0000 0000 0000 0000 0000
000001d0: 0000 0000 0000 0000 0000 0000 0000 0000
000001e0: 0000 0000 0000 0000 0000 0000 0000 0000
000001f0: 0000 0000 0000 0000 0000 0000 0000 0000

network_body._body_endoder.seq_layers.2.weight f4 [128, 128]
0.04877963 -0.0086909 -0.035908792 -0.026283683 -0.016325662 0.048792034 -0.06438477 -0.045157287
0.021315731 -0.054135244 -0.18787232 -0.08149143 0.008187747 -0.07384395 -0.03941782 0.083594225
-0.054873187 -0.028490668 0.028035406 0.09758762 0.060517844 0.0047628665 -0.04011947 0.119357914
0.12322485 0.07040864 -0.01970329 -0.043598384 0.122426786 0.19405058 0.14824696 0.08640798
-0.003537842 0.025792414 -0.07797068 0.032293625 0.011599716 -0.031810284 0.09800457 0.099251434
-0.04920065 -0.015099306 0.09394901 0.05901671 0.11521152 0.12031214 0.11843954 -0.023433495
-0.08597045 0.04038151 -0.071775146 -0.06300629 -0.11922722 0.018222276 -0.04142489 0.07581155
-0.04748195 0.036734883 -0.13166268 0.008962052 0.020839559 -0.09800007 0.09622499 -0.030448278
0.16028461 -0.08934455 0.004612244 -0.007720742 0.06967186 0.042286202 0.11180385 0.06393233
0.092957824 -0.11186967 -0.02122258 0.022868656 -0.04738744 -0.14297734 0.004771319 -0.19403256
-0.0314743 0.049046423 -0.039644867 0.11834113 -0.13575216 0.02631154 -0.1759537 -0.20866702
-0.029728673 0.044921722 -0.13770095 -0.05593246 0.053862244 0.12482263 -0.12553853 0.057259202
-0.10221879 -0.060697276 0.15586162 0.050648127 -0.07188158 0.10141838 0.084917575 0.10353148
0.06793584 -0.010782261 -0.059053455 -0.08822342 -0.020658664 0.0013736654 0.023732228 -0.120656766
0.07394592 0.040413417 -0.090068676 0.11853281 -0.030339055 0.03397797 -0.020985005 0.11049301
0.0034321009 -0.06119306 -0.05668388 -0.102514066 -0.09929255 -0.08535685 0.15779357 -0.15773925
-0.0793017 -0.069545984 -0.10914021 -0.092094615 -0.025174242 -0.10391297 -0.11224086 -0.006240348
-0.18397836 -0.23029548 0.029435396 0.051028047 -0.12897156 -0.036210176 0.019886907 0.1293397
-0.00028543064 0.12691084 0.020005027 -0.001494811 -0.10440073 0.100103155 -0.13908546 -0.06707906
0.09030774 -0.09024478 0.08244895 0.08855959 0.024022697 -0.0261332 -0.11069375 0.015314729
0.19504857 0.10473717 -0.025140733 -0.09267079 -0.10000527 -0.016321598 0.06151677 -0.028222436
0.044753104 0.13670433 -0.2717402 -0.11630005 -0.008146362 -0.09582678 0.09315723 0.12545595
0.009840471 0.13738112 0.109043 -0.070638 -0.03613766 -0.1109258 0.0018942159 0.061352137
-0.0064337235 -0.13111503 0.019631881 0.00124051 -0.11104604 0.026024861 -0.07738666 -0.03740081
-0.0805432 -0.054487664 -0.060182944 -0.08755366 -0.028637659 -0.06365198 -0.08171564 0.0076027745
-0.06001695 -0.2597593 0.08466149 0.031783566 0.12839086 -0.079765975 -0.084147915 -0.18683876
-0.101950854 -0.10625654 -0.22181262 -0.003692476 -0.022080613 -0.032699306 0.04790598 -0.09870637
-0.06305582 0.09299771 -0.014604872 -0.031859975 -0.13830625 0.0888928 0.109735206 -0.05763662
-0.05069965 -0.089529715 0.106146954 0.092279024 -0.0065917736 -0.038577158 -0.087732166 -0.13451207
0.05359778 -0.11433284 0.01682782 0.060511485 -0.075302266 0.027294382 0.12381163 -0.11387707
-0.01837671 0.028362945 -0.059698228 -0.040289346 0.072062984 0.0022911443 0.06928464 0.067893535
-0.08010267 -0.13186073 0.058165547 0.072169445 -0.08448124 0.036233377 -0.010035162 -0.00011395638
00000000: 26cd 473d 4764 0ebc 1915 13bd e150 d7bc
00000010: 65bd 85bc 28da 473d 2adc 83bd d9f6 38bd
00000020: 549e ae3c ebbc 5dbd 9a61 40be fbe4 a6bd
00000030: e625 063c 7f3b 97bd 9474 21bd 7333 ab3d
00000040: b5c2 60bd 4365 e9bc 82aa e53c 05dc c73d
00000050: 8fe1 773d d211 9c3b 5054 24bd ec71 f43d
00000060: 4f5d fc3d 6832 903d cb68 a1bc 3894 32bd
00000070: e5ba fa3d 32b5 463e 0dce 173e abf6 b03d
00000080: 24db 67bb 9d4a d33c 18af 9fbd 5246 043d
00000090: bc0c 3e3c 804b 02bd 9fb6 c83d 5644 cb3d
000000a0: 9f86 49bd 1463 77bc 5768 c03d 81bb 713d
000000b0: 04f4 eb3d 3666 f63d 6e90 f23d 9af7 bfbc
000000c0: 4611 b0bd 1567 253d d9fe 92bd 7109 81bd
000000d0: 672d f4bd e246 953c 25ad 29bd 1643 9b3d
000000e0: 6f7c 42bd 5177 163d 95d2 06be 92d5 123c
000000f0: b9b7 aa3c 43b4 c8bd 9c11 c53d ab6e f9bc
00000100: a621 243e 47fa b6bd 4f22 973b 47fe fcbb
00000110: 1fb0 8e3d 4c34 2d3d 6bf9 e43d f4ee 823d
00000120: ac60 be3d ed1b e5bd fada adbc 0c57 bb3c
00000130: 5519 42bd a768 12be ba58 9c3b 79b0 46be
00000140: 32eb 00bd e7e4 483d a862 22bd d65c f23d
00000150: 9d02 0bbe 4c8b d73c 352d 34be cfac 55be
00000160: 8c89 f3bc d7ff 373d 7a01 0dbe 6f19 65bd
00000170: a89e 5c3d 02a3 ff3d 2c8d 00be a088 6a3d
00000180: 1658 d1bd b59d 78bd 309a 1f3e 6974 4f3d
00000190: a636 93bd 71b4 cf3d 44e9 ad3d 5008 d43d
000001a0: f221 8b3d 15a8 30bc 09e2 71bd 7bae b4bd
000001b0: 5c3c a9bc 900c b43a 176a c23c e51a f7bd
000001c0: f570 973d 8a88 253d ed75 b8bd 54c1 f23d
000001d0: 9c89 f8bc 7c2c 0b3d bfe8 abbc 294a e23d
000001e0: 19ed 603b 93a5 7abd 5b2d 68bd e5f2 d1bd
000001f0: e459 cbbd 92cf aebd a394 213e 6686 21be
00000200: ee68 a2bd 206e 8ebd e784 dfbd 1a9c bcbd
00000210: 363a cebc 53d0 d4bd 89de e5bd d57b ccbb
00000220: d364 3cbe 94d2 6bbe 8022 f13c c902 513d
00000230: 1f11 04be 1f51 14bd dee9 a23c a071 043e
00000240: daa5 95b9 eaf4 013e 95e1 a33c 89ed c3ba
00000250: 0dd0 d5bd e202 cd3d 6b6c 0ebe bf60 89bd
00000260: 44f3 b83d 41d2 b8bd ffda a83d bb5e b53d
00000270: 3fcb c43c 4b15 d6bc 68b3 e2bd a1ea 7a3c
00000280: d0ba 473e 7180 d63d f0f3 cdbc 2fca bdbd
00000290: 90cf ccbd dfb4 85bc 02f9 7b3d bd32 e7bc
000002a0: 084f 373d 38fc 0b3e 8821 8bbe b82e eebd
000002b0: 5278 05bc d540 c4bd 38c9 be3d 8677 003e
000002c0: ed39 213c a3ad 0c3e f051 df3d a8aa 90bd
000002d0: 1505 14bd 112d e3bd 5747 f83a 614c 7b3d
000002e0: fcd1 d2bb 0543 06be 0ad3 a03c 9c98 a23a
000002f0: 1b6c e3bd 1732 d53c e67c 9ebd 9731 19bd
00000300: d5f3 a4bd 752e 5fbd 6482 76bd 554f b3bd
00000310: 8699 eabc f85b 82bd 885a a7bd b220 f93b
00000320: 55d4 75bd 2cff 84be 0163 ad3d 7c2f 023d
00000330: e578 033e 585c a3bd be55 acbd a952 3fbe
00000340: 9ccb d0bd 079d d9bd d922 63be 78fd 71bb
00000350: 67e2 b4bc b5ef 05bd 1039 443d 9126 cabd
00000360: 6923 81bd 9575 be3d 4649 6fbc 9b7f 02bd
00000370: 27a0 0dbe 6e0d b63d dabc e03d 6014 6cbd
00000380: 70aa 4fbd 5b5b b7bd 9363 d93d c9fc bc3d
00000390: ceff d7bb 1503 1ebd ecac b3bd 88bd 09be
000003a0: 5989 5b3d 5627 eabd 7fda 893c e4da 773d
000003b0: 1338 9abd 7898 df3c f490 fd3d 6238 e9bd
000003c0: c18a 96bc 6859 e83c 2186 74bd 7106 25bd
000003d0: c295 933d 0627 163b 1be5 8d3d c40b 8b3d
000003e0: de0c a4bd 8006 07be ff3e 6e3d 93cd 933d
000003f0: 8004 adbd 7369 143d 856a 24bc defb eeb8

action_model._continuous_distribution.log_sigma f4 [1, 2]
0.0 0.0
00000000: 0000 0000 0000 0000

action_model._continuous_distribution.mu.weight f4 [2, 128]
0.043110084 -0.0062211193 -0.034223747 -0.013733004 -0.034191504 0.0139339 0.016875781 -0.007420095
-0.0005030834 -0.014241599 0.008187284 -0.029121522 0.012916654 0.009045514 -0.022255858 -0.0071363966
0.03782289 0.0015001433 -0.005145039 0.029667223 0.010249103 -0.012200627 -0.014071311 0.014665671
-0.015279236 0.0024260324 -0.0027219735 0.015261454 0.022310829 0.0034428854 -0.009920719 0.009196751
-0.007883011 -0.009139411 -0.013144332 0.0040514744 -0.004505872 0.0058611645 0.0028987618 0.0017245235
-0.0053413636 -0.010587954 -0.0018415842 0.0064423294 -3.5080736e-06 0.00531651 -0.0028413408 -0.004546434
-0.010239909 0.001323297 -0.008363815 -0.021444783 0.021702506 0.00563372 -0.02096442 0.00020221101
-0.008353103 -0.025511393 -0.0009786667 0.03160841 -0.021346025 -0.0014890006 -0.022591779 0.027301256
0.02129843 0.000107991415 0.027440784 -0.00925958 -0.04764506 -0.0046012695 -0.005913788 0.0013340751
0.003594584 -0.013169728 0.012761541 -0.029759645 0.013439554 -0.023154853 -0.014118957 -0.009042251
-0.008254866 0.008100849 0.014187457 -0.0049584014 -0.015400429 0.0002221039 0.01664315 -0.02149815
0.01814859 0.006224503 0.011093671 -0.019687755 0.016892519 0.008415614 -0.0068686316 -0.037483186
-0.020760847 0.019414822 0.0037801147 0.0055794897 0.0034557823 0.023629745 -0.04355768 -0.007919525
0.025601177 0.0081274565 -0.010725259 -0.028699461 0.0028749153 0.0051052277 -0.023995293 0.0023910063
0.00033338054 0.017452328 -0.0038249306 -0.016779363 -0.009837482 0.014075932 -0.022328248 0.020222642
0.017543482 0.01179113 -0.0022579543 0.006205288 -0.025435967 0.0009419935 -0.00649224 0.01629261
-0.02538283 0.034199983 0.018519657 0.009869155 0.007281712 0.010609662 -0.016299857 0.009503017
0.0015529626 0.022913257 0.015816195 0.008369082 -0.014496147 -0.021102127 0.021139322 0.010224845
-0.018970976 0.010564017 -0.006853325 0.016026808 -0.025628341 -0.011180796 -0.017444914 0.0073223324
-0.0074127275 0.021117061 0.0041304147 -0.005580786 0.007892831 -0.014774235 -0.015178799 0.011788204
0.024100397 -0.0074568973 0.0110468585 -0.021507312 -0.011988258 -0.027677452 0.0023879467 0.0016204935
-0.003389046 -0.031499255 -0.018639272 -0.0064991647 0.0007606463 0.010392293 -0.017366746 -0.021107495
-0.015203788 0.0022485827 0.009450117 -0.00066570094 -0.01724819 -0.010776676 0.005879096 0.008077651
-0.012568535 0.012209656 -0.0048509953 0.021588078 -0.017935889 -0.035567306 -0.014789092 0.010089163
-0.008804154 0.0015228151 -0.0070552984 0.0033559059 0.013783762 -0.009929809 -0.015351954 0.0050705415
0.0018062111 0.016510976 -0.0244693 0.017031617 -0.020094812 -0.013577518 -0.007218515 0.014115793
0.019098157 -0.014145441 -0.008762374 0.022702148 0.0019300511 -0.007631539 0.021212142 0.01562385
-0.030052874 -3.577216e-05 0.01078853 -0.017053468 -0.006161719 -0.02910904 -0.039385118 -0.008957741
-0.010738226 0.011313258 0.029089151 -0.0037502553 0.015803186 0.024718808 1.6226709e-07 0.0072842524
0.014435427 0.004152611 -0.04391758 0.020046242 -0.0185171 -0.029220928 -0.010787448 0.016046343
-0.0013492097 -0.009791989 -0.029509097 0.010077237 0.006210517 -0.021979822 0.0056924485 -0.024876595
0.0036486983 0.038718816 -0.0041560284 0.0025352105 -0.0069627883 -0.016908204 0.019672919 0.01137906
00000000: 3394 303d 88da cbbb 332e 0cbd 6500 61bc
00000010: 640c 0cbd 034b 643c 143f 8a3c 4524 f3bb
00000020: 5be1 03ba 9855 69bc f523 063c 4290 eebc
00000030: 60a0 533c a333 143c eb51 b6bc 6fd8 e9bb
00000040: 2dec 1a3d 75a0 c43a b797 a8bb ad08 f33c
00000050: dbeb 273c 23e5 47bc 5b8b 66bc 4848 703c
00000060: c355 7abc 12fe 1e3b 2363 32bb 2d0b 7a3c
00000070: 33c5 b63c 08a2 613b 838a 22bc f8ad 163c
00000080: bf27 01bc 78bd 15bc 535b 57bc 3bc2 843b
00000090: fea5 93bb 030f c03b 27f9 3d3b 6809 e23a
000000a0: 9b06 afbb 1979 2dbc 5061 f1ba 2d1a d33b
000000b0: 3f6c 6bb6 1e36 ae3b ca35 3abb 41fa 94bb
000000c0: 4bc5 27bc 7b72 ad3a 6208 09bc f8ac afbc
000000d0: 74c9 b13c 129b b83b 93bd abbc 9b08 5439
000000e0: 74db 08bc 45fd d0bc 9b46 80ba d277 013d
000000f0: dcdd aebc 922a c3ba 6512 b9bc e2a6 df3c
00000100: 0c7a ae3c 7379 e238 7fcb e03c 7eb5 17bc
00000110: 7727 43bd 3fc6 96bb 73c8 c1bb 22dc ae3a
00000120: 1d93 6b3b d8c5 57bc c815 513c 80ca f3bc
00000130: 9331 5c3c 3faf bdbc 3353 67bc f325 14bc
00000140: 6b3f 07bc 6cb9 043c 8272 683c 167a a2bb
00000150: 1552 7cbc 90e4 6839 3757 883c e31c b0bc
00000160: 5aac 943c eaf6 cb3b 3bc2 353c 3748 a1bc
00000170: 2e62 8a3c a5e1 093c 4212 e1bb f887 19bd
00000180: a712 aabc d50b 9f3c cdbb 773b 27d4 b63b
00000190: 687a 623b 2b93 c13c 8a69 32bd e5c0 01bc
000001a0: 8fb9 d13c 0629 053c ffb8 2fbc 221b ebbc
000001b0: 1369 3c3b c149 a73b c791 c4bc 6eb2 1c3b
000001c0: 94c9 ae39 2ff8 8e3c b0ab 7abb e074 89bc
000001d0: 642d 21bc bd9e 663c bbe9 b6bc f4a9 a53c
000001e0: 59b7 8f3c 952f 413c 30fa 13bb bb55 cb3b
000001f0: 175f d0bc 1df0 763a dbbc d4bb 1478 853c
00000200: a7ef cfbc 4815 0c3d 89b6 973c 3cb2 213c
00000210: 6d9b ee3b 26d4 2d3c 4787 85bc 8bb2 1b3c
00000220: c78c cb3a 95b4 bb3c f790 813c 791e 093c
00000230: 3f81 6dbc 5ede acbc 5f2c ad3c 1c86 273c
00000240: 0569 9bbc b314 2d3c db91 e0bb a74a 833c
00000250: 87f2 d1bc a82f 37bc a3e8 8ebc 2df0 ef3b
00000260: 77e6 f2bb b0fd ac3c 6e58 873b 07df b6bb
00000270: ef50 013c a20f 72bc 7fb0 78bc 5023 413c
00000280: 326e c53c fd58 f4bb e2fd 343c 1a30 b0bc
00000290: 666a 44bc d3bb e2bc 197f 1c3b bd66 d43a
000002a0: c21a 5ebb 5d05 01bd 63b1 98bc f2f6 d4bb
000002b0: 1c66 473a 7044 2a3c b544 8ebc a0e9 acbc
000002c0: 4f19 79bc f55c 133b aad4 1a3c 6f82 2eba
000002d0: 134c 8dbc a890 30bc 6fa5 c03b 2058 043c
000002e0: 42ec 4dbc 020b 483c 19f5 9ebb 7bd9 b03c
000002f0: 49ee 92bc 06af 11bd f34d 72bc 044d 253c
00000300: 4c3f 10bc 3299 c73a 2230 e7bb c2ee 5b3b
00000310: 4ad5 613c a3b0 22bc c386 7bbc c926 a63b
00000320: 63be ec3a 0742 873c d773 c8bc e485 8b3c
00000330: e09d a4bc 3d74 5ebc 4b89 ecbb ed45 673c
00000340: bd73 9c3c 48c2 67bc 0f90 0fbc dbf9 b93c
00000350: c5f9 fc3a fd11 fabb 16c5 ad3c 2dfb 7f3c
00000360: 7231 f6bc 100a 16b8 60c2 303c b7b3 8bbc
00000370: 3fe8 c9bb 1576 eebc 4a52 21bd 7dc3 12bc
00000380: 62ef 2fbc 3e5b 393c 5f4c ee3c d8c6 75bb
00000390: af75 813c 197f ca3c a33b 2e34 bdb0 ee3b
000003a0: 9282 6c3c a012 883b ece2 33bd 0438 a43c
000003b0: 2cb1 97bc ba60 efbc d6bd 30bc 9f73 833c
000003c0: f7d7 b0ba 946e 20bc 10bd f1bc ff1a 253c
000003d0: 9881 cb3b 070f b4bc b887 ba3b 00ca cbbc
000003e0: 001f 6f3b 9f97 1e3d 4b2f 88bb c625 263b
000003f0: 1a28 e4bb 1383 8abc 1a29 a13c 3d6f 3a3c

action_model._continuous_distribution.mu.bias f4 [2]
0.0 0.0
00000000: 0000 0000 0000 0000

action_model._discrete_distribution.branches.0.weight f4 [2, 128]
-0.013430138 -0.0037559927 -0.0073418184 -0.0057707177 -0.021657027 -0.0025961932 0.01039114 0.008953292
0.0028120656 0.00028160572 0.005438998 -0.007521808 -0.0013977137 0.013046932 0.01047467 7.2307696e-05
-0.017544616 0.006826368 -0.00060195936 0.009408709 -0.004092347 0.006660146 0.006076392 0.0018490441
0.0066860016 0.008987572 -0.008929308 -0.006653273 0.014189551 -0.004119994 -0.004166629 0.0048865485
0.010962139 -0.018639058 0.006603755 -0.003746147 0.0051303003 3.774191e-05 -0.001448721 0.005439766
-0.0057339296 0.0046541775 -0.00021852754 -0.0056454455 -0.008032517 0.00048849353 0.011767618 -0.016835403
-0.0031262306 -0.014121453 -0.007222717 -0.004678416 -0.00073341146 -0.008985976 0.0015931365 0.0015122762
-0.0043170676 0.0050474945 -0.009012173 -0.007669169 0.0007278623 -0.0071032764 0.0015898816 -0.0030431438
-0.0016099721 -0.006887659 -0.0046783206 0.0010039252 0.0048382143 0.005773656 -0.010604213 0.008704627
-0.00808056 -0.010331525 -0.0030466358 -0.016390067 0.015885135 0.0052305446 0.0062377495 0.0009484063
0.0046074963 -0.0007269832 0.005710658 0.01126895 -0.008326526 0.009912585 0.012432481 0.006595101
-0.0023575195 0.011450269 -0.028073067 0.01441218 -0.016273554 0.023013292 -0.0015971663 0.013703524
0.017122123 0.011812468 -0.0005170905 0.0019377813 -0.005075784 -0.0097381985 0.0014933633 0.003397063
-0.00073715445 0.021690605 0.008604752 -0.002004513 0.0069601457 0.002497252 0.014493221 0.011109281
0.0046019214 0.008862277 0.0023566152 -0.009082671 0.00035160859 0.0014869798 -0.0028711422 -0.015059598
-0.004877967 0.0031328597 0.005774533 0.0022274458 -0.0015177038 -0.006334567 0.01093049 0.00014487756
0.0050323005 -0.0056345146 0.004098668 0.0050491835 0.0057513737 -0.013957287 0.0034793534 0.0076780356
-0.025785139 -0.0065105744 -0.0049500833 -0.011675748 -0.02147099 0.010492559 -0.015946092 0.0025670414
0.0074890763 -0.0030571676 0.0045068664 0.006181856 0.0008398648 0.009736472 0.004289468 0.009704947
0.0067051435 0.011090631 -0.008965238 0.015827302 0.0132471 -0.023002096 -0.0029259126 -0.0055052666
0.00041551312 0.021507327 0.0060611134 0.005627725 -0.006095433 -0.0045939377 0.008887812 0.006770844
-0.014361094 0.005515572 -0.0020676742 0.006040432 0.0063776383 -0.003239948 -0.012974912 0.0051756343
-0.0092293685 -0.0024352146 -0.0019648098 -0.005528096 0.011865505 0.0011160959 0.011925894 0.0023348664
0.0013392679 -0.011524955 0.0039253044 0.0035954628 -0.0014318902 0.0047253906 0.0037631101 -0.017748337
-0.007817383 -0.014892573 -0.0025770245 -0.00804711 -0.009684059 -0.0027779674 0.003834176 0.0032794157
-7.0834045e-05 -0.0041660964 0.00041064076 0.016641967 -0.0022183536 0.0020307058 -0.007050585 0.0061496147
-0.005474915 0.0003731649 -0.009431501 0.016697638 0.0030417826 -0.010872233 -0.0017550917 0.016218811
-0.0008860179 -0.010047391 -0.004210321 -0.0015994331 0.008638466 0.008036371 0.008431316 0.0043722535
-0.0062998505 -0.0035235186 -0.0105795 0.003049335 -0.015768025 -0.006637586 0.004023221 0.0065432535
-0.009225505 0.013815989 -0.01966161 0.0022628896 0.011002102 0.0019278821 0.022230713 -0.0020597812
0.0030842556 0.01228585 -0.014407719 -0.015244325 0.014047983 -0.008199074 0.0030944843 -0.011792414
-0.00013301338 -0.012908748 0.008678086 0.0031046374 -0.001858271 -0.0035556175 -0.008866349 -0.0009995648
00000000: 150a 5cbc 1a27 76bb a393 f0bb 4a18 bdbb
00000010: 146a b1bc e524 2abb 9a3f 2a3c d4b0 123c
00000020: a24a 383b 7ba4 9339 9f39 b23b 8079 f6bb
00000030: 7d33 b7ba cdc2 553c f39d 2b3c e6a3 9738
00000040: bab9 8fbc baaf df3b cfcc 1dba fc26 1a3c
00000050: 1819 86bb 5b3d da3b 781c c73b a05b f23a
00000060: 3f16 db3b 9c40 133c 3b4c 12bc b303 dabb
00000070: 4a7b 683c 0401 87bb 3888 88bb 571f a03b
00000080: 8b9a 333c f0b0 98bc 5064 d83b eb81 75bb
00000090: 141c a83b 114d 1e38 03e3 bdba 1140 b23b
000000a0: b0e3 bbbb 1282 983b 8a24 65b9 6efd b8bb
000000b0: d19a 03bc 3f0e 003a f8cc 403c 66ea 89bc
000000c0: 72e1 4cbb ab5d 67bc 8bac ecbb 664d 99bb
000000d0: 6942 40ba ea39 13bc cad0 d03a 9237 c63a
000000e0: 3076 8dbb 7465 a53b cba7 13bc a74d fbbb
000000f0: 03ce 3e3a 9ac2 e8bb 9363 d03a 7b6f 47bb
00000100: b305 d3ba dfb1 e1bb 994c 99bb 2496 833a
00000110: e289 9e3b f030 bd3b 4bbd 2dbc da9d 0e3c
00000120: 5364 04bc 8e45 29bc 11aa 47bb 7644 86bc
00000130: 8b21 823c fd64 ab3b 0966 cc3b 789e 783a
00000140: 7bfa 963b 0493 3eba 7920 bb3b 67a1 383c
00000150: fb6b 08bc 6568 223c 9bb1 4b3c b81b d83b
00000160: 9d80 1abb e999 3b3c 7df9 e5bc 1021 6c3c
00000170: 1e50 85bc 5f86 bc3c 0258 d1ba bf84 603c
00000180: b243 8c3c 1589 413c 5b8d 07ba 27fd fd3a
00000190: c352 a6bb f78c 1fbc f5bc c33a 42a1 5e3b
000001a0: 993d 41ba 7fb0 b13c f2fa 0c3c 265e 03bb
000001b0: ef11 e43b f0a8 233b fa74 6d3c b403 363c
000001c0: b7cb 963b 1533 113c 7171 1a3b 7ccf 14bc
000001d0: 1b58 b839 c3e6 c23a c629 3cbb 88bc 76bc
000001e0: 5ad7 9fbb aa50 4d3b 4b38 bd3b 57fa 113b
000001f0: b0ed c6ba 3392 cfbb cc15 333c 46ea 1739
00000200: ffe5 a43b bca1 b8bb 1f4e 863b 9f73 a53b
00000210: 0576 bc3b 1bad 64bc dd05 643b 0898 fb3b
00000220: 5b3b d3bc a856 d5bb 4f34 a2bb a34b 3fbc
00000230: eee3 afbc fbe8 2b3c 61a1 82bc cf3b 283b
00000240: ed66 f53b c35a 48bb 56ae 933b 2b91 ca3b
00000250: 5f2a 5c3a b985 1f3c aa8e 8c3b 7f01 1f3c
00000260: d2b6 db3b 7ab5 353c efe2 12bc 42a8 813c
00000270: 5d0a 593c e46e bcbc abc0 3fbb 8665 b4bb
00000280: 3ad9 d939 2230 b03c 4e9c c63b c768 b83b
00000290: 33bc c7bb be88 96bb 2f9e 113c f5dd dd3b
000002a0: cb4a 6bbc f9bb b43b d181 07bb d1ee c53b
000002b0: 82fb d03b 4f55 54bb ba94 54bc 5e98 a93b
000002c0: c736 17bc 1f98 1fbb 0ac4 00bb 0825 b5bb
000002d0: 8967 423c f749 923a d364 433c 8f04 193b
000002e0: 608a af3a 2ad3 3cbc d79f 803b dba1 6b3b
000002f0: 43ae bbba 73d7 9a3b 839e 763b f664 91bc
00000300: 7b14 00bc faff 73bc 4ce3 28bb 07d8 03bc
00000310: e3a9 1ebc 8f0e 36bb cd46 7b3b 77eb 563b
00000320: bd8c 94b8 c083 88bb 454b d739 bc54 883c
00000330: cc61 11bb 9715 053b 9808 e7bb b582 c93b
00000340: ea66 b3bb 58a5 c339 9586 1abc 7cc9 883c
00000350: a558 473b 7321 32bc 1b0b e6ba 50dd 843c
00000360: a843 68ba d09d 24bc bcf6 89bb 12a4 d1ba
00000370: 5a88 0d3c fcaa 033c 8123 0a3c 1f45 8f3b
00000380: fa6e cebb d5ea 66bb a455 2dbc 5ad7 473b
00000390: f22b 81bc 1b80 d9bb 39d5 833b ca68 d63b
000003a0: 9326 17bc 755c 623c 6211 a1bc fd4c 143b
000003b0: 2942 343c fdb0 fc3a 2f1d b63c 65fd 06bb
000003c0: 3921 4a3b 974a 493c 5a0e 6cbc 55c3 79bc
000003d0: 8329 663c 6955 06bc d5cc 4a3b f834 41bc
000003e0: 8279 0bb9 377f 53bc 882e 0e3c 2c77 4b3b
000003f0: 3a91 f3ba 5d05 69bb 2a44 11bc d403 83ba
